p1_navigation/checkpoint.pth (torch_old, 28417 bytes, 6 tensors)

fc1.weight f4 [64, 37]
000000 b1 b8 12 3e c2 89 36 bc a0 83 2c be a7 93 49 be
       0.14328267 -0.011141242 -0.16847086 -0.19685231
000010 d5 eb de be 07 86 37 3e ee 00 31 be 53 ee 02 3e
       -0.435393 0.17922221 -0.17285511 0.12786226
000020 35 9a 29 be 74 9a 9f be bd 23 f4 bd cf 4e f8 bd
       -0.16562732 -0.31172526 -0.11920879 -0.121244065
000030 de 4a d6 3c af 6b ad bd 6a 28 1d be 16 52 1c 3d
       0.026158746 -0.08467805 -0.15347448 0.03816422
000040 9f 04 59 bc f0 d9 ef 3d d2 f6 c4 3c af 63 8d bd
       -0.013245731 0.1171149 0.024043474 -0.06903779
000050 cd 50 4c bd 67 90 41 3e 0d 17 e3 bd b7 b3 80 3e
       -0.049881745 0.18902741 -0.11088381 0.25137112
000060 de 12 ad bc 83 d8 32 bd 73 d9 16 3e 7c a9 20 bc
       -0.02112716 -0.043663513 0.14731388 -0.009806033
000070 d4 5c d1 bd 80 0c 05 be b5 7d fd bd 5b 2f 51 3e
       -0.10222784 -0.1299305 -0.12377492 0.20428221
000080 b0 76 d3 bd 09 68 12 bd e2 21 58 be 6f d5 04 be
       -0.10325372 -0.035743747 -0.21106675 -0.12972043
000090 0f 7e 45 bd 53 5f 85 3e cb 70 e4 3c 2c 28 3e bb
       -0.048215922 0.2604929 0.027885815 -0.0029015644
0000a0 41 7e a7 3c fe b8 c3 be e5 f4 81 3d cf 25 46 be
       0.020445945 -0.38227075 0.06345538 -0.1935036
0000b0 dd 9e 83 bd 17 cd ed bd 4d b4 88 be 38 65 ce 3d
       -0.06426785 -0.116113834 -0.2670006 0.100779
0000c0 fd 88 72 bd e6 57 be 3d 0a 74 4f 3d 0b 16 57 3e
       -0.059212673 0.09294109 0.050647773 0.21004502
0000d0 5f de 02 3e 0d 1c e3 3c 81 b1 a1 3d a6 4c 22 bd
       0.1278014 0.027723337 0.07895184 -0.03962388
0000e0 d5 f1 1d be c3 d1 0d bd 60 00 3d be a6 4a d6 bd
       -0.15424283 -0.034623872 -0.18457174 -0.10463457
0000f0 0f 0f bc 3d 19 62 e1 3d 0b c6 4e bb 66 c8 3a 3e
       0.0918256 0.11005039 -0.0031551148 0.18240508
000100 0e f7 4a bc e9 19 d4 bd 07 dd 35 be ab 86 9e 3d
       -0.012388004 -0.103565045 -0.17760096 0.077405296
000110 07 e8 25 bb 5b 63 f3 3d 4b 19 4f 3d f1 7b bb 3d
       -0.00253153 0.11884185 0.05056123 0.09154499
000120 e1 d5 40 3c 97 04 7e 3c 74 a4 27 3e 44 3f 80 bc
       0.011769743 0.015504024 0.16371328 -0.015655167
000130 d8 fb 44 3e df 15 32 be a0 af 41 be 14 52 40 be
       0.19236696 -0.17391156 -0.18914652 -0.1878131
000140 9c de 1d be e8 e9 88 3e a2 63 79 3e 9d ee ab be
       -0.1541695 0.26740956 0.24354413 -0.33580485
000150 2d 5d 10 be de 7e f2 3b 0f 54 b7 3d b0 86 d1 bd
       -0.14098044 0.0074003777 0.0895158 -0.10230768
000160 51 4d 7f bd 2f 6d fa 3c a0 c8 e6 bc 66 fa 13 3e
       -0.062329594 0.03056964 -0.028171837 0.14450988
000170 8b 21 d7 bd fb 17 d1 bd 04 5c 46 be 68 6a 62 be
       -0.10504445 -0.10209652 -0.19371039 -0.22110903
000180 b1 5d 3d 3e f8 4d 94 bc 44 81 a6 bd bf 7a 3c bd
       0.18492772 -0.018103585 -0.08130124 -0.046015497
000190 1b 8f df 3d ad 67 5f 3e 4d b8 7f be c8 51 82 3d
       0.10915967 0.21816893 -0.24972649 0.06363255
0001a0 dc fd 3b be ee 8c 37 bd e0 bb 88 3c bd c7 41 be
       -0.18358558 -0.044812135 0.016691148 -0.1892385
0001b0 c7 b7 68 be b9 e7 07 3e eb 33 71 bc e4 d0 21 be
       -0.22726355 0.13271989 -0.014721851 -0.15802342
0001c0 48 ef 21 bd 95 3a 98 3e d6 55 9c 3d 3d 72 c3 be
       -0.039534837 0.29732195 0.076335594 -0.38173094
0001d0 f7 f3 8f bb 36 16 b5 bd 54 8a 28 bb 03 13 a8 3d
       -0.0043930965 -0.08842127 -0.0025717216 0.08206751
0001e0 b4 78 56 bd db d7 aa 3c 6b ec 8a be 86 76 0d 3e
       -0.052361205 0.020854881 -0.27133498 0.13814744
0001f0 95 11 19 be cb f0 31 be c2 96 2b 3c e6 a6 9c be
       -0.14948113 -0.17377011 0.010472955 -0.30596083
000200 cc 3b 61 bd ec a2 03 be f8 ac ea bd 0a 1c 13 3d
       -0.054988667 -0.12855119 -0.114587724 0.035915412
000210 ba 59 10 be e7 5d bd 3d 93 83 21 be 00 6a 29 be
       -0.14096728 0.09246426 -0.15772848 -0.16544342
000220 cd 47 6c be 82 f7 61 be 3b a5 2c 3e 68 8f 56 3e
       -0.23074265 -0.22067073 0.16859905 0.20953143
000230 52 9a b4 3e d6 1f 67 3e 32 1b 2c bc 8a c0 5c be
       0.35273987 0.22570738 -0.010504531 -0.21557823
000240 8b f3 7a be 07 fb 73 bf 2d db cf 3c 66 5f 3b 3c
       -0.24506967 -0.9530491 0.025373066 0.011436319
000250 df ad 2d bc 6d 51 56 be 74 b7 84 bd 41 9e 83 be
       -0.010600536 -0.20929499 -0.064803034 -0.25706676
000260 c1 7b 11 3c e7 e1 73 3e 17 90 79 3d 7c 4d bc be
       0.008879603 0.23816644 0.06092843 -0.36777866
000270 a2 c5 5c bd 0d 4d 8d bf f4 d4 01 be b8 59 0f 3c
       -0.053899415 -1.1039139 -0.12678891 0.008749418
000280 36 97 4d be 9d 55 1b 3e 1c 73 63 bd 1c e0 38 be
       -0.20077214 0.15169378 -0.0555297 -0.18054241
000290 1b cc 32 3d 7e 6b e5 3c 84 5c 94 3d 2f 5a e0 3d
       0.04365168 0.028005358 0.072442085 0.10954701
0002a0 a0 4b 53 be 8f 05 e3 bc 81 44 8a 3d 68 fa 23 3e
       -0.20634317 -0.027712611 0.06751347 0.16013491
0002b0 b6 cc 22 3e 56 25 61 bd b9 75 70 bb 7e 69 fe 3d
       0.15898404 -0.054967247 -0.0036691262 0.12422465
0002c0 e4 6f 9d 3d d4 1e 05 3e 2f 5b 2e 3e e3 f7 22 be
       0.07687357 0.13000041 0.17026971 -0.15914874
0002d0 8d 60 9d 3d ff 98 6b bd dd 5d 79 be 6a 03 e3 3a
       0.07684431 -0.057518955 -0.24352212 0.0017319743
0002e0 4b 21 82 bb d0 fd b7 bc e5 96 28 3d 24 46 19 bd
       -0.003971254 -0.022459894 0.04115953 -0.037420407
0002f0 05 d2 6a bd 19 c5 a4 3d 02 f8 9d 3e 1d dd 17 be
       -0.057329196 0.08045406 0.30853277 -0.14830442
000300 58 fc cb be 46 33 9f bd 1c cb 9e bf ef a2 03 bd
       -0.3984096 -0.077734515 -1.2405734 -0.032137807
000310 93 6f 9c bd e4 08 b5 bc f7 22 e2 bd 51 b7 ae 3d
       -0.076384686 -0.022098966 -0.11041825 0.085310586
000320 39 5b d8 bb b9 ac c5 3d 00 d8 e3 bd 0e e0 4f bc
       -0.0066026715 0.09652085 -0.11125183 -0.012687696
000330 57 82 6d bd 8f b8 8f 3d c5 e8 f4 3d 76 09 33 bc
       -0.05798563 0.07017624 0.1195846 -0.010927549
000340 17 98 50 3e 61 dd 95 3e cf 17 9e bb 25 67 f3 bc
       0.20370518 0.2927046 -0.0048246155 -0.02971227
000350 40 ca 89 bd 30 38 8a 3c be 40 bd bd 4f b4 90 3d
       -0.06728029 0.016872495 -0.09240864 0.07065641
000360 c3 69 68 bd 4b 7f 1f be 6a 0b 4a bc c7 d7 0c be
       -0.056741487 -0.15575902 -0.012331823 -0.13754188
000370 7e 76 cb bc 91 11 9c 3d 7b ca 34 bd a1 a3 40 be
       -0.024836775 0.07620538 -0.044138413 -0.1881242
000380 7f 61 ca 3c bf ac 95 bd c9 8d 99 be 7a 07 1d 3d
       0.024704693 -0.07308339 -0.29990986 0.03833721
000390 3c 17 c2 be 90 66 74 bc f0 5a c1 bd ce 44 b6 3e
       -0.3790835 -0.014917031 -0.09441173 0.3559937
0003a0 b8 16 73 bd 59 88 70 3d cd 81 00 3e d5 00 15 be
       -0.05934784 0.05872378 0.12549515 -0.14551099
0003b0 78 be 55 be 6d 8e 8b be f9 8a 72 be d2 68 00 3e
       -0.2087344 -0.272571 -0.23685826 0.12539986
0003c0 67 13 33 3d c8 26 32 3d f8 66 3a bc 20 3e 8b bd
       0.043719675 0.043494016 -0.011377089 -0.06798959
0003d0 fb 48 09 be 10 2b 44 be eb 7e 75 3d 84 09 52 be
       -0.13406746 -0.19157052 0.05993549 -0.20511442
0003e0 39 d9 dc 3b 07 b5 d7 bd b5 d1 40 be ce de 86 3c
       0.006739762 -0.10532575 -0.18829997 0.016463663
0003f0 c1 cd 1f bd 8c 3a f0 bb 9e ba 29 be 83 e7 75 3c
       -0.03901458 -0.007331198 -0.16575095 0.01500881

fc1.bias f4 [64]
000000 89 4f f5 3d e6 21 18 3c 87 08 f4 bd c1 9b 1e bd
       0.11978061 0.009285426 -0.11915689 -0.038722757
000010 25 cc 46 3e 54 2c 6c bd 5d d7 13 be ad 33 07 3e
       0.19413812 -0.057659462 -0.14437623 0.13203306
000020 55 69 c9 bc 6c 3b 33 be 2f 27 29 3e a1 cb 25 3e
       -0.024586359 -0.17503136 0.16518854 0.1619096
000030 f8 4a 18 3e 7e e3 d1 3c 96 5f 4f bd db d4 ca bc
       0.14872348 0.025621172 -0.050628267 -0.0247597
000040 b7 7b c4 3b a3 8c 4d bd 10 ae 86 bd 4b 0d 4f be
       0.0059961933 -0.05018295 -0.065761685 -0.20219915
000050 83 2f c4 bd 66 8f 62 3d 85 24 55 3c 65 92 75 bd
       -0.09579375 0.055312537 0.013009195 -0.059954066
000060 05 4f 12 be b6 2e 30 3e 1d a5 91 ba a5 3e 3b be
       -0.14287956 0.17205319 -0.001111183 -0.18285616
000070 4c 82 ff 3d bf 7b f3 3d ff 38 b5 3c 1e b4 24 be
       0.12476024 0.11888837 0.022121904 -0.16084334
000080 21 88 3e 3e 1c 35 1a bd 91 7c 0a be 40 09 c8 3c
       0.18606617 -0.037648305 -0.13524081 0.024418473
000090 fe 19 34 bd 8d 3a 3b 3d 73 ca 03 bd ad aa 44 be
       -0.0439701 0.045710135 -0.032175492 -0.19205733
0000a0 69 51 e4 bd f3 22 26 bd 92 7b 34 bd d4 45 29 3e
       -0.1114834 -0.040560674 -0.04406316 0.16530544
0000b0 8e e3 fe 3c 9d 3e 1d bd 25 0a a2 3d 61 e9 26 be
       0.031114366 -0.03838979 0.07912091 -0.16299964
0000c0 0c a3 c5 bd 74 6e b4 3d 21 01 6c be 89 52 8a 3c
       -0.09650239 0.0881013 -0.23047306 0.016885059
0000d0 3d 86 1b bc 02 eb 22 be bb d8 09 be a4 5b 7f 3b
       -0.009492454 -0.15909961 -0.13461582 0.0038964534
0000e0 b0 8a 1d 3e 05 a2 a9 bd 54 6d be bd b9 98 21 be
       0.15384936 -0.08282856 -0.092981964 -0.15780915
0000f0 7e b2 82 3c 58 75 e2 3c 95 b5 20 3d 2c 3a da 3c
       0.015954252 0.027643844 0.03923567 0.026639067

fc2.weight f4 [64, 64]
000000 f8 91 b6 3d a5 41 3e 3d fd a3 2f 3e f4 81 86 3e
       0.0891456 0.046449322 0.171524 0.2627102
000010 a0 4e a7 bd 53 f4 2c be f7 11 3e 3d 0e 0c 5a bd
       -0.081692934 -0.16890077 0.04640385 -0.053234152
000020 25 97 94 bd 51 b8 fd 3c ea a4 05 3d e3 b9 2f bd
       -0.07255391 0.030971678 0.032627977 -0.042901885
000030 95 14 18 be cd b8 85 3e 65 b1 87 bd 76 01 65 bd
       -0.14851601 0.26117554 -0.06625632 -0.055909596
000040 cc d4 c0 be 27 b7 36 bc cf eb 10 3d a2 05 9a bd
       -0.3766235 -0.011152065 0.035381135 -0.075206056
000050 0f 5d 5d bd 0f 8b f0 3d cb 0d ae 3d 53 e2 59 be
       -0.054043826 0.11745273 0.084987246 -0.21277742
000060 ee 0d 5f bd 72 ec 6c 3c 4b bd 4f ba a4 45 1e be
       -0.054456644 0.01446067 -0.000792463 -0.15456253
000070 96 6d 52 be 54 5c be be 64 9e 56 3e 2a 14 67 be
       -0.20549616 -0.37179816 0.20958859 -0.22566286
000080 da 3a b6 3c d6 dd 96 bc 9e 7d 82 be 45 12 13 bf
       0.02224486 -0.018416326 -0.25486463 -0.5744975
000090 15 30 a3 bd c0 db be 3e b6 33 c4 be cd 38 66 be
       -0.07968155 0.3727703 -0.38320702 -0.22482605
0000a0 80 66 1f bf 84 ea 23 be 24 75 59 bc 87 86 2e 3d
       -0.6226578 -0.1600743 -0.013272557 0.042608764
0000b0 e2 68 62 bb 72 cd 7e be 3a 1a d9 bc c5 c1 44 3e
       -0.0034547378 -0.24883059 -0.026501764 0.19214542
0000c0 5b 1e 15 be 6e 02 53 3b 22 53 0e bd 6d 00 08 bd
       -0.14562361 0.0032197493 -0.03474725 -0.03320353
0000d0 97 fb 88 be fc af 9b 3d e0 82 0d 3e 13 6c fb bd
       -0.26754448 0.07601926 0.13819456 -0.12276473
0000e0 27 61 49 bd e8 39 85 be 26 11 58 be 95 e3 13 3e
       -0.049164917 -0.2602074 -0.21100292 0.14442284
0000f0 8b df 03 3e 07 a7 8c 3e 0a 23 bc be 4f de 9a bc
       0.12878244 0.27471182 -0.36745483 -0.018904833
000100 4b 72 ca bd c5 3a fc 3d 16 66 0a be 8c 5c c1 3d
       -0.09885081 0.12315897 -0.13515505 0.0944148
000110 6d bf d7 3d c6 59 18 3e 9d 92 e9 bd 02 ff 89 3e
       0.105345584 0.14877996 -0.114049174 0.26952368
000120 84 7d 27 be 80 83 91 be 97 08 e4 bd 0e 77 40 3d
       -0.16356474 -0.2842064 -0.11134451 0.04698854
000130 a9 41 b6 bd fd 36 17 bd 4c d3 1c bd 04 b3 59 3e
       -0.088992424 -0.036917675 -0.038287446 0.21259695
000140 6e a4 21 3e 1d de 60 3d 4c 87 e3 bd cc 24 b8 be
       0.15785381 0.054899324 -0.1110979 -0.35965574
000150 ce 1e ac 3d 8c 94 f2 bc d8 f5 ef bc be fb 4f be
       0.08404313 -0.029611848 -0.029292032 -0.20310876
000160 75 d8 62 3e 4f dc af 3d 06 13 92 be 14 61 33 bd
       0.22152884 0.085869424 -0.2853014 -0.043793753
000170 44 e3 57 3e f3 5c d3 bb e6 30 fe 3d 07 14 97 bd
       0.21082789 -0.0064502894 0.124116704 -0.07376867
000180 d9 ea 5a be 18 75 cf 3d 16 4d 32 be 1d 54 10 be
       -0.2137865 0.10129756 -0.17412218 -0.14094587
000190 2b 83 e5 3c 81 cd 24 be 71 22 93 3d 68 05 8a be
       0.028016647 -0.16094019 0.071843036 -0.2695725
0001a0 40 55 ff 3c 3a c9 b9 3d 26 7d 82 bd 47 15 37 be
       0.03116858 0.09071584 -0.063715264 -0.1787921
0001b0 a4 e3 56 3d cc 2c 81 be ce 94 d8 bd b8 80 ec bd
       0.05246319 -0.2522949 -0.10575257 -0.11547989
0001c0 7b 13 33 3d 92 76 de bc 96 ca 38 bd 56 06 e4 3d
       0.04371975 -0.027156148 -0.045115076 0.11134021
0001d0 22 f4 9d bd a8 18 57 be 81 40 d1 3c 56 cf d5 3a
       -0.0771258 -0.210055 0.025543453 0.0016312401
0001e0 ac df 31 be 6b ad 4a 3b 26 f8 a5 3d 18 d2 72 3e
       -0.1737048 0.003092612 0.08103971 0.23712957
0001f0 77 fd 8a be d3 fb 6d bd 32 4c f0 bd ea 4e 5f bd
       -0.27146503 -0.058101486 -0.11733283 -0.054518618
000200 17 43 08 be e7 a9 27 be 41 23 eb bd 4d c8 38 3c
       -0.13306843 -0.16373406 -0.114813335 0.011278224
000210 59 4b 4b 3d 6b 08 85 bc 8b ba 3c bd 55 b0 15 3d
       0.049632404 -0.016239366 -0.04607634 0.036545116
000220 d8 62 39 3e f1 38 62 bd 0a 22 03 3e be ed 53 be
       0.18104112 -0.055230085 0.12805954 -0.2069616
000230 51 bb 06 3e 77 d8 13 3c d8 f1 e4 bb 1c 22 0e 3e
       0.13157393 0.009023777 -0.006986838 0.13880199
000240 13 d9 b8 bc b8 4f ce 3d a2 96 84 3c e4 96 4c bd
       -0.022564447 0.10073799 0.016185109 -0.049948588
000250 3a 3e ad 3d 75 41 ef 3b 8a 58 12 3e 88 f0 f2 3c
       0.084591344 0.0073015043 0.14291587 0.02965571
000260 9c 86 19 be 89 3c 15 3e 39 f5 53 3e 1b b4 9b bd
       -0.14992756 0.14573874 0.20699014 -0.07602712
000270 3b d7 81 3d 21 e4 74 3e 4b 8e c5 3e f5 43 98 bb
       0.0633988 0.2391515 0.38585123 -0.004646773
000280 c5 1d d2 bd 19 e7 38 3d 5c a6 30 be 6f a6 a0 3d
       -0.10259584 0.045142267 -0.17250961 0.07844245
000290 26 3a f9 3d 4a a2 2b bd ae 83 00 3f cc 39 b0 bd
       0.12169294 -0.041902818 0.5020093 -0.08604774
0002a0 79 7a e7 3d 5d 6c b3 be fd e3 10 be 27 7b 37 be
       0.11302657 -0.35043612 -0.1414947 -0.17918073
0002b0 aa 5f 23 3e bb 20 36 3d 99 94 1e 3e 0a 3d 87 bd
       0.15954462 0.044464808 0.15486373 -0.06603439
0002c0 d6 c0 09 3e fb b7 96 bd 95 b3 eb ba b7 6c a8 bd
       0.13452467 -0.0735931 -0.0017982597 -0.08223861
0002d0 08 49 e1 bd 7e 39 90 3e b2 7c a7 bd 2b 14 56 3d
       -0.11000258 0.28168863 -0.081780806 0.052265327
0002e0 e6 bb 2c be 15 2e d2 bd a2 72 f1 3e b1 5e 41 3e
       -0.16868553 -0.10262696 0.4715777 0.18883778
0002f0 1c 60 18 be b5 cf b7 bd 43 86 46 bc eb b1 d1 3c
       -0.14880413 -0.08975164 -0.012116971 0.025597533
000300 45 fa bb bd 03 13 19 3c 65 c5 3a 3e 6b 15 74 3d
       -0.091785945 0.009342912 0.18239363 0.05959074
000310 b3 e4 04 3e ee b2 e4 3d 98 27 00 be 8c 4f fd bb
       0.12977867 0.11166941 -0.12515104 -0.00773043
000320 73 fc 23 be c5 08 1d bd c0 c6 48 be ee bf 79 3e
       -0.1601427 -0.03833844 -0.19607067 0.24389622
000330 c4 ec 12 be 68 16 3a bd 80 20 5e be 51 b4 9b bd
       -0.14348131 -0.045431525 -0.21692085 -0.07602752
000340 6b 99 56 3d ea fa b8 3c d3 bd ce bc d1 cc 0c 3e
       0.052392405 0.022580583 -0.025237 0.13750006
000350 15 fb d1 3c 76 4d 50 3d 1f 9e 3e bd 70 f6 59 3d
       0.02563242 0.050855123 -0.046537515 0.053213537
000360 91 c6 5f 3e 0f 4b 2d be 46 94 68 3d bd 51 cf 3c
       0.21853091 -0.16923164 0.05678203 0.02530753
000370 9e 57 c8 3d ec bc 6d bd be 74 90 3e 3e 57 cb bd
       0.09782337 -0.058041498 0.28214067 -0.099287495
000380 05 f7 97 be 7f 46 53 be f8 c2 10 3e e0 c0 38 bd
       -0.29680648 -0.20632361 0.14136875 -0.045105815
000390 b5 3c c3 bd a6 8b 4a 3e ea 1d 81 bd b5 1c 0e 3d
       -0.09533063 0.19779834 -0.06304534 0.034695346
0003a0 ae 20 34 3d c1 aa 38 3e 0b 00 7e bd 95 db 83 bd
       0.04397648 0.18033887 -0.06201176 -0.06438366
0003b0 e2 d2 03 be d0 21 6c 3d e7 6a 98 3d df db 98 3d
       -0.12873414 0.057649434 0.07442265 0.07463812
0003c0 58 92 07 be 4b 2e fa bd ee 52 71 bd 3d e2 71 3c
       -0.1323942 -0.12215861 -0.05891698 0.014763412
0003d0 dc 6c 94 3d 39 56 97 bd 53 83 1e be 8a d2 08 bc
       0.07247326 -0.073894925 -0.15479784 -0.008350978
0003e0 3f e2 e1 3c 23 be bc bd d9 d9 f3 bc 65 95 0b be
       0.027573703 -0.09215953 -0.029766964 -0.13631208
0003f0 95 3b ab bd 11 12 ad 3d 5d 48 28 be a8 77 39 bd
       -0.08360974 0.084507115 -0.16433854 -0.04528013

fc2.bias f4 [64]
000000 18 e8 07 bd b9 fa 4c bd 8f b5 da 3d 54 4c 2a bd
       -0.033180326 -0.050043795 0.10679161 -0.0415767
000010 9c ef 2a 3e 2f f1 0d be 44 12 b3 bd 4e fb 5e 3c
       0.16692966 -0.13861535 -0.08743718 0.01360972
000020 f0 64 1c 3d 45 22 8e 3e 08 20 c4 bb c2 9c 29 3e
       0.0381822 0.2776052 -0.0059852637 0.16563705
000030 b6 69 cd 3d e0 ec 64 bd d0 17 b1 bd c5 08 13 3e
       0.100299284 -0.055889964 -0.0864712 0.14358814
000040 72 11 8a 3c 24 ba 5b 3d 50 e7 15 bd bf 5e cf 3d
       0.016854022 0.053644314 -0.03659755 0.10125493
000050 26 e4 f3 3d 82 60 b0 3e 48 16 ed bd 90 8a 9d bd
       0.1190875 0.3444863 -0.115765154 -0.07692444
000060 1c 28 99 bd 63 96 02 be 68 e9 d7 3d 57 c7 a9 bc
       -0.074783534 -0.1275268 0.105425656 -0.020724935
000070 35 f6 7d bd e6 1c 11 3e dd 88 97 3d 17 4f 93 bd
       -0.06200238 0.1417118 0.073991515 -0.071928196
000080 30 8a 8c bd c3 b9 52 3d f0 b7 a1 3d cc 7c 8c 3d
       -0.06862295 0.051446687 0.078964114 0.068597406
000090 1f ed ca bd 27 5f aa bd 48 42 aa 3d 1c 6b 74 3c
       -0.099085085 -0.0831893 0.083134234 0.014918115
0000a0 96 46 eb bd c0 e2 8a 3e 60 b0 57 3e 7a 4b 18 bd
       -0.114880726 0.27126122 0.21063375 -0.037181355
0000b0 2c 18 85 3d 27 13 ac bc 52 43 dc bc 4f 5d 1d be
       0.06498751 -0.021005226 -0.02688757 -0.15367626
0000c0 11 21 70 3c f8 d3 03 be e5 f7 d5 bd 8e 27 96 3e
       0.014656321 -0.12873828 -0.10447673 0.29327053
0000d0 56 d8 2a bd aa 28 06 bd ff a4 09 3e 9d 77 95 bd
       -0.04171022 -0.032753624 0.13441847 -0.07298205
0000e0 97 b0 08 be 59 48 ed bd 73 e8 44 3d 92 db 97 bd
       -0.13348614 -0.11586065 0.048073243 -0.074149266
0000f0 d6 a9 3a 3d ce a7 2a 3e da 95 ce 3d ef c1 17 be
       0.045572124 0.16665575 0.10087176 -0.14820074

fc3.weight f4 [4, 64]
000000 ac 32 9a 3e 6e a7 02 3e 8c 6e 11 3e d1 73 27 be
       0.30116785 0.12759182 0.14202327 -0.16352774
000010 1c 3e 1b 3e 2f 10 a6 bd df 12 d3 3b 9e 95 90 be
       0.15160412 -0.081085555 0.0064414586 -0.2823915
000020 72 09 04 3e 28 70 a8 3d 83 6e 78 be 1b cf b6 3e
       0.12894228 0.08224517 -0.24260907 0.35704884
000030 28 6a 1d 3e b9 d2 7a 3e b9 2e a3 bd b5 0b 85 3d
       0.15372527 0.24494447 -0.07967896 0.064963736
000040 46 6d 6d 3e 4d 08 99 3e ea c6 73 3d be 23 24 3e
       0.23186216 0.29889145 0.05951587 0.1602926
000050 01 f7 c3 3d 55 a3 14 3e 9c 46 4a bd 03 5d 0c be
       0.09568597 0.14515431 -0.049383745 -0.13707356
000060 82 99 ac bd d7 ba f9 bd ac 69 38 be 8b 49 f6 bd
       -0.08427717 -0.1219384 -0.1800906 -0.12025746
000070 06 e5 1c 3d 7e 44 22 3e 00 9a 96 be ba 07 b3 3d
       0.03830435 0.1584644 -0.29414368 0.08741708
000080 f7 fd 6c 3e cd 59 50 3e e4 3e c8 3d 86 5b a2 bd
       0.23143755 0.20346756 0.097776204 -0.07927613
000090 35 d5 30 3d 25 5c 08 be ea 49 50 3e de 34 3e 3e
       0.04317208 -0.133164 0.20340696 0.18574855
0000a0 5d f2 a0 bd 50 36 c8 3d 7d 3d 9a 3d 74 fe 36 3e
       -0.07858727 0.09775984 0.07531259 0.17870504
0000b0 a8 9d 14 3e fc b4 35 3d cc 95 5d 3d 7a 51 8a 3c
       0.14513266 0.044362053 0.054097936 0.016884554
0000c0 9f 84 6d be 46 2e 65 3e 94 f7 8f be b6 55 1a 3e
       -0.23195122 0.22380933 -0.28118575 0.15071759
0000d0 16 75 82 3d ea 6d 12 3e 89 85 9e 3d 2b 0a 13 be
       0.063699886 0.14299741 0.077403136 -0.14359348
0000e0 17 02 e1 bd 13 ad ca 3d 2e 7c d4 3d 05 6e 20 be
       -0.10986727 0.098962925 0.10375248 -0.15666969
0000f0 a0 9b e1 bb fc a7 2d 3e 2b 56 7c be ff c0 c6 bd
       -0.006885007 0.16958612 -0.24642245 -0.0970478
000100 41 09 8d 3e 92 8d 43 3e 2b 40 63 3e a6 7d 0b 3c
       0.27546123 0.19096974 0.22192447 0.008513844
000110 86 aa 52 3e 4e 31 50 be 4d f6 cd 3d d8 01 e1 bd
       0.20572862 -0.20331308 0.10056744 -0.1098668
000120 d5 0b c5 bd 2b 48 ac 3d 35 c6 e7 3d a6 cd 4b 3e
       -0.096213974 0.084122024 0.11317102 0.19902667
000130 4e 8f 61 3d ca 5c bf 3d b2 3c 3f bc 4c c3 0d 3d
       0.055068307 0.0934387 -0.011672186 0.034610078
000140 2a 47 4e 3d bb bd 41 3e c2 32 99 bc a4 3f 95 3d
       0.050360836 0.18920033 -0.018700961 0.07287529
000150 05 2b 10 3e 1a 60 64 3e ef e7 2f 3d 11 bd 73 3d
       0.1407891 0.22302285 0.0429458 0.05950648
000160 e2 ef f6 3d de 4d 34 be db e1 70 3e 63 2b 80 3b
       0.12057473 -0.17607829 0.23523657 0.003911422
000170 86 85 6a bb 31 1b 21 3e a5 d6 47 3c 18 3c 15 3e
       -0.0035785153 0.15733029 0.012197171 0.14573705
000180 ec c6 b0 3d 0e 29 44 3e a0 53 0d 3e dc c5 03 3c
       0.08631691 0.19156286 0.13801432 0.008042779
000190 b2 d3 b1 3d 41 96 35 be bc 60 47 3e 32 2c e0 3e
       0.08682956 -0.17733099 0.19470495 0.43783718
0001a0 25 cd db 3d 37 0a 19 3e ff 2c c3 3b 35 0b 08 3e
       0.107324876 0.14945303 0.0059562917 0.13285525
0001b0 17 65 25 3d 9d cf 28 3e 4f d4 e2 3d 94 cc 37 be
       0.04037961 0.16485448 0.11075651 -0.17949134
0001c0 4a b9 b2 bd 34 72 9d 3d 7b 85 53 be 31 f8 01 3d
       -0.08726747 0.07687798 -0.20656388 0.031730834
0001d0 1b e2 c6 bd b1 ef 8c 3e 4a 30 06 3e 58 b0 77 3c
       -0.09711095 0.2752662 0.13104358 0.015117727
0001e0 09 5d b6 bd 65 7d f5 bc 17 da 8d bd 1c 6d 80 be
       -0.08904464 -0.02996702 -0.06926363 -0.25083244
0001f0 12 f5 48 bd 2c a9 04 bc 0c e4 2b bd 27 46 c9 bd
       -0.049061842 -0.008096974 -0.04196553 -0.098278336
000200 27 5b 0c 3e f6 e4 88 3e 80 05 af 3e 03 fd 7c 3e
       0.13706647 0.26737183 0.34183884 0.24705891
000210 05 61 d6 3c 6c 7c 7e bd d7 19 99 be e2 a9 4b bd
       0.02616931 -0.062130377 -0.29902527 -0.04972256
000220 b7 20 c2 bc 68 06 a8 3d ba 1f 06 bf 26 4c 11 3e
       -0.02369724 0.08204347 -0.5239216 0.14189205
000230 1b f9 3a 3e 52 df 1f 3c 2a 0c 2f bd 70 b3 56 3e
       0.18259089 0.009757834 -0.04273621 0.20966887
000240 a0 91 60 3d 03 32 c0 3c 38 57 ae ba e7 9a d4 3c
       0.05482638 0.023461347 -0.001330114 0.02595277
000250 3e e2 8c 3d a8 ff 3e 3e 9f 7b 86 be af ee 59 3e
       0.0687909 0.18652213 -0.2626619 0.21282457
000260 19 9e 56 3e db 32 7d bd b3 ad 12 be 7b 95 9c be
       0.20958747 -0.061816078 -0.14324073 -0.30582795
000270 c2 a5 86 3d 84 24 68 3e 66 a2 a2 bd 0e 1b 85 bd
       0.065745845 0.2267018 -0.07941131 -0.06499301
000280 54 52 49 bd 0f 63 04 3e 49 ed 17 3e db 14 04 3e
       -0.04915078 0.12928413 0.14836611 0.1289858
000290 73 71 59 bc 62 aa 90 bc 28 e2 90 3e e7 ce bb bc
       -0.013271677 -0.01765937 0.28297544 -0.022925807
0002a0 c2 28 8a 3c 8e 55 f1 3d a6 b5 96 3d 1f a8 1a 3e
       0.016865138 0.117838964 0.073588654 0.15103196
0002b0 b6 d2 ae 3d 8f db 5c 3e 1d 1d 02 3e 36 f0 65 3d
       0.08536284 0.2156813 0.12706418 0.056137286
0002c0 56 fc 92 be 4e 3f 0e bb 94 17 20 be f3 59 3b 3e
       -0.28708142 -0.0021705213 -0.15633994 0.18296032
0002d0 fe 90 11 be 6a e5 bf bd 4d 7b 84 3d 5a f7 f9 3c
       -0.14215466 -0.09369929 0.0646883 0.030513454
0002e0 a1 0e ba bd bd dd 4c 3e 93 61 94 3e 00 a9 81 be
       -0.090848215 0.20006461 0.28980693 -0.2532425
0002f0 bf 76 26 be f0 18 23 3e 22 dd c4 bd 17 19 bc be
       -0.16256236 0.15927482 -0.0961249 -0.36737892
000300 e4 09 e8 3e 4e 52 b1 3e 98 87 ac 3d 50 d0 c8 bc
       0.45320046 0.34633106 0.084243 -0.024513394
000310 f5 40 e1 bd a3 ec 99 3d 48 2c 7e be fa 4e de bc
       -0.10998718 0.07515838 -0.2482158 -0.027137268
000320 c4 ae 18 3d c0 03 35 3e 22 ca 05 bc c6 21 bc 3c
       0.037276044 0.17677212 -0.008165868 0.022965323
000330 d4 e1 5b 3e f6 5c 78 3e 66 53 47 3d 45 f1 21 3d
       0.21472865 0.24254212 0.04866352 0.039536733
000340 97 e8 ae 3e 28 42 04 3e 1d 28 70 3e 48 c7 25 3e
       0.34161827 0.12915862 0.23452802 0.16189301
000350 c0 2d cc bc b1 35 3f 3e cc 7c d9 bd 6f e2 10 3e
       -0.024924159 0.18672825 -0.10619506 0.14148878
000360 6a e7 81 bd 93 0e ed bd a4 c7 30 3e bb f6 9c 3e
       -0.06342967 -0.115750454 0.17263657 0.3065699
000370 10 d8 4a 3e d0 55 d7 3c ef ea ec bc de 2e 43 3d
       0.19808984 0.026286036 -0.028920619 0.047652118
000380 31 74 0b be b5 c6 92 3e d4 4d dc 3c b1 d5 82 bc
       -0.13618542 0.28667226 0.02689258 -0.015971037
000390 91 e0 8f be 28 7b b3 3d 3b fc 53 3e 5f d0 b9 3e
       -0.28101018 0.087637246 0.20701687 0.36291787
0003a0 90 e4 60 be 73 b3 54 3e 60 81 0e 3e 47 41 06 bf
       -0.2196219 0.2077158 0.1391654 -0.52443355
0003b0 b3 a6 47 3e 5d cc 31 be b7 5f 09 3e 4b f2 a8 be
       0.19497184 -0.17363115 0.13415419 -0.32997355
0003c0 4a b7 81 be ae 30 28 3d dc 95 82 3e c2 ec 21 3e
       -0.2533515 0.04106205 0.2550496 0.15812972
0003d0 43 f6 fd be d4 98 5b 3e 36 02 06 3e b5 c8 8a 3d
       -0.49601945 0.21445018 0.13086781 0.06776563
0003e0 1c e0 91 bd 16 94 40 be af 68 fa be 48 a1 ae be
       -0.071228236 -0.1880649 -0.48907992 -0.34107423
0003f0 41 67 89 be 04 a6 9b bc 55 6e d3 be b5 bf 43 3c
       -0.2683659 -0.01900006 -0.41295114 0.011947562

fc3.bias f4 [4]
000000 e6 c4 37 3e b0 a1 2c 3e 10 e7 93 3d 83 d2 d1 3d
       0.17946205 0.16858554 0.07221806 0.1024523
