p1_navigation/checkpoint.pth (torch_old, 28417 bytes, 6 tensors)

fc1.weight f4 [64, 37]
0	0xbba722aa	-0.005100568
1	0x3db85776	0.09001057
2	0xbe74d0ea	-0.2390782
3	0xbe1e2d4d	-0.15446968
4	0xbdc77c4d	-0.09740505
5	0x3db296b9	0.08720154
6	0xbd0d92e6	-0.03456392
7	0x3d944ef3	0.07241621
8	0xbdc64551	-0.0968119
9	0xbe87cf6c	-0.26525438
10	0x3d8595f9	0.06522746
11	0xbdde220d	-0.108463384
12	0xbea3f687	-0.32024023
13	0xbd87c05e	-0.06628488
14	0xbe2990eb	-0.16559188
15	0xbc67e0ba	-0.0141527
16	0x3d1ae056	0.0378116
17	0x3e0d7d9c	0.13817447
18	0xbdc9da01	-0.09856034
19	0xbd208e09	-0.039197955
20	0x3e529e2e	0.20568153
21	0x3d3426d3	0.04398234
22	0x3d1b2c07	0.037883785
23	0xbdae3898	-0.08506888
24	0xbd81bf26	-0.06335287
25	0xbb9a37c8	-0.0047063567
26	0x3e0a99b1	0.13535191
27	0xbd841b40	-0.0645051
28	0xbeb3e1e3	-0.35133275
29	0xbdee9327	-0.11649161
30	0xbd1369c4	-0.035989538
31	0x3ce9acd6	0.028524797
32	0x3e005db9	0.12535752
33	0xbe5f8332	-0.21827391
34	0xbe33a496	-0.17543253
35	0xbd0f4ddc	-0.03498636
36	0xbda110d5	-0.078645386
37	0x3e24a722	0.16079381
38	0x3e3bb9ca	0.18332592
39	0xbbe2c91d	-0.006920947
40	0xbd7d1d68	-0.061795622
41	0xbe733c6a	-0.23753515
42	0x3e16ce59	0.14727153
43	0xbe887bac	-0.26656854
44	0xbde86566	-0.11347465
45	0xbe5dce3b	-0.21660702
46	0xbef0391a	-0.46918565
47	0x3cf1aefb	0.029502383
48	0xbdcaaca3	-0.09896209
49	0x3dd5b0f1	0.104341395
50	0x3e6b7930	0.22995448
51	0x3e5ac0d0	0.21362615
52	0x3d3e3be9	0.046443854
53	0xbdc1738c	-0.09445867
54	0x3e3e0cd1	0.18559577
55	0x3cf4302d	0.029808128
56	0xbd3507a5	-0.044196744
57	0xbc931eb4	-0.017958976
58	0xbde04dc1	-0.109523304
59	0xbe3ef082	-0.18646434
60	0x3d2bbea5	0.04192986
61	0x3d5c3c80	0.053768635
62	0xbdd75e8a	-0.10516079
63	0x3e14caa7	0.1453043
64	0x3e0959c9	0.13413157
65	0xbe171e25	-0.14757593
66	0xbd42d2a9	-0.047564182
67	0xbcad2663	-0.021136468
68	0x3e867715	0.26262727
69	0x3e0e647a	0.13905516
70	0xbd0310b2	-0.031998344
71	0x3e46e835	0.19424517
72	0x3dab2479	0.08356566
73	0x3d4a2949	0.04935578
74	0x3e154c99	0.14580001
75	0x3e001d10	0.12511086
76	0x3daa8ec9	0.08328015
77	0x3ca90deb	0.02063652
78	0xbd2ab379	-0.041675065
79	0xbeab8195	-0.334973
80	0x3cba9e35	0.022780517
81	0x3e9fab01	0.31185153
82	0x3d8d52ae	0.069005355
83	0xbdbf60c9	-0.09344632
84	0x3d4388a9	0.04773775
85	0x3d480020	0.048828244
86	0x3af56700	0.0018722713
87	0xbb18cdc4	-0.0023316005
88	0x3cde9929	0.027172642
89	0xbe1d2a42	-0.15348151
90	0x3e177266	0.14789733
91	0x3e28fb57	0.16502129
92	0x3e1b1909	0.15146269
93	0x3e670c54	0.22563297
94	0xbe06b014	-0.13153106
95	0xbd5f6c3b	-0.054546576
96	0x3d089018	0.033340544
97	0x3d99fa88	0.07518488
98	0x3d25a79a	0.04044304
99	0xbe9cedd9	-0.30650213
100	0x3e320853	0.17385988
101	0x3e976c16	0.2957465
102	0xbbefb34f	-0.0073150764
103	0xbe23fd88	-0.16014683
104	0xbe822f13	-0.2542654
105	0x3d8a68cd	0.067582704
106	0xbbab9f6b	-0.00523751
107	0xbd517224	-0.051134244
108	0xbd767145	-0.060166616
109	0x3d240965	0.04004802
110	0x3b6bbb30	0.0035969727
111	0x3e0c7be4	0.13719136
112	0xbc1734c5	-0.00922889
113	0x3e1f374f	0.15548442
114	0x3da7434a	0.08167131
115	0xbe67dd3d	-0.2264299
116	0xbd724ba9	-0.059154186
117	0xbd1bb50c	-0.038014457
118	0x3e0f553a	0.13997355
119	0x3e008382	0.12550166
120	0xbe0a45cf	-0.13503192
121	0xbcdbe21d	-0.026841218
122	0x3dc1bbe3	0.09459665
123	0x3dbdb5b5	0.092631735
124	0xbc8d0db0	-0.01721844
125	0x3cbecc3a	0.023290742
126	0xbd85a41f	-0.06525444
127	0x3a53e7ef	0.0008083572
128	0x3d53482e	0.051582508
129	0xbe84d6cc	-0.25945127
130	0xbe4721dc	-0.1944651
131	0x3d396c3f	0.045269247
132	0x3c52f78d	0.0128764035
133	0x3e2feba6	0.17179736
134	0xbcb76ba8	-0.022390202
135	0xbdba3c22	-0.09093501
136	0xbd94b39d	-0.07260821
137	0x3ca314d0	0.019907385
138	0x3e5b077f	0.21389578
139	0x3dbd267d	0.09235857
140	0x3dbec18a	0.093142584
141	0x3e951327	0.29116175
142	0xbdc49184	-0.095980674
143	0xbdc14e85	-0.094388045
144	0xbe627ba1	-0.22117473
145	0xbf837a0a	-1.0271618
146	0x3ca2f555	0.019892374
147	0xbbdd8a97	-0.006760906
148	0xbc80b014	-0.01570896
149	0xbe65bde3	-0.22435717
150	0xbe287b14	-0.164532
151	0xbeafabe4	-0.3431083
152	0x3bccbb98	0.006247949
153	0x3dd6b7df	0.104842894
154	0x3e05a3c9	0.1305076
155	0xbe3acb57	-0.1824163
156	0xbe314dd7	-0.1731485
157	0xbea2e0df	-0.31812188
158	0x3dbf3e0b	0.09338006
159	0xbe209b0c	-0.15684146
160	0xbdd0f4ac	-0.102029175
161	0xbe9b2c3e	-0.30307192
162	0xbeaab3e0	-0.3334036
163	0xbd379b85	-0.04482605
164	0xbe03facf	-0.12888645
165	0xbe3e105f	-0.18560933
166	0x3ca4d715	0.02012209
167	0x3d67a198	0.056550592
168	0x3c07ebfd	0.00829601
169	0xbdfc26b1	-0.12312067
170	0xbd4099f0	-0.047021806
171	0xbde1c7bf	-0.11024427
172	0xbd473ae8	-0.04864016
173	0x3d85065d	0.06495354
174	0xbe652278	-0.2237643
175	0x3d4ac46d	0.049503732
176	0x3c74b00c	0.014934551
177	0xbe7e5d63	-0.24840312
178	0x3e06fa33	0.13181381
179	0xbe60be04	-0.21947485
180	0xbc8fea38	-0.017567739
181	0xbd1402cb	-0.036135476
182	0x3d715725	0.058920998
183	0xbdaa9690	-0.08329499
184	0x3d6e139e	0.058124177
185	0xbc1cbdcc	-0.0095667355
186	0xbd0f5e18	-0.035001844
187	0xbb93bd60	-0.0045086592
188	0xbe1448c0	-0.14480877
189	0x3e572858	0.21011484
190	0x3df209ae	0.118182525
191	0x3e7d694f	0.24747203
192	0xbda3ca00	-0.07997513
193	0xbe657853	-0.22409181
194	0xbec94c30	-0.3931594
195	0xbe6688b5	-0.22513087
196	0xbd66de11	-0.056364123
197	0x3bb1de35	0.0054281005
198	0x3d287bae	0.041133575
199	0x3da0814f	0.07837164
200	0xbdd30a3f	-0.10304689
201	0x3e4b52d9	0.19855823
202	0xbe19345c	-0.1496138
203	0xbd8d1f4e	-0.068907365
204	0x3c5680ae	0.013092203
205	0x3e086384	0.13319212
206	0xbd80a7c0	-0.06281996
207	0x3d063181	0.032762054
208	0x3d8b00da	0.06787272
209	0x3d829c2c	0.06377444
210	0xbdda5bce	-0.106620416
211	0x3cf9acf0	0.03047797
212	0x3ca338a2	0.019924466
213	0x3bc421b5	0.0059854635
214	0x3dc4a0dd	0.09600995
215	0xbc0c9521	-0.008580477
216	0x3ce44517	0.027864976
217	0xbe531b42	-0.20615867
218	0x3e54e3ec	0.2079007
219	0xbede0502	-0.43363196
220	0x3c05a3d4	0.008156735
221	0x3ccb78b7	0.024837835
222	0xbe06d8f2	-0.13168696
223	0x3d8dd1b9	0.06924767
224	0xbc7114ed	-0.014714462
225	0xbc85fb93	-0.016355311
226	0xbdd85104	-0.105623275
227	0x3cf0c8fc	0.029392712
228	0xbe49c740	-0.19704914
229	0x3c3daf62	0.011577459
230	0xbdb618ad	-0.08891425
231	0x3e7110a9	0.23541512
232	0xbd78cd11	-0.06074244
233	0x3dbfcba8	0.09365016
234	0x3e2b487b	0.16726868
235	0xbdc9c186	-0.09851365
236	0x3e4df36b	0.20112388
237	0xbe475701	-0.19466783
238	0xbd76d6ca	-0.060263433
239	0x3d861ad6	0.06548087
240	0x3cbce124	0.023056574
241	0x3d9a2b9f	0.07527851
242	0xbc815191	-0.015785964
243	0xbde9adf9	-0.11410136
244	0x3d3351bd	0.043779124
245	0xbe1b36c4	-0.1515761
246	0x3e839bd8	0.25704837
247	0xbe648631	-0.22316815
248	0xbd822a8b	-0.06355771
249	0xbc42affc	-0.011882778
250	0x3d8e6e25	0.06954602
251	0xbd8b2535	-0.06794206
252	0x3e19e65d	0.15029283
253	0xbe75cee3	-0.24004702
254	0xbd9c4eb3	-0.07632198
255	0x3d74bf99	0.059753034

fc1.bias f4 [64]
0	0x3e133c29	0.14378418
1	0xbc89e491	-0.016832622
2	0xbe0d4b52	-0.13798264
3	0x39442434	0.00018705503
4	0x3e0481db	0.12940161
5	0xbd8a0488	-0.067391455
6	0xbde3518a	-0.11099537
7	0x3da4d359	0.08048124
8	0x3d144ef6	0.036208116
9	0xbe303005	-0.17205818
10	0x3e16ad09	0.14714445
11	0x3e218b30	0.15775752
12	0x3e4eeb33	0.20206909
13	0x3e066e1a	0.13127938
14	0xbd417312	-0.04722888
15	0xbcbd0738	-0.023074731
16	0x3cf9f143	0.03051055
17	0x3cc477d3	0.023982918
18	0x3d90b0a1	0.07064939
19	0xbe3107e2	-0.17288163
20	0xbdcfd7e1	-0.101485975
21	0x3d87a708	0.066236556
22	0x3cdb26b8	0.026751861
23	0xbdde0935	-0.108416
24	0xbdfeeed6	-0.12447898
25	0x3da3fa15	0.08006684
26	0xbc9cc322	-0.019136015
27	0xbe838275	-0.25685468
28	0x3dfc8b2f	0.12331235
29	0x3df0a554	0.11750284
30	0xbd9bc226	-0.0760539
31	0xbe1ac8fa	-0.15115729
32	0x3e0b369a	0.13595048
33	0xbc336402	-0.010949137
34	0xbdabf5c7	-0.08396488
35	0x3d1638b4	0.03667517
36	0xbd63a627	-0.055578377
37	0x3d077847	0.03307369
38	0xbca282ea	-0.019837815
39	0xbde8e0e2	-0.11371018
40	0xbcd9b7c1	-0.026576879
41	0x3c8e18da	0.017345835
42	0xbe2fc341	-0.17164327
43	0x3e0d8320	0.13819551
44	0x3c6f176f	0.014592989
45	0xbd223069	-0.03959695
46	0x3daf293e	0.08552788
47	0xbe2bd3c3	-0.1678
48	0xbdeec6a7	-0.11658984
49	0x3cd698cb	0.026195904
50	0xbe17b630	-0.14815593
51	0x3df63af8	0.12022966
52	0xbd396933	-0.04526634
53	0xbd4a2336	-0.049349986
54	0xbe498b16	-0.19681963
55	0x3c7d6e0d	0.015468133
56	0x3deb7fe9	0.11499006
57	0xbdc2f4a9	-0.095193215
58	0xbdf5c1c5	-0.11999849
59	0xbd04d333	-0.032427978
60	0xbbbff525	-0.005858081
61	0x3d9f1c0a	0.0776902
62	0x3d678ca5	0.056530613
63	0x3d62524b	0.055254262

fc2.weight f4 [64, 64]
0	0xbc9b72f8	-0.01897572
1	0x3e06b56b	0.13155143
2	0x3d1c5304	0.038165107
3	0x3e4c375b	0.19942991
4	0x3e3bc250	0.18335843
5	0xbb752f04	-0.0037412057
6	0x3cacf5f4	0.021113373
7	0xbe3c5e72	-0.18395403
8	0x3d8763bf	0.06610822
9	0xbcf44508	-0.029818073
10	0xbdc02d94	-0.09383693
11	0x3e1502bd	0.14551826
12	0xbe3cfc19	-0.18455543
13	0x3dc7bbcc	0.09752616
14	0xbe571a40	-0.21006107
15	0xbda3f179	-0.08005042
16	0xbd4119a1	-0.047143582
17	0xbe8456bd	-0.25847426
18	0xbda2132f	-0.07913815
19	0xbcfbc86b	-0.030735215
20	0x3c3b4088	0.01142896
21	0xbd513770	-0.05107826
22	0x3e5e4605	0.21706398
23	0x3d0d7a2e	0.034540348
24	0xbe922d45	-0.28550163
25	0xbd92935e	-0.07157014
26	0x3e53b314	0.20673782
27	0x3cbd0e29	0.023078041
28	0xbd9898af	-0.07450997
29	0x3e9332b2	0.28749615
30	0x3d5e6cd0	0.05430299
31	0xbd06e120	-0.03292954
32	0x3d21d45e	0.03950917
33	0x3b6981fc	0.0035630455
34	0xbdaa0ced	-0.08303247
35	0x3e025c67	0.12730561
36	0xbdfdd3fc	-0.123939484
37	0x3e7dfb26	0.24802837
38	0xbdee8f6b	-0.116484486
39	0xbcf96339	-0.03044282
40	0xbeb7168f	-0.35759398
41	0xbd6ae6a8	-0.057348877
42	0x3e2491dd	0.16071267
43	0xbdc8a801	-0.09797669
44	0x3e012272	0.12610796
45	0xbd03ada4	-0.03214802
46	0xbe24d759	-0.16097774
47	0x3be71e28	0.0070531555
48	0xbd63152c	-0.055440113
49	0xbd099192	-0.033586092
50	0xbd66a258	-0.056307167
51	0x3c73288d	0.014841211
52	0xbd286c72	-0.041119047
53	0xbdd3f4d6	-0.10349433
54	0x3e160892	0.14651707
55	0xbda976a5	-0.08274583
56	0xbe35e8e7	-0.17764626
57	0xbbaacab5	-0.005212153
58	0xbda913bc	-0.08255717
59	0x3c870047	0.016479624
60	0xbd7f36ac	-0.062308
61	0x3e462bcf	0.19352649
62	0xbe38cb10	-0.18046212
63	0xbd8a89e3	-0.06764581
64	0x3e05debf	0.13073252
65	0x3e205f94	0.1566146
66	0xbe28b8dc	-0.16476768
67	0x3dae9717	0.08524912
68	0x3c240bfb	0.010012622
69	0x3dd3aa48	0.10335213
70	0xbe4b62f2	-0.19861963
71	0xbb6a0c80	-0.0035713017
72	0xbda0e730	-0.078565955
73	0xbe332ddc	-0.17497963
74	0xbd34c0b6	-0.044129096
75	0x3e90351a	0.28165513
76	0xbde52e20	-0.11190438
77	0x3db10a14	0.086445004
78	0xbc283cc3	-0.010268393
79	0x3dc66ee9	0.09689123
80	0x3e20da97	0.15708385
81	0xbd8011e3	-0.062534116
82	0x3d48bf3c	0.0490105
83	0x3d3b9529	0.045796547
84	0x3deab869	0.11460955
85	0xbe0cd7b7	-0.13754164
86	0x3e05c835	0.13064654
87	0x3d0b99af	0.03408211
88	0xbe06e967	-0.13174973
89	0x3d329854	0.043602303
90	0xbe9d0a25	-0.30671802
91	0xbe40b063	-0.18817286
92	0x3d627c19	0.05529413
93	0x3c21c88c	0.009874474
94	0x3c40360b	0.011731635
95	0xbed777b1	-0.42083505
96	0xbdc6da95	-0.0970966
97	0xbdccc4b9	-0.09998459
98	0xbdf070ae	-0.11740242
99	0xbdaffd6e	-0.0859326
100	0xbd7de941	-0.061990026
101	0x3e436d15	0.1908458
102	0xbdbfa410	-0.09357464
103	0xbdd01c07	-0.10161596
104	0xbe1acc4d	-0.15116997
105	0x3ded12b7	0.11575835
106	0x3da84e64	0.08218077
107	0xbdf5cc18	-0.120018184
108	0xbcf6d4ea	-0.030130822
109	0xbe4efdae	-0.20213959
110	0xbe2b4e28	-0.16729033
111	0xbe1a4f39	-0.15069284
112	0xbdd38add	-0.103292204
113	0xbc271833	-0.010198641
114	0xbd4b1e72	-0.04958958
115	0x3d9c9e47	0.076473765
116	0xbda0aefb	-0.07845875
117	0x3e327f1d	0.17431302
118	0xbdb06ba6	-0.08614282
119	0xbdbb6ed6	-0.09152
120	0xbe0dae4e	-0.13836023
121	0xbe03b673	-0.12862568
122	0x3e4e6595	0.20155938
123	0xbd34c2ea	-0.044131197
124	0xbe1b8d4e	-0.15190622
125	0x3d4b9f47	0.049712446
126	0xbd8c98c5	-0.06865076
127	0xbdf7d594	-0.12101284
128	0x3d197537	0.0374653
129	0xbe02c2f1	-0.12769677
130	0xbca42f56	-0.020042103
131	0x3e4d181d	0.2002873
132	0xbcd71682	-0.02625585
133	0x3d461b46	0.048365854
134	0xbe2a539c	-0.16633457
135	0xbc770b1f	-0.015078335
136	0x3e2b7b98	0.16746366
137	0xbbe5c996	-0.0070125563
138	0x3da25d37	0.079279356
139	0xbe0eadda	-0.13933507
140	0x3e27bb8d	0.16380139
141	0x3d9be5c3	0.07612183
142	0xbe7345c5	-0.23757084
143	0xbd5196c1	-0.05116916
144	0xbdbaab3a	-0.0911469
145	0x3e82db75	0.25558057
146	0x3d747035	0.05967732
147	0xbe7cdbc1	-0.24693204
148	0xbe1e9a98	-0.1548866
149	0xbc398b91	-0.011324779
150	0xbea63b4b	-0.32467112
151	0x3b21eefb	0.0024709094
152	0xbda6305e	-0.08114694
153	0x3e203835	0.15646441
154	0x3d8ac1bc	0.06775233
155	0xbde36f32	-0.11105193
156	0xbe3fa711	-0.18716075
157	0x3e7f6410	0.24940515
158	0xbc8e77d1	-0.017391117
159	0x3c81fcff	0.015867708
160	0xbda536b4	-0.080670744
161	0xbc9ab4e1	-0.018885078
162	0xbd6d450c	-0.057927176
163	0x3cecb3fc	0.028894417
164	0x3e369009	0.17828383
165	0xbe0f2062	-0.13977197
166	0x3e6d7ab2	0.23191336
167	0xbd43dd4a	-0.04781846
168	0x3eac9d30	0.33713675
169	0xbea102d6	-0.31447476
170	0xbe2473bf	-0.16059779
171	0xbdd95cca	-0.10613401
172	0xbb54594d	-0.003240186
173	0x3c020547	0.0079358285
174	0x3dc3adf9	0.09554667
175	0xbc88a8e7	-0.016682101
176	0xbde39491	-0.11112321
177	0xbe5d71ca	-0.21625438
178	0xbcd73049	-0.026268141
179	0x3d4a4c06	0.049388908
180	0xbe8b0beb	-0.2715753
181	0xbe23dc6d	-0.16002055
182	0xbbc8b4d2	-0.006125071
183	0x3d93bb58	0.07213467
184	0xbce9ffff	-0.028564451
185	0xbd282e1c	-0.0410596
186	0x3d98ca18	0.07460421
187	0x3d934e10	0.071926236
188	0x3ca1a978	0.01973413
189	0xbe44b18e	-0.19208357
190	0x3d3bb9ba	0.04583142
191	0x3d4dbc4d	0.050228406
192	0x3c48eb33	0.012263107
193	0xbdea27d9	-0.114333816
194	0x3dd2e4f4	0.102975756
195	0xbe124277	-0.14283167
196	0x3b83fc08	0.004027847
197	0xbdfb4e93	-0.12270846
198	0xbdd319cb	-0.10307654
199	0xbd3cad39	-0.046063635
200	0x3d8a4ab9	0.067525335
201	0x3db54857	0.08851688
202	0xbde0f5e1	-0.10984398
203	0xbdfd3ead	-0.1236547
204	0xbe143baa	-0.14475885
205	0x3d3c4420	0.045963407
206	0x3c183b73	0.009291518
207	0xbdf0fd42	-0.11767055
208	0x3d585c63	0.05282248
209	0xbdf9f53e	-0.12204979
210	0xbccf572b	-0.02531012
211	0xbde03a9a	-0.10948677
212	0x3e0f935c	0.14021057
213	0xbdd11abe	-0.10210179
214	0xbe3540f6	-0.17700562
215	0x3d93c96d	0.07216153
216	0x3badb21a	0.0053007724
217	0x3daa20a6	0.083070084
218	0x3e2984ff	0.1655464
219	0xbe0cbcf0	-0.13743949
220	0x3decaebd	0.11556766
221	0xbe7373c3	-0.23774628
222	0xbc8f5db8	-0.017500743
223	0xbd1dbbc8	-0.03850916
224	0x3d972cf2	0.073816195
225	0xbddfa7f2	-0.10920705
226	0x3de69bd4	0.112601906
227	0x3e1d8aff	0.15385054
228	0xbe54d650	-0.20784879
229	0xbde2e6d0	-0.1107918
230	0x3e8e8f03	0.27843484
231	0x3d13ab49	0.036052022
232	0xbde3a7ee	-0.111160144
233	0xbdc6e0b4	-0.097108275
234	0x3ddbffb8	0.10742134
235	0xbc70601c	-0.014671352
236	0x3ca7b5bd	0.020472402
237	0xbb29b174	-0.0025893124
238	0x3d005b6b	0.031337183
239	0x3c42f4d6	0.011899194
240	0xbcfab9ef	-0.030606238
241	0xbd43e32e	-0.047824077
242	0xbdfe5fa5	-0.124205865
243	0xbd488e61	-0.048963908
244	0x3dec201d	0.115295626
245	0xbe238a05	-0.15970619
246	0xbe5961be	-0.21228692
247	0x3e2825fe	0.16420743
248	0xbe001a46	-0.12510023
249	0xbd07d1ce	-0.03315907
250	0xbe9f6df6	-0.3113858
251	0x3d87bb46	0.066275164
252	0xbe7721d0	-0.24133992
253	0x3dcd6623	0.10029247
254	0x3d73179c	0.059348688
255	0xbd60efe2	-0.05491627

fc2.bias f4 [64]
0	0xbd291858	-0.04128298
1	0xbd3048fa	-0.043038346
2	0x3ce0f80a	0.027462024
3	0x3d76edcc	0.060285375
4	0x3e1c58e6	0.15268287
5	0xbe31e25b	-0.17371504
6	0xbd76d700	-0.060263634
7	0x3dc7631f	0.09735703
8	0x3dceecb7	0.101037435
9	0x3e607295	0.2191871
10	0xbd6875c5	-0.05675294
11	0x3e27ebd7	0.1639856
12	0x3d58dc02	0.05294419
13	0xbda848f5	-0.082170404
14	0xbd03b266	-0.032152556
15	0x3b1e6676	0.0024169958
16	0x3d87deba	0.066342786
17	0xbd551cc1	-0.052029375
18	0xbd69e3d0	-0.057102025
19	0x3db6534c	0.08902606
20	0x3def44f9	0.11683077
21	0x3e8fedf2	0.28111225
22	0xbe28cab3	-0.16483574
23	0xbd816727	-0.06318503
24	0xbde00ed2	-0.10940327
25	0xbdb07663	-0.086163305
26	0x3decf347	0.11569839
27	0xbdda9e43	-0.10674717
28	0xbd7a4262	-0.061098464
29	0x3d334c92	0.043774195
30	0x3dc9ee9f	0.098599665
31	0xbdb2e7ae	-0.08735596
32	0xbba0876c	-0.004898956
33	0x3d510826	0.05103316
34	0xbc933bd4	-0.017972864
35	0xbdbee72f	-0.093214385
36	0xbdb8fb58	-0.09032315
37	0xbd86002c	-0.065430015
38	0x3c6293c9	0.01382918
39	0xbd4987f7	-0.04920193
40	0xbe0488b8	-0.12942779
41	0x3e84121c	0.25795066
42	0x3e25e35f	0.16200016
43	0xbd592192	-0.05301053
44	0x3d029498	0.03187999
45	0xbe11b94e	-0.14230844
46	0x3dacdf82	0.08441068
47	0xbdde5ae0	-0.10857177
48	0x3d888179	0.0666532
49	0xbde01a73	-0.10942545
50	0xbdc0d655	-0.094158806
51	0x3e675b6e	0.22593471
52	0xba93f78e	-0.0011288987
53	0xbe263dd1	-0.16234519
54	0x3d1658ed	0.0367059
55	0xbe087c5e	-0.13328692
56	0xbe0b5366	-0.13606033
57	0xbde29df0	-0.110652804
58	0xbc9320c1	-0.017959954
59	0xbd72a42d	-0.0592386
60	0x3da2620c	0.07928857
61	0x3e14bdab	0.14525478
62	0x3dd61565	0.104532994
63	0xbdf09b9b	-0.117484294

fc3.weight f4 [4, 64]
0	0x3e935f8c	0.28783834
1	0x3e21e7dd	0.15811105
2	0x3e94fbe2	0.2909842
3	0xbcc39295	-0.023873607
4	0x3e0c3aba	0.13694277
5	0xbe0f56c7	-0.13997947
6	0x3e9c1cbb	0.3049067
7	0xbe7898fb	-0.24277107
8	0x3d668fee	0.056289606
9	0x3d850592	0.06495203
10	0xbe0ec178	-0.1394099
11	0x3e2f8faf	0.17144655
12	0xbda465e1	-0.08027244
13	0x3d07230d	0.03299241
14	0x3d09834e	0.033572488
15	0xbd058f5a	-0.032607414
16	0x3d68db0d	0.056849528
17	0xbea84a79	-0.32869318
18	0xbdf6a711	-0.12043584
19	0x3e3107e9	0.17288174
20	0x3dadd949	0.084887095
21	0x3daadbce	0.08342706
22	0xbd2f2073	-0.042755555
23	0xbe729c55	-0.23692448
24	0xbe22ccc4	-0.15898424
25	0xbe7f64d2	-0.24940804
26	0xbea03a09	-0.31294277
27	0xbde7ee50	-0.113247514
28	0x3a9a3e9d	0.0011767928
29	0x3e036750	0.1283238
30	0xbe8d997e	-0.27656168
31	0x3dec3652	0.11533798
32	0x3eb06cda	0.34458047
33	0x3d7bf2ce	0.061510853
34	0x3d6d5fb0	0.057952583
35	0xb92f8922	-0.00016740386
36	0x3e979447	0.29605314
37	0xbe28d746	-0.1648837
38	0xbc999b4a	-0.018750805
39	0x3e761a86	0.24033555
40	0xbcdb22b5	-0.026749948
41	0x3ddf01e5	0.10889033
42	0x3d840096	0.06445424
43	0x3c806cfe	0.015676972
44	0x3e2ed472	0.17073229
45	0xbcc39b93	-0.023877895
46	0x3e13f259	0.14447917
47	0x3e59b736	0.21261296
48	0xbdb06f34	-0.0861496
49	0x3e54357a	0.20723525
50	0x3e8004fb	0.250038
51	0x3dacaebe	0.08431767
52	0x3e9074b5	0.2821404
53	0xbe098158	-0.13428247
54	0x3daefc12	0.08544172
55	0xbded0b4e	-0.11574422
56	0xbe0b1f61	-0.13586189
57	0xbe582b36	-0.21110234
58	0x3c6040e9	0.013687351
59	0x3e0702f0	0.13184714
60	0x3d5608e1	0.05225456
61	0x3e1c582b	0.15268008
62	0x3ca2e3a5	0.01988394
63	0x3e3a033f	0.18165301
64	0x3e5a0f1e	0.21294829
65	0x3ddc3a60	0.10753322
66	0x3e23a2a5	0.15980013
67	0x3d9d2cc6	0.076745555
68	0x3d362f72	0.04447884
69	0x3d05fd9c	0.032712564
70	0x3df79ec3	0.12090828
71	0xbd4d6f40	-0.050154924
72	0x3bb2beb3	0.005454862
73	0x3da6278c	0.08113012
74	0x3d4d13db	0.050067764
75	0x3e7c7476	0.24653801
76	0x3b3a4f89	0.0028428754
77	0x3e83fbb3	0.2577797
78	0x3eb8b2f2	0.36074024
79	0x3d6918da	0.056908466
80	0xbcdf98a4	-0.027294464
81	0x3e7bfa83	0.24607281
82	0xbe8d9de1	-0.27659515
83	0x3df3e522	0.11908938
84	0x3dadee2d	0.08492694
85	0x3e1d424b	0.1535732
86	0xbdc72a4e	-0.09724866
87	0xbcbb6e54	-0.022879757
88	0x3d0cc619	0.03436861
89	0xbd401e81	-0.04690409
90	0x3d108010	0.03527838
91	0xbe4de214	-0.20105773
92	0xbce01253	-0.027352488
93	0x3dd36b35	0.103231825
94	0xbdd13b3b	-0.102163754
95	0x3e37c433	0.17945938
96	0x3d6eb9db	0.058282714
97	0xbd1d9f05	-0.03848173
98	0x3e0a3dc1	0.1350012
99	0xbd739924	-0.05947222
100	0x3e80a744	0.25127614
101	0xbe31b4bd	-0.17354102
102	0x3eaec53c	0.34134853
103	0x3e319f3d	0.17345901
104	0xbcb69966	-0.022289943
105	0x3dd6d31c	0.10489485
106	0x3bbdc713	0.0057915538
107	0x3eabdbf9	0.33566263
108	0x3ec12a10	0.37727404
109	0xbdcecc5d	-0.10097573
110	0x3e05d522	0.13069585
111	0x3e991654	0.29899848
112	0x3ddd6724	0.10810688
113	0x3e439772	0.1910074
114	0x3dc18a64	0.09450224
115	0xbb2c9f74	-0.0026340159
116	0x3e6850e7	0.22687112
117	0x3d25e7ee	0.04050439
118	0x3e099842	0.13436988
119	0xbbe31996	-0.0069305403
120	0xbe89ccc5	-0.2691404
121	0xbe29ca8d	-0.16581173
122	0x3e23386a	0.15939489
123	0x3d9f039f	0.077643625
124	0xbe15ff0c	-0.14648074
125	0x3c1c42a4	0.009537373
126	0x3d401f27	0.04690471
127	0x3d811318	0.0630247
128	0x3e816ce9	0.25278404
129	0x3e2eaa80	0.17057228
130	0x3e680274	0.22657186
131	0x3e5f3185	0.21796234
132	0x3def5d58	0.11687726
133	0x3e245181	0.16046716
134	0x3ea20616	0.31645268
135	0xbd876787	-0.06611543
136	0x3d123d8c	0.035703227
137	0x3da0c609	0.07850272
138	0xbe0d506a	-0.13800207
139	0x3e39f9bd	0.18161674
140	0x3e02b5dd	0.12764688
141	0xbeaf4f4e	-0.34240192
142	0xbd91520b	-0.070957266
143	0x3e0c41fa	0.13697043
144	0x3e250c6a	0.16118017
145	0x3c30bfc9	0.010787913
146	0x3e83b5f2	0.2572475
147	0x3db73a67	0.08946686
148	0x3dd498b8	0.10380691
149	0x3e263546	0.1623126
150	0xbdc80304	-0.097662
151	0x3e12b532	0.14326933
152	0x3ebe755c	0.37198913
153	0xbe1333ad	-0.14375181
154	0xbe13b5b0	-0.14424777
155	0xbe4d2fca	-0.20037761
156	0x3d8340be	0.06408833
157	0x3e4fad7c	0.20281023
158	0xbd9e1047	-0.077179484
159	0x3c0a71e3	0.008450004
160	0xbdaed8e5	-0.08537463
161	0xbe005615	-0.12532838
162	0x3e8c8275	0.2744328
163	0x3dce4f8f	0.10073768
164	0x3e29aeac	0.16570538
165	0xbe2aca3e	-0.16678712
166	0xbe14c055	-0.14526494
167	0x3c93a24d	0.018021727
168	0xbdf439bd	-0.11925075
169	0x3e049dd7	0.12950836
170	0x3e003a1d	0.12522168
171	0xbe611432	-0.2198036
172	0x3cba6a2d	0.022755707
173	0xbbbbf29c	-0.0057357084
174	0x3e110ce4	0.14165074
175	0x3ed081b6	0.40723962
176	0x3deba2f1	0.11505688
177	0x3dfab343	0.12241223
178	0xbd32c5e1	-0.043645743
179	0x3e274266	0.16333923
180	0x3da80c61	0.08205486
181	0x3e0f38b1	0.1398647
182	0x3e173a91	0.14768435
183	0x3db0d5c6	0.08634524
184	0xbea35a6f	-0.31904933
185	0xbe397574	-0.18111211
186	0xbc009298	-0.007847451
187	0x3d554f55	0.05207761
188	0xbee6b8b5	-0.45062795
189	0x3d8d0540	0.06885767
190	0xbeec02b7	-0.4609582
191	0x3da09f96	0.078429386
192	0x3df2db1c	0.11858198
193	0x3e8bf6d3	0.2733675
194	0x3de8a957	0.11360424
195	0x3cce62c6	0.025193583
196	0xbb38fafe	-0.0028225775
197	0xbe6f64ae	-0.2337825
198	0x3e04e039	0.12976159
199	0x3c3396a5	0.010961209
200	0x3d7bfbd4	0.06151946
201	0x3e178124	0.14795357
202	0xbdc8a97e	-0.09797953
203	0xbe4cb9f9	-0.19992818
204	0x3e97a392	0.29616982
205	0xbd78c0b7	-0.060730662
206	0x3e7b4733	0.24538879
207	0xbd202dc5	-0.03910615
208	0x3e3c4098	0.18384016
209	0x3e620bef	0.22074865
210	0xbd64b9e1	-0.05584133
211	0x3de84587	0.11341386
212	0x3ca1717e	0.019707438
213	0x3e3db874	0.18527395
214	0xbe35452c	-0.17702168
215	0x3e052624	0.1300283
216	0x3da56393	0.08075633
217	0xbeb98314	-0.36232817
218	0xbd8606b7	-0.065442495
219	0x3e382cb2	0.179858
220	0x3ea0887e	0.31354135
221	0xbe587dcd	-0.21141739
222	0xbe821674	-0.25407755
223	0x3de68645	0.11256079
224	0x3dfec9ba	0.1244082
225	0x3d97b6af	0.07407891
226	0x3d5c75ed	0.0538234
227	0x3c3ae34d	0.011406732
228	0xbd851153	-0.06497445
229	0xbdf20845	-0.118179835
230	0x3eaa2a60	0.33235455
231	0x3e6d418e	0.23169538
232	0xbea95f8d	-0.33080712
233	0x3e168476	0.14698967
234	0x3dded6b9	0.10880799
235	0xbe89f341	-0.269434
236	0x3f059a1d	0.52188283
237	0xbe090877	-0.13382135
238	0x3dcb8d05	0.09939007
239	0xbe03f7ec	-0.12887543
240	0x3ca546c1	0.02017534
241	0x3d192bb8	0.03739521
242	0x3e8a06da	0.26958352
243	0x3e01a87e	0.12661931
244	0x3e051b95	0.12998803
245	0xbe38fceb	-0.1806523
246	0x3dc1aaea	0.094564274
247	0x3e2b64ee	0.1673772
248	0xbe62635e	-0.22108218
249	0xbe52cec3	-0.20586686
250	0xbe9298b0	-0.28632116
251	0xbd9773cc	-0.073951334
252	0xbe8ab8ce	-0.2709412
253	0x3d52c7d6	0.05146011
254	0x3c0ee2da	0.008721078
255	0x3e7abd36	0.2448624

fc3.bias f4 [4]
0	0x3e1a4a90	0.15067506
1	0x3e209c50	0.15684628
2	0x3cdfbb7a	0.027311075
3	0x3d582a56	0.05277475
