p3_collab-compet/checkpoint_actor_1.pth (torch_old, 159230 bytes, 6 tensors)

fc1.weight f4 [256, 24]
00000000: a331 da3d 5c15 82bc c174 1c3d 83d4 97bb
00000010: f6a1 39be c9eb 2c3d 0112 2f3d ab39 943d
00000020: b379 41bc 137c 9abb fb71 a5bc ca1e 8e3a
00000030: a32f 79bd ecec 933d 0574 2b3d 4256 5e3d
00000040: bd76 b7bd 9f96 b4bd c01c 0bbe 3cd0 a73b
00000050: 94af 0f3d d82b 933d cf46 90bd bc08 24bd
00000060: ad60 393c 652d 7b3d a2e9 e7bd 685a 7dbb
00000070: 64c1 203d 9e27 f8bb 1e78 d6bd 74e1 c5bd
00000080: 93a0 003d 6b1b 15bc 8418 b83d ea16 dbbd
00000090: c8d5 4b3d 5bde 3dbc caf4 2d3d 027c c6bd
000000a0: fab7 c73d 2c73 96bd 2b59 0bbd 145a 43bd
000000b0: 6d66 463e a4d5 6a3d d662 373c cb25 b0bd
000000c0: 12e8 6abd ee66 e53d 65dd eb3d bd21 5c3b
000000d0: a263 70bc 28ad bcbc 3eba 043d 0641 4fbd
000000e0: 3abf bb3c 6c3e d63d 7802 7fbd f3b0 79bd
000000f0: 6ff5 913c 0888 a4bd bb6d 30bd c771 28bd
00000100: 5abd 603c b7ff c43a fdbc bcbc 373a 14be
00000110: fa4c b63d a683 cebd 6f34 bf3c ee9a 8ebd
00000120: 454e 80bb 171a dcbd c3ee 633c fc36 52be
00000130: 1c38 2bbc 1494 943d 1c8c 1a3d 9a57 59be
00000140: 5301 22bd 484e e0bd 9040 8fbd 5264 a2bd
00000150: 316e 4e3d 6a34 baba 1005 01bd d1fc f3bb
00000160: 67b7 263d 29ff 1abd 95ae e6bd 9fb4 8c3d
00000170: aab2 553d 9b43 97bc cc5a 84bc 6a3d c93d
00000180: 4249 91bd 4266 d4bd e251 da3c b230 c33c
00000190: f2f4 fcbd e518 8abd 97fb a1bd 7a47 46bd
000001a0: d4f1 97bd c0a8 93bd 09f4 013d a533 c5bd
000001b0: 294d 803d ce48 823d e3fe 5b3d 6566 edbc
000001c0: 711c 94bc 4547 a4bd bf1b 0d3d 31ea dbbc
000001d0: fad2 ea3d af25 133e 64b2 953d a09c 293d
000001e0: 12d6 a13d 8f91 8a3e 4022 11bd 336c c4bd
000001f0: b4a2 f0bd 7a8e 313d 6a3a 2f3d 4717 9fbd
00000200: 0f49 b33c 17c0 3e3e b54e 57bc 8b88 25be
00000210: 9d05 3dbe 44c2 1a3d be09 5f3d 75ef 0abe
00000220: 2837 f83c f1d7 2abd da8e 2f3d 8b8c 19be
00000230: 72a2 00bd da8e 673d ec50 513d b55f 34be
00000240: 8fd7 13be dbfa cabd 9ac6 81bb 117e a0bd
00000250: d618 93bc d73f edbc 1566 c03c 1a0b 373c
00000260: 204a 8abc 59c2 08be e0e9 5f3c e49b 06bd
00000270: b476 e1bd 5be1 df3d e94a f8bb afbf c9bc
00000280: 8163 8cbd feb5 06be 68aa 073d 3370 72bc
00000290: a71d b5bd 2632 7e3d 4682 fe3c d4ce 823c
000002a0: ce79 78bd 3e0a 8e3d 0b2d cebd fde1 9f3d
000002b0: f816 3d3e 07e6 363d 5503 95bd c71c 043d
000002c0: 1398 07bd a43e 083e 67dd 97bd 0bf9 2f3c
000002d0: 3854 e13d f766 be3d 21cb 78bd 157c 953c
000002e0: af02 13bd 8227 243e 3d95 9fbc 8e40 e23d
000002f0: c059 c63d 4755 283e 93be 693d b656 ba3d
00000300: 3659 21be fc5a 043e c2b9 cc3b 84c9 023d
00000310: 0b03 7a3e 7b5e 80be a591 0e3c dc24 d73b
00000320: 6565 90bd 1899 0d3e f033 2fbd 3114 12bb
00000330: 0bd1 4e3e 9e55 40be 54d0 b8bc 066e b83c
00000340: 48eb 05bd c51b 173e 5117 b1bc da14 d53d
00000350: 820b 88bb bcca 82bd f75d cbbd 53b5 1a3d
00000360: 1f23 303d b0da 21bd f125 50bd 54be b53d
00000370: 5177 c23a 1ee9 663c b6a1 71bd 20c5 d93d
00000380: 4c3f 44bc 28ba d8bc 7f77 d1bc ebcc dd3d
00000390: 4340 8f3c a751 033d 3e13 91bd 9da7 1b3d
000003a0: 93e4 8c3d 7813 653c e665 06be 9ecb 583e
000003b0: 692f 583c 612f e4bc d078 0cbd 040c 3e3e
000003c0: 0878 2ebd defe 80ba 7d23 f6ba 248e 453a
000003d0: 3bdc 1f3d dda6 873d e145 35bd d884 673d
000003e0: 5971 e1bc d695 83bc 56c4 ecbb 674b 213c
000003f0: 771e 6c3e c7d9 8d3d 7005 47bd e850 003d
0.10653999 -0.015879326 0.038197283 -0.0046334877 -0.1812819 0.04221705 0.04274178 0.07237562
-0.0118088005 -0.004714498 -0.020195952 0.0010842916 -0.060836446 0.07222924 0.04185869 0.05428148
-0.089581944 -0.08817791 -0.13585186 0.005121259 0.035079554 0.07186097 -0.07044756 -0.040047392
0.011314553 0.06132259 -0.11323859 -0.0038658623 0.03924693 -0.007573082 -0.10472129 -0.096621424
0.031403136 -0.009100775 0.08989051 -0.1069773 0.049764425 -0.011588658 0.042469777 -0.09691621
0.097518876 -0.07346186 -0.034020584 -0.047693327 0.1937501 0.05733265 0.011192998 -0.086009584
-0.057350226 0.11201273 0.11516837 0.0033589446 -0.014672192 -0.023031786 0.032404177 -0.05059912
0.022918332 0.10461125 -0.062258214 -0.060959768 0.017817227 -0.080337584 -0.043073397 -0.04112413
0.01371702 0.0015029822 -0.023039335 -0.14475332 0.08901401 -0.10083704 0.023340432 -0.06963144
-0.0039155805 -0.10747164 0.013911906 -0.20528787 -0.010450389 0.07254806 0.037731275 -0.21224824
-0.039552044 -0.10952431 -0.06994736 -0.07929291 0.050398055 -0.0014206294 -0.03149897 -0.0074459095
0.04070225 -0.037840996 -0.11263768 0.06870388 0.05217234 -0.018464854 -0.016156577 0.09826167
-0.07094051 -0.10371067 0.026650373 0.02382693 -0.12351407 -0.067430295 -0.07909315 -0.04840801
-0.07419172 -0.07209921 0.03172687 -0.09628991 0.06264717 0.06361543 0.053709876 -0.02897949
-0.018079968 -0.08021406 0.03445029 -0.02684507 0.11466022 0.14369844 0.07309416 0.041409135
0.07902159 0.27064177 -0.035433054 -0.0959095 -0.11749783 0.043348767 0.042780317 -0.07768112
0.021885423 0.18627964 -0.013141324 -0.16165368 -0.18459173 0.037782922 0.05445265 -0.13567908
0.030299738 -0.041709844 0.042860843 -0.14995019 -0.03140492 0.05653272 0.051102564 -0.17614634
-0.14437698 -0.09911128 -0.0039604427 -0.07836545 -0.017956179 -0.028961105 0.023486177 0.01117208
-0.016881049 -0.13355388 0.0136666 -0.032863513 -0.11008969 0.10931655 -0.0075772894 -0.024627535
-0.06854916 -0.13155362 0.033121496 -0.014797258 -0.08843546 0.062059544 0.031067979 0.015967764
-0.060663037 0.06935547 -0.10067185 0.07806776 0.18465793 0.044652965 -0.07276026 0.032254007
-0.033104014 0.13305146 -0.07415276 0.010740529 0.110023916 0.09296983 -0.060740594 0.018247643
-0.03589123 0.16030696 -0.019480342 0.11047469 0.09685087 0.1643878 0.05706651 0.0909857
-0.15756688 0.12925333 0.00624773 0.03193046 0.24415223 -0.25072083 0.008701717 0.0065656733
-0.070505895 0.13827932 -0.04277414 -0.0022289867 0.20196931 -0.1878266 -0.022560276 0.0225134
-0.032695085 0.14756687 -0.021617563 0.10404368 -0.0041517625 -0.06386325 -0.09930032 0.03777058
0.043002244 -0.039515197 -0.050817434 0.08874193 0.0014836584 0.014093665 -0.05899211 0.10633302
-0.011977982 -0.026455954 -0.025569675 0.108301006 0.017486697 0.03206029 -0.07083748 0.038001645
0.068795346 0.0139816925 -0.13124809 0.21171424 0.013194897 -0.027854623 -0.034294903 0.18559271
-0.04259494 -0.0009841581 -0.0018778887 0.0007536134 0.039028388 0.066236235 -0.044256095 0.056523174
-0.027519869 -0.016062658 -0.0072255535 0.0098446375 0.23058496 0.06926303 -0.04858917 0.03132716

fc1.bias f4 [256]
00000000: 5293 8ebd 3bba 673b 3dc4 d93d ca3e ce3b
00000010: f19f 1abd 40ac ebbd 1cb5 43be c7b3 8e3c
00000020: 039e 02be bb49 50be 1632 213e 416d 00bd
00000030: 9a27 b63d 8ae1 a6bd f3cd 983d 6200 5b3e
00000040: 6cc0 a7bd 677a 9e3d 2b63 03be de7e 0bbe
00000050: c3e7 543e cc51 34be 4dca 353d 272f 2fbe
00000060: d980 3e3d b5ce 41be 1c84 b93d f2df 0dbd
00000070: dc1e 31be a25a 0dbe 5497 1ebd 2216 31be
00000080: a167 6abc eafe af3d 503f 81bd b4f4 083d
00000090: 88c6 31be 03fe 653e 21b6 1bbe 46a8 ca3d
000000a0: c755 2cbe e231 c3bd e162 203c 1a59 81bd
000000b0: 3935 06be b8b1 9cbc f806 4cbd 68d4 1dbe
000000c0: bf2e 9e3e f455 103e 3e57 97bb 1ef1 013e
000000d0: f75c ddbd 4645 1abe bea7 ce3c e43e 59be
000000e0: ead6 633e dd42 8f3c cc33 28be 44ca f83d
000000f0: 90e4 423d 2019 013d 24a4 a73d e0b4 38be
00000100: 1038 243e 6b7b 83bd 8924 12be 719b 4e3e
00000110: 330a f9bd 51a6 babd da79 a2bc 0844 02be
00000120: f0e4 20be 0017 cbbd e705 aa3d 353e 713e
00000130: 016c 9fbc 4e00 523e 5ced 0b3c ba47 d93d
00000140: ebfc 9ebd b2f8 88bd 5ed0 25be 03c7 7cbe
00000150: 0430 843d 9618 2ebe 7173 a2bc 0f1e b63d
00000160: c123 15be 21a7 0f3e 5428 debd 4542 873d
00000170: e57d 94bd 4a38 6d3e 750e 85bd f0be 4dbe
00000180: bf8d 4d3e 9623 45be 9f0e 373e 9755 b83d
00000190: 790d 043e 77a7 1f3d e96f f3bc 3f5e 0e3d
000001a0: a502 9ebd e721 0d3e e035 eb3d 92af 99bc
000001b0: af06 9b3d 8b8c 9ebd f6fa 98bc 9efb d9bd
000001c0: 35e6 c5bd ec46 5abe d2ff d63c c54b 2a3e
000001d0: 0678 403e 3d9c f9bd ebfa d7bd ce96 743e
000001e0: c37b 6cbd 39f0 863d 4d52 063e e6ef 9d3d
000001f0: 75f1 bb3d aa32 cd3d 1d33 913c bcfc 3d3d
00000200: 1573 553d 5262 1bbe 59ef 72be c16e fc3d
00000210: 6c18 24be 2a4a 193e 72da 473e 7104 393e
00000220: ca6b da3d 5524 e43c 923b 383e 04ff 9e3d
00000230: 527a a33d 88ad d9bd 8b24 4c3e 37c2 f53c
00000240: d836 f03d 929b 48be 23c4 73bb 4e64 09be
00000250: 7c57 21bd 9438 8d3e f588 d83d 738e 4f3e
00000260: 9a89 213e 8ef9 18be da38 733e 45ba dc3b
00000270: 05d9 5f3e 066e 0d3d 849e 4cbd ddd8 443e
00000280: 5128 3cbe a05c b7bc 9501 573c 5264 c93d
00000290: 1184 67bd 95a2 ea3d cca0 093d 8910 153e
000002a0: 514f 453d 109f 183e acb9 173e cefc 4fbe
000002b0: 32bf 42be 3c5f 97be 5806 2dbe 5092 0cbe
000002c0: 3097 acbc dd81 103e e764 17bd 878e 043e
000002d0: 4258 26bd 113a 253e 5881 193e 2107 123e
000002e0: a565 fe3d a287 b6be b7af 34be 3907 88bd
000002f0: 2933 863d e22a 343e 0ec6 b73d 19f4 ff3d
00000300: 74af efbd 7ac9 24be a9d7 703e 7feb 47be
00000310: cb9b 1dbd e008 b33d 8106 1d3e 2f9a 473d
00000320: 9c9c 26bc ae99 653d c272 beb9 090f 17bd
00000330: 6344 a73e 0a4d 3f3e 6dde adbd afac 153e
00000340: 1c84 863c f0a4 67be 8fb3 f2bb c96e 8e3d
00000350: 5965 773e 1996 21bd 6a98 c5bd 4d68 2dbe
00000360: ff44 5b3e 3a0e 083e c1f1 c23d cd61 3abc
00000370: a6c9 09be 8aad 7a3d 8031 383e 421f 86bd
00000380: d578 8b3d dca0 77be c205 383d 68fb 833c
00000390: 6024 51bc 5684 5dbe 6956 5c3e a3a1 3a3e
000003a0: d00f a6bd 9b2c c2bd 5118 443d eaa9 033e
000003b0: 1ba0 9bbd 39fd 603c 6322 833d d0eb 2f3e
000003c0: 7b1f 43be ec9b 11be fa5c 803d 1091 c8bd
000003d0: be95 dbbc 4f51 653e 3bd7 3e3c bf24 a1bd
000003e0: 1cda f1ba a478 1cbd d221 3cbb af93 99be
000003f0: 026a 4a3e 0c33 373e 8ee0 16be 8bf1 583e
-0.06961693 0.0035358805 0.106331326 0.006294106 -0.03775019 -0.115074635 -0.19112056 0.017419709
-0.12755589 -0.20340626 0.15741763 -0.031354193 0.08894272 -0.08148487 0.07461157 0.21386865
-0.081909984 0.0773819 -0.12830798 -0.13622615 0.20791535 -0.17609328 0.044382382 -0.17107831
0.046509597 -0.18926509 0.09058401 -0.0346374 -0.17296928 -0.13804105 -0.038718536 -0.17293599
-0.014306934 0.08593543 -0.06310904 0.033436492 -0.1736089 0.22460179 -0.15206195 0.09895377
-0.16829596 -0.09530999 0.0097892 -0.06315823 -0.1310624 -0.019127712 -0.049811333 -0.15413058
0.3089504 0.14095289 -0.0046185544 0.12689635 -0.10808747 -0.15065488 0.02522647 -0.21215397
0.22249952 0.017487938 -0.16426009 0.12147954 0.047581255 0.0315181 0.08185604 -0.18037748
0.16037011 -0.064200245 -0.1427175 0.20176484 -0.121601485 -0.091137536 -0.019833494 -0.12721264
-0.15712333 -0.09916496 0.08301907 0.23558886 -0.01946068 0.20507929 0.008540478 0.10609384
-0.07763084 -0.0668806 -0.16192767 -0.24685292 0.06454471 -0.17001566 -0.019830437 0.08892452
-0.1456442 0.14028598 -0.10847536 0.06604437 -0.07250575 0.23166004 -0.06496898 -0.20092368
0.20073603 -0.19251856 0.17876671 0.090007 0.12895764 0.038978066 -0.029716449 0.03475785
-0.07715348 0.13782464 0.11484885 -0.018760476 0.07569634 -0.0774165 -0.018674355 -0.10643695
-0.09663049 -0.21316117 0.026245032 0.16630466 0.18795785 -0.12188003 -0.10545906 0.23885652
-0.057735216 0.065887876 0.13117333 0.077117726 0.09176914 0.10019429 0.017724568 0.046383604
0.052111704 -0.15174225 -0.23724116 0.12325812 -0.16024941 0.14969698 0.19516924 0.180681
0.106650904 0.027849356 0.17991474 0.07763484 0.07982315 -0.106288016 0.19935815 0.029999835
0.117292106 -0.19590595 -0.0037195764 -0.1341717 -0.039390072 0.27582228 0.105729975 0.20269184
0.15775147 -0.14938948 0.23752156 0.0067360722 0.2186013 0.034528755 -0.04995586 0.19223352
-0.18374754 -0.022383034 0.013122936 0.09833588 -0.056522433 0.11456791 0.033600613 0.14557089
0.048171345 0.14904428 0.14816922 -0.20311281 -0.19018248 -0.29564846 -0.16896951 -0.13727689
-0.021068186 0.14112039 -0.036961462 0.12944995 -0.040611513 0.16135432 0.14990747 0.14260532
0.12421731 -0.35650355 -0.17645155 -0.066420026 0.06552727 0.17594483 0.08973323 0.1249773
-0.11703387 -0.16092482 0.23519768 -0.19523428 -0.038478654 0.08741927 0.15334512 0.048731025
-0.0101691745 0.056054763 -0.00036325125 -0.036879573 0.32669362 0.18681732 -0.0848969 0.14616655
0.016420417 -0.22621512 -0.007406659 0.06954724 0.24159755 -0.039449785 -0.09648211 -0.16934319
0.21413039 0.13286677 0.09518767 -0.011375857 -0.13455829 0.061200656 0.17987633 -0.06548931
0.06810156 -0.24182457 0.044927366 0.01611109 -0.01276502 -0.21632513 0.21517338 0.18225722
-0.08108485 -0.09481164 0.047874752 0.12857786 -0.07598897 0.013732248 0.06403043 0.17179799
-0.19054978 -0.14219636 0.06267734 -0.097932935 -0.026804801 0.22394298 0.011647995 -0.07868337
-0.0018451842 -0.03820099 -0.0028706682 -0.29995486 0.19767001 0.17890567 -0.14734098 0.21185891

fc2.weight f4 [128, 256]
00000000: 6f1d 6a3c d795 d6bb 85d3 8abd 572a 21bd
00000010: cb3d 0b3d 5b54 fd3c 30e5 823c 6a6e d13d
00000020: d492 093d f125 a33d d07c f2bd f35e 83bd
00000030: ee9e 82bd 747e 03bc 07d7 213d c924 9b3c
00000040: 7c64 d63d 2da9 d8bc 5164 20bd 998e 14be
00000050: 85f5 52bd a67f 833d cfa6 5f3d 2166 e43d
00000060: 278c a9bd d197 8bbd 4238 443d 0d5b aebc
00000070: 4c6a 253d 1b47 a4bd 7a8c f73d 2c73 54bd
00000080: 2f1a b2bc 61e6 393d fcbb 233e e31d e23b
00000090: f07e 9e3d 6ca3 69bd f85f 483c e3a1 183e
000000a0: 986a a5bb da8a 4c3d 6ca9 2d3d 7117 e2bd
000000b0: 8431 ab3d 6cf7 ae3d fedf 573d 344c edbc
000000c0: b642 603e ca52 ef3b 9b2a b83c 9280 7cbd
000000d0: a7cc 85bd b8ff 4f3c a490 aa3d d157 07be
000000e0: 8566 313e 37b6 193c 92e1 cbbd dc90 5cbc
000000f0: 43bd c3bc c845 7e3d 74ef dd3d 0ec7 aabc
00000100: 4b15 c4bd 5053 b53d 9f9f af3d afae 473d
00000110: 2f75 cabd 820a 3bbd 7ddd 633d 0efe e7bb
00000120: c6ef 84bd 4bff ee3d 92fc 783d 7c6c 80bd
00000130: dc0f ba3b 9497 d3bd 6248 bd3d c70b a3bc
00000140: fe70 a63c 5815 06be 0a27 84bd 68f1 d73d
00000150: 5596 ae3d 0990 c4bd 7fea 13bd 8c35 9fbb
00000160: a50d abbd bb75 803d 50ea c03d 4d00 1abd
00000170: 2662 eebc f1aa 313d 70c9 33bc a1c9 3ebc
00000180: 9146 c03c 29f4 0dbe 062b 2c3d 829e ab3c
00000190: 511f e53b 1d9f c63d ea18 0c3d 1c47 073e
000001a0: 0d26 073e 0e9d 66bb 7b77 34bd 8b7c bb3d
000001b0: 8067 ab3b 1d97 b53d fe7a eb3b 69e6 05be
000001c0: d621 5d3c 86fd 0a3d ab9a 5d3c e398 b23d
000001d0: 3243 01bd 318c ef3d c3cb a7bd 26ea 0f3e
000001e0: 4a29 a23d 6ad0 83bd fab1 e0bd d8a3 5c3d
000001f0: 13af 543d 8eec 083e 2bd6 2f3d 1bf6 da3c
00000200: 23ba 58bd 33ef e63d 38b1 8d3d f44a 3d3d
00000210: c5ad 96bd dd05 153e 8fbb 033e 10c3 4c3b
00000220: 31ee 8abd f751 0cbb 4f37 26bd 62a9 abbc
00000230: d735 83bd 15d7 c03c fe72 163e b8b1 123d
00000240: 0347 b63d 1dab fc3d 68d6 dd3c 8062 47bd
00000250: d500 293c e1a9 e63d 3b99 823d cbb1 e2bd
00000260: eae1 81bc 7585 5f3b 50a8 053e 7b73 0e3e
00000270: b5ca 6ebd ad6d 9bbc eb94 e93c 9373 f03d
00000280: 057b f83c c11e 0cbd c07e e83d b518 233c
00000290: 1041 1a3e a921 e9bc 8f7a 54bd 0cdf c7bc
000002a0: 8366 963d 1ebc e73c 6ff1 823b a059 8abd
000002b0: 894e c4bd 68db 84bc fb3e 86bc a269 473d
000002c0: 174c 7abc 98fb b93b ded8 d53d 9522 0f3e
000002d0: f219 9d3d cb5b a33c 5b24 073d 0613 b4bc
000002e0: 0219 d83c 9ca6 00bd 3128 29bd 2980 573c
000002f0: 58d2 db3d 5abc 0a3e ab47 a03d 371d 95bd
00000300: 1259 b2bd 2e6b 5abd 1c0c 52bc 9e35 e33d
00000310: 062f d03b 182d 3dbe 0472 813d cdad f0bd
00000320: 6f50 c93c 9d14 3ebd 3a6c 68bb fe0c d13d
00000330: b864 d43d 457b 6d3b b540 96bd bb88 233d
00000340: 4cc0 613d 192c e23d 4031 a93d be1a 57bd
00000350: 0a28 953d a4c3 283d 00f1 c83d b9dd a2bd
00000360: a691 853d 36fd 003e 0b3f c7bb fe35 03be
00000370: f8a5 a5bc be1e 1a3e 8ae0 53bd f39a 923d
00000380: 7364 5a3c b9a5 88bc c997 cfbd d242 033e
00000390: f18c bebd 31b7 bbbc 7b24 893d 6ffb f43d
000003a0: b702 d6bb 2dd8 eb3c 097f f4bd 3c07 1c3d
000003b0: 0135 a7bb a5e3 5e3d 6528 a13d daaa 9dbd
000003c0: c76f 7d3d b7fa 8cbc 5c8a dd3d 419a 96bd
000003d0: cc3c 4abd de2d 013e 58ce 873d 0e6a 04be
000003e0: f90c 953c dd8d 663c fc17 373d 141f f2bd
000003f0: 0e43 673d 2d45 48bd 2cc5 3c3d 408c 94bd
0.014289244 -0.006548624 -0.067786254 -0.03934702 0.033994477 0.030924013 0.015978426 0.10226138
0.03358729 0.07966221 -0.11840212 -0.064145945 -0.0637797 -0.008025754 0.039511707 0.018938439
0.104683846 -0.026447857 -0.03915817 -0.14507522 -0.051503677 0.064208314 0.05460244 0.11152292
-0.08278685 -0.06816066 0.047905214 -0.02128365 0.040384576 -0.08021375 0.12087341 -0.05186765
-0.021741001 0.045385722 0.15989679 0.0069005354 0.07739055 -0.057040617 0.012229912 0.14905505
-0.0050481074 0.049937107 0.0423979 -0.11039627 0.08359054 0.08543286 0.05270385 -0.028967
0.21900448 0.0073035704 0.022481253 -0.06164605 -0.06533175 0.012695245 0.08328369 -0.13217093
0.17324264 0.009381822 -0.099551335 -0.013462272 -0.023893958 0.062078267 0.10836688 -0.02084687
-0.09574374 0.08853781 0.08575367 0.048750576 -0.09885632 -0.045664318 0.05563115 -0.007079846
-0.06491046 0.11669787 0.060787745 -0.06270692 0.00567816 -0.103316456 0.092423216 -0.019903077
0.02031755 -0.1309408 -0.064527586 0.105440915 0.08524767 -0.09597785 -0.036112305 -0.004858678
-0.08352212 0.06272455 0.094196916 -0.037597943 -0.029099535 0.043375913 -0.010973319 -0.011644752
0.023471149 -0.13862671 0.042033218 0.020949606 0.0069922586 0.09698317 0.034203447 0.1321072
0.13198109 -0.0035188827 -0.044059258 0.09154614 0.005230844 0.08866713 0.0071862927 -0.13076176
0.013496837 0.033933185 0.013525645 0.08720567 -0.031558223 0.11696661 -0.08193161 0.14054164
0.079180315 -0.06436236 -0.10971446 0.05386719 0.051924776 0.13371488 0.042928856 0.02672868
-0.05291189 0.112760924 0.069185674 0.04621406 -0.07357363 0.14553018 0.12864517 0.0031244196
-0.06783713 -0.002141116 -0.04058009 -0.020954791 -0.064067535 0.02354006 0.14692304 0.035814017
0.08900263 0.12337325 0.027079776 -0.04867792 0.01031514 0.112628706 0.06376883 -0.110690676
-0.015854795 0.0034106646 0.13052487 0.1391124 -0.058298785 -0.018973196 0.028513392 0.11740794
0.030332098 -0.034209017 0.11352301 0.009954621 0.15063882 -0.028458433 -0.051874693 -0.02439835
0.07343771 0.028287943 0.0039960663 -0.06755376 -0.09585292 -0.016217902 -0.016387453 0.048684724
-0.01527693 0.0056757443 0.10441755 0.13978036 0.07670964 0.019941231 0.032993656 -0.021981727
0.026379112 -0.03140889 -0.041298095 0.013153114 0.10733479 0.13548413 0.078261696 -0.07280963
-0.08708395 -0.05332487 -0.01282027 0.11094211 0.006353262 -0.18474233 0.06320575 -0.117519
0.024574487 -0.046406377 -0.0035464899 0.10207556 0.10370773 0.0036236804 -0.07336561 0.03992532
0.05511503 0.11043567 0.08261347 -0.052515738 0.072830275 0.041202202 0.09811592 -0.079524465
0.06521921 0.12596592 -0.0060805134 -0.12813565 -0.020220742 0.1505079 -0.05172781 0.071584605
0.013329613 -0.016680585 -0.101363726 0.12818459 -0.09304226 -0.0229145 0.06696411 0.1196202
-0.0065310854 0.028789604 -0.119382925 0.038092837 -0.005102754 0.054416317 0.07869033 -0.07698603
0.061874177 -0.017209394 0.108174056 -0.0735364 -0.049374387 0.12615153 0.06631154 -0.12931082
0.018194662 0.014071909 0.044700608 -0.11822334 0.056460433 -0.048894096 0.046086475 -0.07253313

fc2.bias f4 [128]
00000000: 7adf 043e 5ff1 6bbc 1073 6cbb 1a35 cf3a
00000010: 59db e93c 959a 5c3c 9fb0 743d 3ddc 18bd
00000020: 08cc 4abd ac4b d7ba 6d65 dc3b 9f93 c93d
00000030: 4c96 85bd 4092 6dbd 554a cbbc 142c 88bd
00000040: f7bf 9ebd 2873 d8bc 9291 46bd 8333 abbc
00000050: 2c9f e4bc ef5b 60bc a178 75bc c698 f43c
00000060: d1e3 0f3e 9972 853c 90c0 edbc 8883 b03d
00000070: 139b 88bc f477 19bc 66b1 043d 9c98 b13c
00000080: 4f6f 75bd efda 74bc 9db5 9dbd 785a 303d
00000090: 719a 0cbc 718f 843c 2745 4e3d 6fac a0bd
000000a0: c41a d1bc a856 ed3c 1b72 123d ba04 d63d
000000b0: ead6 843d 9e88 9f3c a9c4 223c c989 723d
000000c0: 6210 853d e7c1 113c 5226 dcbc 804b 0b3d
000000d0: 2ece 84bc efd5 e43c 0c95 323c b233 e43d
000000e0: 62e3 5f3d dfec bc3d 2fa8 7abc 51d7 223d
000000f0: 3678 86bc e7e6 893c 622e 8a3c 7847 d53c
00000100: 1f31 dd3c eb6b 5f3d 5103 44bb 42fb ae3b
00000110: d60d c5bc 176f cf3d 254d 9ebc 58a3 9bbc
00000120: c4f3 a6bc c21f 81bb 58d5 403d 13c2 debb
00000130: d37a 0dbd f435 d73b 3848 f4bd a6a0 55bd
00000140: 60d7 553c 6ab2 85bc b754 08bc 31e6 77bd
00000150: 6e23 5d3c 0421 203d 4ce2 79bd 579b 6abd
00000160: fd3d 943d b859 acbb 4605 c43d 1ca1 a93c
00000170: 6e8f b63b 74fb 2cbd a74f 27bc 4b25 a6bc
00000180: 8d16 cd3c 25e1 9a3c 63ab 843d 50a2 953d
00000190: 2011 d83c 0cdd 88bc d3ca 86bd d325 43bc
000001a0: 9c75 2dbc 78d6 56bb e358 963d 47f9 f03c
000001b0: 99b4 09bd fbb8 c53d 4044 ec3c 837f 9ebd
000001c0: 19c2 f7bc 390e 893d bc11 b63c e929 0e3c
000001d0: 6c52 68bc 975a df3c 92c5 cd3d f5a1 72bd
000001e0: afba d13d c712 853d 19f4 383d 16ba 113c
000001f0: 20fb b03c 8642 fcba 65dc 7b3d f5e4 babc
0.12975875 -0.014400809 -0.0036079325 0.0015808672 0.028546976 0.01346459 0.05973875 -0.03731941
-0.049510986 -0.001642575 0.006725958 0.098426096 -0.065228075 -0.058000803 -0.024815718 -0.06649032
-0.07751458 -0.026422098 -0.04847867 -0.020898586 -0.02790793 -0.013693794 -0.014982373 0.029858004
0.14051749 0.016289996 -0.029022485 0.086188376 -0.016675508 -0.009366978 0.032395743 0.021679215
-0.059920605 -0.014944776 -0.077006556 0.043055028 -0.008581744 0.01618168 0.050358918 -0.07845389
-0.025525458 0.028971985 0.03575335 0.1045012 0.06486304 0.019474324 0.009934583 0.059213433
0.064972654 0.008896328 -0.026873741 0.03400755 -0.016211595 0.027934043 0.010899793 0.111426726
0.05466021 0.09224867 -0.015298887 0.039756123 -0.016414743 0.016833736 0.01686782 0.026035056
0.027000962 0.054546278 -0.0029909203 0.005340011 -0.024054449 0.101286106 -0.019323895 -0.018998787
-0.020379908 -0.0039405534 0.04707846 -0.006798038 -0.034540962 0.006567711 -0.11927837 -0.05215516
0.013051838 -0.016320426 -0.008320979 -0.060522262 0.013497217 0.039093986 -0.06100683 -0.05727705
0.07238386 -0.0052597187 0.09571318 0.020706706 0.0055712974 -0.042231992 -0.010211862 -0.020281455
0.025035167 0.018906185 0.06478002 0.07306349 0.026375353 -0.016706966 -0.065816544 -0.011910873
-0.010587122 -0.0032781642 0.073411725 0.02941574 -0.033619497 0.09654423 0.028841138 -0.07739165
-0.03024392 0.06692166 0.022225253 0.008676984 -0.014179807 0.027264876 0.10047449 -0.059236486
0.10240685 0.06497722 0.045154665 0.008894464 0.02160412 -0.00192459 0.06148948 -0.022814253

fc3.weight f4 [2, 128]
00000000: df52 943d e7a7 acbc c4ee 67bd 0868 c2bd
00000010: 8d08 e2bd 4ebd f0bd 419c 53bd 3e93 47be
00000020: 1bcf 0bbe 616d 3cbe 4ad3 16bc 68b1 ae3d
00000030: 84a5 97bd fcfa 973d 4c61 b8bb ef4c 06bd
00000040: 9ef7 05be 2250 90bd 2649 cdbc ff9a 87be
00000050: 7828 4dbe f924 a4bd 620f a6bd f1e3 5c3d
00000060: 932e 543d fc9a 39be 7fb1 73bd fc23 623d
00000070: 7fe0 a03e 6dd3 92bd 24ca 0cbe cdf1 7cbe
00000080: 84b5 bbbe 6029 8b3d 69b5 bebc 8e12 183e
00000090: 0b20 70bd feb7 3bbe 0b99 c73d 03d4 87bc
000000a0: aca1 17bd 3f58 12bd 6a54 7fbe 12c5 dc3d
000000b0: 0948 0ebe 195c c0bd 23ce 44be e3a4 42be
000000c0: 75c2 c43d bf9d 843d 0c56 de3d dd17 683d
000000d0: 24e1 b0bd 4d65 323d 4e68 e0bd fbbc af3d
000000e0: b887 ee3d aaa9 4fbe 55c5 f1bd d4ae 92bd
000000f0: 36bc 233e ebc7 a93d 9bc3 0b3d c003 92bd
00000100: 29d9 acbc b351 433a a7ac 8bbd e68c 18be
00000110: 8abc abbd 3586 973d 48aa 973d d3d6 783c
00000120: a812 923c 4d4c 26be 88bc c93d 32e8 74bd
00000130: 9d06 11be 3498 80bc 0a34 8abd 0eba 21bd
00000140: e87f e5bd 98e3 37be 6392 3fbd e8f0 0ebe
00000150: 471a 043c 38c2 6e3d 534f 8fbd c719 06bd
00000160: 396e 2b3d f13c 15be 38a8 e23d f063 543e
00000170: 1424 a83a 2b80 33bd 4da8 23bd c17d c6bd
00000180: 03f8 f63d 06c6 10bc 1d59 923d 9c88 c73d
00000190: 67de 273e a960 dfbd 51e9 87bc f606 d7bc
000001a0: 7f26 8c3d 60aa 24be d316 cfbc a6d6 b1bd
000001b0: 0599 8ebd e2b8 4d3d 4922 1abd ff06 52bd
000001c0: 80d6 38bd 3bc6 29be 603f d6bd bc0d 75bd
000001d0: 873e 23be 25bd 1e3e b809 143d ef70 a7be
000001e0: be91 903c 14b2 913d 39b3 a6bd 991b cd3c
000001f0: 5ff3 a63b 7b7e e5be 3f6e 7f3c 6ce2 dabd
00000200: 9fb8 753c 88d0 9b3d d942 23be 9aec 363e
00000210: 8683 d1bb 9f7f 9a3d 5191 a93e d198 b4bb
00000220: d316 823e d570 a33e e0d2 953d 0ebb 103d
00000230: 818e 88bc 7818 813e 2c71 58be 562e 233e
00000240: 1294 803c 7083 363d cbd8 833d d15b ddbc
00000250: 32d4 5ebd 3819 8c3d f8fd 9e3d c0a4 ab3d
00000260: 44e0 fabd 0639 2a3d 9678 28be d3db 48be
00000270: e1dc 493e dd92 f7be 9ba2 03be dab7 cdbd
00000280: 8f8b 8dbe d2fa 263e b549 223d a2ef 353d
00000290: 1809 ae3d 8a3e dabc ab3b 40bd 9277 473d
000002a0: d561 933d 1e6d 0e3d 6510 b13d 11a8 efbc
000002b0: cf00 aebe cf7b 2cbe fec0 1fbe f5b9 3dbe
000002c0: 8e99 56be 407e e63c 253e 2c3e 81be 83ba
000002d0: b829 7c3e 5c00 94be b4ee 97bd 387f 20bd
000002e0: 5c46 a0bd d61a 93bd 8002 e5bd 7678 2b3d
000002f0: 2285 2cbd 2793 65bd c139 d3bd ba95 3e3e
00000300: 5e88 e03d 6485 353e 536f 03be ae6c f3bd
00000310: 2487 123d 8e5f 8ebc 0cb9 2d3e eccd 2ebe
00000320: 640e d73e a166 0cbe 4ed5 e63d 4d82 843d
00000330: 9972 31bd 2584 4e3e 047e ad3e 4758 07be
00000340: 5b76 02be 45df a6bd 4b5f 0abc f376 90be
00000350: 5cda ba3d 9983 4a3d 2f87 543d af00 013e
00000360: d88d d1bc 6b47 83be 78de 94bc 7827 9bbd
00000370: 6756 d43a 3040 3a3d a453 4c3e d616 ce3d
00000380: 2923 653e 8a16 e4bd 8ea2 31bd 50dd 2f3c
00000390: 3d5f c93c 1209 923d f921 913d b1d3 023e
000003a0: 9be0 9dbd e388 5fbd 5bc4 68be 05cf 53be
000003b0: ece6 af3d 6482 ffbc a8c8 8bbe da70 9c3d
000003c0: 5409 093c a6d8 5e3c 0086 7ebe df62 8cbe
000003d0: 1e13 33be a012 e4be e047 81be f039 b93e
000003e0: 5381 e8be 4b35 933d ae35 4dbd c7e3 82be
000003f0: 7e5d a43d 8534 ce3e 4341 c73d adb4 fdbd
0.07242369 -0.021076156 -0.05662419 -0.09492499 -0.11036787 -0.11754857 -0.051662687 -0.19489762
-0.13653223 -0.184011 -0.009205649 0.08529931 -0.074046165 0.07420918 -0.005626833 -0.032788213
-0.1308274 -0.07046534 -0.025059294 -0.2648544 -0.20034969 -0.080148645 -0.08108403 0.05392832
0.05180223 -0.18125528 -0.059495445 0.0552101 0.31421277 -0.071692325 -0.13748986 -0.24701615
-0.36661923 0.06795001 -0.023279862 0.14850828 -0.05862431 -0.18331906 0.097459875 -0.016580587
-0.037019417 -0.03572869 -0.24934545 0.10779776 -0.13894667 -0.09392566 -0.1921926 -0.19008212
0.09607402 0.064754 0.10856256 0.056663383 -0.08636692 0.04355364 -0.109573945 0.08580967
0.1164698 -0.20279565 -0.11805216 -0.07162252 0.15989766 0.082900845 0.03412209 -0.071296215
-0.021099644 0.0007450834 -0.0682004 -0.14897498 -0.0838557 0.07398645 0.074055254 0.015187937
0.017831162 -0.16240044 0.098504126 -0.05979175 -0.14162679 -0.015697576 -0.06748207 -0.039484076
-0.11206037 -0.17957914 -0.046770465 -0.13959086 0.008062906 0.05829069 -0.06997552 -0.032739427
0.041853163 -0.14574029 0.110672414 0.20741248 0.0012828135 -0.043823402 -0.039955426 -0.096919544
0.12059023 -0.008836275 0.07145903 0.09742853 0.16393434 -0.10907108 -0.016590746 -0.026248436
0.0684328 -0.16080618 -0.025279438 -0.08683519 -0.0696278 0.050225146 -0.037630353 -0.051276203
-0.04512644 -0.16579525 -0.104613066 -0.05982755 -0.15941821 0.1550184 0.03614208 -0.3270335
0.01764762 0.07114044 -0.08139653 0.025037574 0.00509493 -0.4482306 0.01559025 -0.10687718
0.01499763 0.076081336 -0.15943469 0.17863694 -0.0063938526 0.07543873 0.3311868 -0.005511381
0.25408038 0.31922022 0.07315612 0.03533464 -0.016669514 0.2521398 -0.21136922 0.15935645
0.015695605 0.044558942 0.06437834 -0.02702132 -0.054401584 0.068407476 0.077632844 0.08381033
-0.122498065 0.041558288 -0.1645225 -0.19615106 0.19713165 -0.48354235 -0.12854998 -0.100448325
-0.27645537 0.16306618 0.039621074 0.044417985 0.08497828 -0.02664115 -0.046931904 0.048698016
0.07196394 0.03477203 0.08645705 -0.029254945 -0.33984992 -0.16844104 -0.15600964 -0.18527968
-0.20957014 0.028136373 0.16820581 -0.0010051281 0.2462529 -0.28906524 -0.07418576 -0.039183825
-0.0782592 -0.07182853 -0.111821175 0.041862927 -0.042119153 -0.05604854 -0.1031375 0.18611804
0.1096351 0.17726666 -0.12835436 -0.118859634 0.03577341 -0.017379548 0.16965121 -0.1707074
0.42003167 -0.13711025 0.112711534 0.064701654 -0.04332218 0.20167597 0.33885205 -0.13217269
-0.12740462 -0.08148054 -0.008445571 -0.2821575 0.0912368 0.049441908 0.051886734 0.12597917
-0.025580332 -0.25640425 -0.018172488 -0.075758874 0.0016200066 0.04547137 0.19953781 0.10062949
0.22376694 -0.111371115 -0.043367915 0.010733917 0.024581546 0.07130636 0.07086558 0.12776066
-0.07708856 -0.054573905 -0.22731154 -0.2068444 0.08588967 -0.031190105 -0.27301526 0.07638712
0.00836404 0.013601458 -0.24855804 -0.27419183 -0.17487761 -0.4454546 -0.2525015 0.36177015
-0.45411167 0.07187899 -0.05010002 -0.25564405 0.08025645 0.40274444 0.097292446 -0.12387977

fc3.bias f4 [2]
00000000: bdad 033d 02c4 d93b
0.03214811 0.0066456804
