p3_collab-compet/checkpoint_critic_1.pth (torch_old, 159740 bytes, 5 tensors)

fcs1.weight f4 [256, 24]
000000 03 dd bb 3c 70 29 0a 3c 9a 43 13 3d ee 3b 38 bb
       0.022932535 0.008432731 0.03595314 -0.0028111893
000010 8b 64 ae bd 05 52 11 3d 38 95 41 bc 9a ad 84 3d
       -0.08515271 0.03547861 -0.011815362 0.06478424
000020 55 dc bb bb 55 44 11 3d 94 79 40 bd b5 90 dc 3c
       -0.0057330527 0.035465557 -0.046990946 0.02692447
000030 7f 77 1d 3d 44 ef fe 3c 46 78 58 3d ff 0a 10 3d
       0.03844404 0.03111995 0.052849077 0.035166737
000040 92 9f be 3c 46 54 22 bd 21 65 4d 3d 14 b3 94 3c
       0.023269448 -0.03963115 0.050145272 0.018151797
000050 c3 b9 94 bc ed b8 91 bc 3f 19 39 bd aa c5 3a 3d
       -0.018154984 -0.017788375 -0.045190092 0.045598663
000060 85 ff bf 3d 7a 35 01 3d 1e 7a 1d 3b f5 69 07 3d
       0.09374908 0.03154514 0.0024029086 0.033060033
000070 e1 7a 74 bd 04 f5 01 3d 9b d7 40 3d ac 98 41 3c
       -0.0596875 0.031727806 0.047080617 0.011816185
000080 8c 92 89 3b 4f 82 46 3c 54 41 87 3c f2 49 ee 3c
       0.004198378 0.012116029 0.016510643 0.029087994
000090 40 09 b6 bc 49 c9 4a 3d f0 05 a0 bc d2 77 dd 3c
       -0.022221208 0.049508367 -0.019534081 0.027034674
0000a0 ee cb 81 3d 50 9b 7a 3c d6 c7 ba bc 16 b2 b7 bd
       0.063377246 0.015295818 -0.022800367 -0.08969514
0000b0 e9 3c d2 3d 6a 2f 1d be aa b1 a0 3c 19 10 7d bd
       0.10265524 -0.15350118 0.019615967 -0.06178293
0000c0 16 e1 d1 bc 71 71 1a 3c 35 e1 16 3b c9 d4 28 bd
       -0.025620025 0.009426461 0.0023022417 -0.041218553
0000d0 53 50 39 bd aa ea 68 bd a4 64 c1 3c a3 ca e3 bc
       -0.04524262 -0.056864418 0.02360756 -0.027806586
0000e0 e6 fd 0c bd 0a a2 73 3d 38 65 68 3a 40 96 e6 bb
       -0.034421824 0.059480704 0.00088651804 -0.007036954
0000f0 c2 84 70 3d 55 c7 6c bd 4a 94 79 3c 19 5b 8e 3d
       0.058720358 -0.057807285 0.015233109 0.06950969
000100 69 3b 3c 3c 48 c1 04 bd 3f 74 27 3d d6 a2 94 3d
       0.011488774 -0.03241089 0.040882345 0.07257621
000110 ce ea 27 3e 4a 6d fb bd 32 82 96 bc 78 a9 99 3d
       0.16398165 -0.122767046 -0.018372629 0.07503027
000120 de 81 44 3d 16 cc 21 3d 99 52 4d bb 0f 6d 92 3b
       0.047975414 0.039501272 -0.003132975 0.004468567
000130 5e 4e c1 bd 06 d3 04 3d ae 3c 02 3c b6 32 ca 3c
       -0.094387755 0.03242781 0.0079490375 0.024682384
000140 a3 ff 40 bb c4 2f c9 3d 1f 62 b5 bc 00 5e c6 3d
       -0.0029449246 0.09823564 -0.022141514 0.09685898
000150 4a 5a 26 bd 37 1d 8b bd 7f 4e 2b 3d 79 1a 9d 3c
       -0.04061345 -0.06792682 0.041822907 0.019177662
000160 df 63 65 bd 08 5f 04 3e 88 41 9d 3c 17 60 ba bc
       -0.056003448 0.12926877 0.019196287 -0.022750897
000170 a9 b3 a4 3d 7f 9d 9b bd f2 31 0c 3d b3 57 fd bc
       0.0804208 -0.07598399 0.03422732 -0.030925607
000180 32 c7 89 3d c4 28 b0 bd 4c e7 83 bc d8 04 39 3d
       0.067274466 -0.086015254 -0.016101502 0.045170635
000190 94 e7 d1 bc a6 cd 43 bd ca a7 36 3d 54 58 ce b8
       -0.02562312 -0.047803544 0.04459361 -9.839298e-05
0001a0 e7 da de bc 54 d7 b1 bc 9f 72 5d bc b9 c9 92 bb
       -0.02720399 -0.021709122 -0.013516097 -0.0044796136
0001b0 db 30 83 3d 20 e0 61 bd 41 b7 10 bd 1d 63 bd 3d
       0.06405803 -0.055145383 -0.035331015 0.0924742
0001c0 bc a5 87 3d 8d 25 15 bd b6 ae 00 bc 8b e8 28 bd
       0.06623408 -0.036412764 -0.007854154 -0.041237395
0001d0 d5 6f f8 3c d3 25 13 bd 24 40 09 3d 05 3f ab bd
       0.030326763 -0.035924744 0.033508435 -0.083616294
0001e0 ad 01 74 3d 01 f9 38 bd e0 78 b8 3c 74 30 40 bc
       0.05957191 -0.045159344 0.022518575 -0.011730302
0001f0 e5 2d 85 3d df ca b9 3d 5c 16 96 bc 9e 79 59 bd
       0.06502894 0.09071898 -0.018321209 -0.0530945
000200 f7 ae c4 3d 6d 76 ba bd d5 58 f2 3c 86 c8 b0 3c
       0.096036844 -0.09104619 0.029583374 0.021579992
000210 74 82 a5 bc 9c a6 17 3d a6 e3 9e 3b 1f 7e 03 bb
       -0.020203806 0.037024125 0.004848915 -0.0020064188
000220 87 93 11 3d d5 26 c0 bc a2 14 b7 38 54 23 57 3d
       0.035541084 -0.023456017 8.729963e-05 0.052523926
000230 9e f1 2e be bf a1 8e 3d 2f a3 80 3c 31 f0 a7 bc
       -0.17084357 0.06964444 0.015702812 -0.020500274
000240 e1 eb 8b 3d d8 60 02 3d 34 c0 71 bd 4a 46 4d bd
       0.068321 0.03183064 -0.05902119 -0.05011586
000250 b0 86 54 bc 6c 18 97 3c 22 a9 96 bc 7e 44 5e 3b
       -0.012971565 0.018444262 -0.018391196 0.0033915336
000260 4a 12 08 3d aa 27 de 3c fc a4 33 3d d2 ca 05 3d
       0.033220567 0.027118523 0.043858513 0.032664128
000270 c1 14 0e bd 6c ec aa bd b4 52 1a bd ab f4 67 bc
       -0.03468776 -0.08345875 -0.037676528 -0.0141574545
000280 c3 53 35 3d 93 9d 1f 3d a2 b8 32 bc e7 1d 92 bd
       0.044269335 0.038968634 -0.010908278 -0.0713461
000290 1a 98 42 3d c2 0d 25 be 66 a6 5d bc 86 0f f6 bc
       0.047508337 -0.1611853 -0.013528442 -0.030036699
0002a0 19 1f 0b bc d4 47 46 3c 4c db 0a bc d0 78 4a bc
       -0.008491301 0.012102086 -0.008475136 -0.0123579055
0002b0 07 46 56 3d ee f3 14 3d c1 01 d0 3c 3c 4c 28 3c
       0.052312877 0.036365442 0.025391461 0.010272082
0002c0 d3 21 9a 3c 6a 53 13 3c 91 de 33 bd 25 c5 2f bd
       0.018814957 0.008992055 -0.043913428 -0.04291262
0002d0 9a 0d 77 bc 97 bc d5 bc 6d 89 e2 3c 49 3a dc 3c
       -0.015078926 -0.026090903 0.02765342 0.026883261
0002e0 a2 2e e3 bc f4 ad a5 bd 69 99 20 bc db 40 5a 3d
       -0.027732197 -0.080898196 -0.009802201 0.053284507
0002f0 23 41 10 be f2 48 d0 3d 93 90 41 3c d8 4b 91 3c
       -0.14087348 0.10170163 0.011814254 0.01773636
000300 cb 85 24 3c ab 4f 84 bc 1c 65 80 bc 47 f7 5a 3a
       0.010041664 -0.01615127 -0.015673213 0.0008352887
000310 24 cd 9c 3d e5 a8 23 3d fd 5d b2 3b 60 ca bf bc
       0.07656315 0.039955992 0.005443333 -0.02341193
000320 d0 20 50 bd da 22 08 ba 75 81 1e 3d 2e e6 49 3d
       -0.050812542 -0.00051931816 0.03869768 0.049291782
000330 70 e0 30 bb 24 ff e9 3c f1 67 38 bd f4 3c f1 bc
       -0.0026989244 0.028564043 -0.045021 -0.02944801
000340 89 be 71 3c 14 35 c4 bd 62 4f 89 bc 69 43 a4 bc
       0.0147549 -0.09580436 -0.016761485 -0.020051675
000350 54 ce 7b bd e2 2c d0 3d 44 6f 73 bc 1e 68 36 bd
       -0.061476067 0.10164811 -0.014858071 -0.044532888
000360 f5 22 a2 bd 87 54 dc 3d 32 5f 1c bd cf 01 c2 b9
       -0.07916824 0.1075831 -0.038176723 -0.0003700391
000370 f0 1f 6a bd cb 76 e3 bd 4a 0b f4 3c cd a6 08 bc
       -0.057159364 -0.11106642 0.02979054 -0.00834055
000380 5d f9 0a 3d 07 40 b5 3d b1 7f 2c 3d cc 20 ad bc
       0.033929218 0.08850103 0.042113964 -0.021133803
000390 08 75 87 bd d5 63 c2 bd dd f5 d5 bc 79 8a 01 bd
       -0.06614119 -0.09491698 -0.026118213 -0.0316262
0003a0 c6 bc 06 bd 37 a6 d5 3d 91 67 18 bd 81 ea df 3b
       -0.032894872 0.104320936 -0.037208144 0.006833375
0003b0 21 54 df bd e8 26 a9 bd f7 5a 32 3d 1a 34 ef bc
       -0.10904718 -0.08259374 0.043543782 -0.029199649
0003c0 87 a0 23 bd 6d b2 c1 3d 54 a4 e1 3c 5a 6d 2b bd
       -0.039948013 0.0945786 0.027544178 -0.041852333
0003d0 00 ab a2 bd d8 ba 02 3e 20 22 6c 3c 7a 54 ef 3b
       -0.07942772 0.12766588 0.014412433 0.0073037716
0003e0 3d 19 13 bd 6e 93 37 3d ac 31 1b 3d 30 c0 70 39
       -0.03591274 0.044818334 0.037889168 0.00022959779
0003f0 78 bf 59 3d 24 d8 4a bd 16 b2 3e bd ce f2 58 3c
       0.053161114 -0.049522534 -0.046556555 0.013241483

fcs1.bias f4 [256]
000000 63 ca d5 bd 6e 03 fc 3d 77 41 b8 3d 0e cf d9 3d
       -0.10438993 0.12305342 0.089968614 0.10635196
000010 4d 0c 6a bd 43 4c 48 be 79 36 30 be af c8 94 bd
       -0.057140637 -0.19560342 -0.1720828 -0.0726484
000020 3f aa 83 be 4e 2a 41 be 43 49 0e 3e 2b 7f 64 bd
       -0.25715825 -0.18863794 0.13895135 -0.05578534
000030 7e dc a8 3d 01 d3 59 be d0 39 0f 3d 7e 19 23 3d
       0.082451805 -0.21271898 0.034967244 0.039819233
000040 90 6a e7 3c 4a 62 28 bd 8e eb 20 be fd 1e 25 be
       0.028249055 -0.04110936 -0.15714857 -0.16125102
000050 85 b4 1c 3d 33 93 7c be d7 44 a1 bd 15 00 05 be
       0.038258094 -0.24665527 -0.07874458 -0.12988313
000060 83 09 1e bd 5a 61 83 be 7f 27 05 3d 65 70 97 3c
       -0.03858329 -0.2566021 0.03250837 0.018486211
000070 d0 1a 21 be e6 27 61 bd f9 5e 2d bd 05 b4 66 bd
       -0.15732884 -0.05496969 -0.0423269 -0.056324024
000080 87 0a b0 bd a8 cd b2 3d f7 c5 13 be 80 6f 6b bb
       -0.08595758 0.08730632 -0.14430986 -0.0035924613
000090 72 58 3b be 7d 2f 4a 3e 29 d4 2c be f3 df 0e 3e
       -0.18295458 0.19744678 -0.16877808 0.13952617
0000a0 f4 7c bf bd 65 40 0b be 83 ef 42 3d c5 ee 1e be
       -0.09350005 -0.13598783 0.047591697 -0.15520771
0000b0 a5 fe ac bd fa ca 0f be 52 4f e6 bd df 0a 2e be
       -0.08447007 -0.14042273 -0.11245598 -0.16996334
0000c0 f3 83 53 3e a0 54 92 3d 14 45 34 3c b5 d1 fb 3d
       0.20655803 0.07145047 0.011002798 0.12295858
0000d0 5f d0 b4 bd f4 a8 5b be c2 01 1c 3c d7 bb 8e bd
       -0.08828806 -0.21451169 0.0095219035 -0.06969421
0000e0 f9 ff 31 3e d0 a8 b6 bd 9b 58 2e be cd 1b 0e 3e
       0.17382802 -0.08918917 -0.17025988 0.13877793
0000f0 63 bb 91 3d 23 5e 8a 3d 52 bf 05 bd e6 f7 61 be
       0.07115819 0.067562364 -0.03265316 -0.22067222
000100 40 65 45 3d 74 a0 20 bd d2 6c 47 be c5 6d 08 3e
       0.048192263 -0.03921552 -0.19475105 0.13323124
000110 61 9d 35 be a6 d6 02 be 2d 1b af bd e6 54 46 be
       -0.17735817 -0.12777194 -0.08550105 -0.19368324
000120 ad a3 5d be cf ba a6 bd f1 6c bd bd 45 8b 2b 3e
       -0.21644469 -0.081411 -0.092492945 0.16752346
000130 e3 9e 8b 3d 10 af 31 3e 11 71 9d 3d 88 b5 c3 3c
       0.068174146 0.17351937 0.07687581 0.023890272
000140 df 83 6e bd 64 3a 80 bd 83 1e 2d be 89 99 54 be
       -0.05823123 -0.06261137 -0.1690617 -0.20761694
000150 9c 3f 07 3e 4e 58 b5 bd 6e 2c 94 bd 1b 12 1b 3d
       0.13207859 -0.088547334 -0.07235037 0.037859064
000160 f0 53 00 be d9 56 97 3d 9a 9a 96 bc f8 bc a3 3d
       -0.1253202 0.07389612 -0.018384267 0.07995027
000170 e2 29 bc bd 64 46 25 3e 22 1b 00 be 90 ad 6f be
       -0.09187676 0.16140133 -0.1251035 -0.23406053
000180 24 52 40 3e 9d 03 39 be 5c a2 2f 3e fb 01 81 3d
       0.18781334 -0.18067785 0.17151779 0.06299206
000190 20 ea 7e 3e 78 26 7d bd af fa 60 3d 44 8d 3d 3d
       0.24893999 -0.061804265 0.05492657 0.0462773
0001a0 6b a1 98 bd c9 a7 fd 3d c9 46 1a 3e 31 9a 85 bd
       -0.07452663 0.12385518 0.15066065 -0.0652355
0001b0 ca 25 a1 bc 34 d4 03 bd df 1e b9 bd 54 05 36 be
       -0.01967134 -0.032184795 -0.09039091 -0.1777547
0001c0 e2 a7 e0 bd 0c b9 48 be 3b 19 a0 bd ac dd 2c 3e
       -0.10969521 -0.1960184 -0.07817312 0.16881436
0001d0 33 c0 28 3e 1a 0a 55 be e9 96 8f be 8e 12 13 3e
       0.16479568 -0.20804635 -0.28044823 0.14362547
0001e0 39 15 83 bd 06 47 a8 bd 72 3d 12 3e 50 fb 16 3e
       -0.06400532 -0.08216672 0.14281252 0.14744306
0001f0 66 a8 ec 3c 44 88 3a 3a e3 70 15 3c 88 32 1c bc
       0.028888892 0.0007115642 0.009121153 -0.009533532
000200 c8 75 ad bc db 4a 5c be ba 5e 70 be 68 5e c2 3d
       -0.021174327 -0.2151293 -0.23473635 0.09490663
000210 61 08 67 be 31 b4 12 3e ee 4a 69 3e 7b 33 f2 3d
       -0.2256179 0.1432655 0.2278249 0.11826225
000220 0f f0 87 3d 48 53 94 3d d4 74 50 38 b6 3e e1 3d
       0.066375844 0.07242447 4.969987e-05 0.10998289
000230 4b a1 a4 3c 48 17 03 be 73 80 be 3d f2 29 c2 bc
       0.020096442 -0.1280185 0.093018435 -0.023701642
000240 87 ad 26 3e e6 6e 9f bd 72 7c b5 bd 20 91 12 be
       0.16277133 -0.07784824 -0.08861627 -0.14313173
000250 91 f0 99 3c db 99 fb 3d b8 ad 1d 3d 4b a4 78 3e
       0.018791469 0.12285205 0.03849575 0.24281423
000260 af 4d f1 3d 17 37 b0 bd 9c 07 30 3e 65 a1 fc 3d
       0.11782395 -0.086042576 0.17190403 0.12335471
000270 22 1f ff 3d 14 50 96 bc b9 70 bc bd d8 07 55 3e
       0.1245711 -0.018348731 -0.09201188 0.20803773
000280 4a 62 3a be 37 09 e2 bc 6c ed 47 3d 49 9f e2 bc
       -0.18201557 -0.027592285 0.048810408 -0.027663844
000290 75 9b 68 bd d5 25 2f 3e 18 35 e8 3b b5 31 c3 3d
       -0.05678888 0.17104276 0.0070864074 0.09530965
0002a0 05 a9 4d 3d 7d d2 2c 3e e2 4a b6 3d ea 97 12 be
       0.050210018 0.1687717 0.089010015 -0.14315763
0002b0 11 cb 55 be 6a 10 92 be 1b aa 7f be 90 d7 27 be
       -0.20878245 -0.28528148 -0.24967234 -0.16390824
0002c0 13 35 f3 3a 77 be 2c 3e 6e 04 25 be 8d ae cb 3d
       0.0018555246 0.16869532 -0.16114971 0.09945402
0002d0 f1 ed b5 bd ac 10 28 3e 25 fb 1b 3e d5 df 04 3e
       -0.08883274 0.1641261 0.15232523 0.1297601
0002e0 79 88 a1 3e b5 76 0d be f3 86 06 be e1 fd c4 bd
       0.31549433 -0.13814814 -0.13137417 -0.09618736
0002f0 f2 81 65 3d 36 a8 0d 3e 1f 35 cf 3d 51 1a 4c 3d
       0.05603213 0.13833699 0.10117554 0.049829785
000300 c0 93 09 bd a0 64 16 be 7f f2 6c 3e 50 bc 3f be
       -0.03358817 -0.14686823 0.2313938 -0.1872418
000310 4e c8 18 be d4 6a 4f 3d 99 83 18 3e c6 ba e4 3c
       -0.1492016 0.05063899 0.1489395 0.027921092
000320 eb bf 2a bd f1 ff df bc 20 47 e1 3a 3c 50 f5 bd
       -0.041686933 -0.027343722 0.0017187335 -0.11978194
000330 90 66 5c 3e 09 c3 87 3e a9 32 a9 bd 26 67 0f 3e
       0.215235 0.26515988 -0.08261616 0.14004192
000340 81 ba 8a bd da bc 0c be 86 d1 4f 39 12 9b a5 bc
       -0.06773854 -0.13743916 0.00019819112 -0.020215545
000350 a3 63 37 3e 91 cc 05 bd d1 3d 81 bd b0 ba 58 be
       0.17909102 -0.032665793 -0.06310619 -0.21164966
000360 84 a4 f1 3d 88 99 48 3e 95 55 b5 3c f3 e3 61 bd
       0.11798957 0.19589818 0.022135535 -0.05514903
000370 5e 7c d0 bd 26 31 82 3d 88 a1 70 3e 11 8c 68 bd
       -0.10179971 0.063570306 0.2349912 -0.056774203
000380 be 80 04 3c ad 34 64 be 04 1f a9 3d 27 7c 99 bd
       0.008087335 -0.22285719 0.08257869 -0.07494383
000390 00 15 1f bd 88 73 f2 bd e5 da 3c 3e 4b 85 04 3e
       -0.038838387 -0.11838442 0.18442877 0.12941472
0003a0 2c bd 9e bd d8 49 f3 bd 36 f1 80 3d 34 43 14 3d
       -0.077509254 -0.11879319 0.06296007 0.036196902
0003b0 9b 4b ef bd 7e 48 d4 3d d3 c4 91 3d 42 cc a1 3d
       -0.116843425 0.10365389 0.07117619 0.07900287
0003c0 7a 4c 02 be ec 7f 65 be 94 41 3e 3d 04 69 a1 ba
       -0.12724486 -0.2241208 0.04644926 -0.0012314622
0003d0 e7 07 11 be 96 24 31 3e 52 d9 d8 bc b9 f0 13 be
       -0.14163171 0.17299113 -0.026470814 -0.14447297
0003e0 84 d3 10 bd 0f 57 d3 bd 21 7c e4 bd 11 2f 33 be
       -0.035357967 -0.103193395 -0.11156488 -0.17498423
0003f0 b8 cc 35 3e 1a a4 5a 3e 2e dd 3d be e0 13 0f 3e
       0.17753875 0.21351662 -0.18541405 0.13972425

fc2.weight f4 [128, 258]
000000 f8 a1 4f bd 00 c7 50 bc 3b 9a af 3d 51 9d 3a bc
       -0.050691575 -0.012742758 0.08574339 -0.011390046
000010 63 f8 17 3d ae ef fd bc 51 19 71 3d d1 6f 96 3d
       0.037102114 -0.030998077 0.058862034 0.07345546
000020 24 28 c5 bd ca 72 52 3a 7b c6 31 3d 03 ab 96 bd
       -0.09626797 0.0008027969 0.043402176 -0.07356837
000030 ac b6 32 bd 9c d7 87 bd fc a9 4e ba f6 4f ab 3d
       -0.04363124 -0.06632921 -0.0007883606 0.08364861
000040 d2 d6 9a bd 67 59 de ba f1 76 54 3d f8 70 c8 bc
       -0.07560505 -0.00169639 0.051871244 -0.02446793
000050 b5 46 3c 3c 1f 8f 9a bd c7 88 2a 3c de a1 6e 3d
       0.011491467 -0.075468294 0.010408587 0.058259837
000060 5f 47 7b bd 3b 98 cb bc 3b 44 5f bd 3e 99 73 3d
       -0.06134736 -0.024852863 -0.05450843 0.059472315
000070 ba 61 57 3d 34 5c 86 3b a9 6c 8e 3d a4 50 b7 3c
       0.052583434 0.004100347 0.06954319 0.02237732
000080 74 0f 96 3d f6 e4 68 bd 02 84 ab bd 29 94 74 3d
       0.07327166 -0.05685898 -0.08374788 0.05971161
000090 d2 d2 ac bc 67 5d 49 bc 37 08 a5 bd 99 4f 96 bd
       -0.02109662 -0.012290335 -0.080582075 -0.07339401
0000a0 e1 c4 a6 3c 4f a8 54 bc 55 65 af bc 47 b6 ce bd
       0.020357551 -0.012979581 -0.021410624 -0.100933604
0000b0 90 cd 90 bd f5 04 b0 bd 61 d5 e7 bc 5d a7 5c bd
       -0.07070458 -0.085946955 -0.02829999 -0.053870548
0000c0 4b 3b 43 bd 6b 6e a2 3d f4 66 bc bd 8b 70 4f bd
       -0.047663968 0.07931217 -0.09199324 -0.05064444
0000d0 f2 2f 24 3d a6 16 0c bc 45 8c d7 bc eb 7a 8d 3d
       0.040084787 -0.008550322 -0.026312003 0.0690821
0000e0 1a 3c 85 bc 15 58 c6 3c 77 e2 61 bc 21 71 cb 3c
       -0.01626401 0.024211923 -0.013786904 0.024834218
0000f0 9c 13 54 3c 2e 15 1d bd e9 35 e8 3d a0 5f 9f bd
       0.012944128 -0.038350277 0.113384075 -0.07781911
000100 88 be 22 bc 62 2d d4 bd 3e b4 26 be 6d ff 91 bd
       -0.0099331215 -0.103602186 -0.16279694 -0.07128797
000110 02 43 5e b9 e6 9b 96 bd 6f 63 cb 3b 82 5e 89 3c
       -0.00021196532 -0.07353954 0.006206922 0.016768698
000120 87 ad 69 bc 0b 74 91 bc 10 e3 a6 bb 77 a5 d9 3c
       -0.014262564 -0.017755529 -0.005092986 0.026568158
000130 59 e2 0e 3d 01 ce 2e 3d 9b e7 b6 3d 7d 5a 0a be
       0.03488383 0.04267693 0.08930894 -0.13511081
000140 dd 46 76 3d 50 1a bb 3b b5 55 64 3d af e6 18 bd
       0.060126174 0.005709924 0.0557458 -0.037329372
000150 f3 5c 0a 3d 84 c4 d3 3c 9f 9d 04 3c 5b 2f 80 3d
       0.03378005 0.025850542 0.00809422 0.06259032
000160 37 10 9e bd 7d 40 38 3c cd 91 99 3c 42 06 19 bd
       -0.077179365 0.011245844 0.018746281 -0.037359484
000170 2b 37 62 bd 91 81 98 bd 59 e1 b8 3a f6 81 cb bc
       -0.055228394 -0.07446588 0.0014105245 -0.024842244
000180 dd 20 cb 3d 42 1d 88 bc b8 2c c2 bc 2c 85 f7 3b
       0.099183775 -0.016615514 -0.023702964 0.007553717
000190 92 38 00 bc c9 0b 49 bd 17 05 0a bd c1 f7 c7 3b
       -0.007825987 -0.049083505 -0.03369626 0.0061025326
0001a0 71 f6 c8 bb ee ac 84 bd 22 79 13 bd 96 3e 66 bd
       -0.0061328937 -0.06478296 -0.036004193 -0.05621203
0001b0 03 f6 3a 3d af 8c 93 3d f8 b3 67 3c e1 d1 ba bb
       0.04564477 0.07204568 0.014142029 -0.005701289
0001c0 4b f0 ac bd 1f 5e c9 bc 4a d4 8d bd e6 c7 97 3d
       -0.0844427 -0.024581013 -0.069252566 0.074111745
0001d0 23 b7 a8 bd e8 ab 96 3d cd 61 5d 3c 26 65 a6 3d
       -0.082380556 0.07357007 0.013512087 0.08124761
0001e0 19 a0 9c bd a9 c4 7d 3d 0c df 19 bd 5c 8e e4 bb
       -0.07647724 0.061955128 -0.03756623 -0.0069749784
0001f0 38 f6 6f 3c 7a e8 94 bd cb f6 f4 bc 14 1e d9 bd
       0.0146461055 -0.07270904 -0.029902836 -0.1060144
000200 5a cc 9f bd a0 a8 27 bd 9c b7 b7 bd f6 71 f7 bc
       -0.07802649 -0.040932298 -0.089705676 -0.030205708
000210 25 6f 14 3c 7e 53 7d 3b 66 33 e4 3d b7 43 f5 bb
       0.009059702 0.0038654502 0.11142616 -0.007484879
000220 d7 7a 92 3d 16 6d c6 bd ea 81 cc 3c 45 45 97 3d
       0.07152336 -0.09688775 0.024964292 0.07386259
000230 3d f5 01 bd b5 0e 3e 3c fa 4d 37 3d 3e d4 81 3c
       -0.031728018 0.011600186 0.0447521 0.015848275
000240 ab c3 82 bc d8 b3 8a bc 35 5d 04 ba 16 32 ff bc
       -0.015962442 -0.01693146 -0.00050492893 -0.031151813
000250 65 af 82 3d 50 ba 50 3d 95 e2 57 bd c0 78 45 3d
       0.0638111 0.05095893 -0.05270632 0.04821086
000260 1a cc 3b 3d d0 0a a7 3d 22 d4 29 bd df 76 81 bd
       0.045848943 0.08156359 -0.04146207 -0.06321501
000270 3c 15 27 3d ae cb 2c 3d 3e 7e a7 3c e2 79 a3 3c
       0.040791735 0.04218643 0.02044594 0.01995558
000280 df 58 97 bc 30 f5 b8 3c a3 c6 a8 3d d4 72 d1 bb
       -0.018474994 0.022577852 0.08241012 -0.0063918624
000290 83 4b 7d bd 2c 2c 54 bd 78 40 3b bd ab c7 50 bc
       -0.06183959 -0.051799938 -0.04571578 -0.012742917
0002a0 2e d6 48 3d 83 28 78 ba 41 c1 39 bd ec d3 d6 3b
       0.049032383 -0.0009466486 -0.045350317 0.006556025
0002b0 e9 00 c6 3d 44 6f 25 3b c6 31 f1 bb 92 eb 32 3d
       0.09668142 0.0025243321 -0.00736067 0.04368169
0002c0 88 67 c8 3d 4e 51 b9 3b 97 a4 0a 3d 58 9c ed bc
       0.09785372 0.005655444 0.03384837 -0.029005215
0002d0 c9 b3 07 3b 1c 6a 0f bd b4 01 0e 3a ed cf 48 bd
       0.0020706526 -0.035013303 0.0005417124 -0.04902642
0002e0 c6 91 99 bd de 62 01 be 8f cd 41 3d a7 28 83 bb
       -0.07498507 -0.12635371 0.047315177 -0.004002649
0002f0 59 77 a8 bd 9a d1 fc 3c cf 06 bd 3c 99 f7 bb bc
       -0.08225889 0.030861665 0.023074536 -0.022945212
000300 27 d6 37 3c 9f c4 ec bd 3f c8 07 3d 20 1a f9 3c
       0.0112204915 -0.1156094 0.033149954 0.030407965
000310 5d 36 1e 3d 51 1a e3 3c 67 91 9a 3d 92 b4 06 be
       0.038626064 0.02772251 0.075472645 -0.1315482
000320 5b 3a a3 3d 3a b8 80 bd 79 d4 dd 3c 9f 95 4c bd
       0.07970115 -0.062851384 0.027078854 -0.049947377
000330 f7 3f eb 3c 24 bf 42 bd bd 6d 91 3d 08 1e 33 bd
       0.028717024 -0.047545567 0.07101009 -0.043729812
000340 dc 93 b2 bd 61 48 ad bc a0 89 02 3c c9 59 14 bd
       -0.08719608 -0.021152677 0.007967383 -0.03621844
000350 68 67 45 3c 49 52 ab bc 55 b3 29 bb d9 c1 04 3c
       0.01204858 -0.02091326 -0.0025894244 0.0081028575
000360 bb 17 48 bd 58 63 82 bd 05 90 34 3d 83 59 b0 3d
       -0.048850756 -0.063666046 0.04408266 0.08610823
000370 87 b2 e6 bc 52 50 a4 bc f4 04 8e 3d b1 ee a1 3b
       -0.0281613 -0.020057831 0.069345385 0.0049417843
000380 c3 5c 76 bd 9e 40 ad bd 87 6d ae bd a8 2c a6 3c
       -0.06014706 -0.084595904 -0.085169844 0.020284966
000390 ce 45 67 bd aa 72 73 bd f4 f4 c4 bd 1a c0 f4 3c
       -0.056463055 -0.059435524 -0.096170336 0.029876757
0003a0 78 07 58 3d a3 e1 5b ba d7 ac ce 3c 60 86 4c 3d
       0.052741498 -0.00083878095 0.0252289 0.049932837
0003b0 0f 82 63 bd f6 2c 89 bc fa 0a 41 3c 64 36 a2 3d
       -0.055543955 -0.016745072 0.011782402 0.079205304
0003c0 40 cc 17 bb fc 3a 08 bd 05 83 0b 3c 28 a7 9a bc
       -0.0023162514 -0.033259377 0.008515124 -0.018878534
0003d0 ec 90 b2 3d f9 30 66 bd c7 bf 02 bd 48 79 49 3c
       0.08719048 -0.056199048 -0.031921174 0.012296982
0003e0 44 c8 c3 bc 19 cd 84 bd 91 2e 06 3c 60 46 88 bd
       -0.023899205 -0.06484432 0.008189813 -0.06654048
0003f0 d2 1d 77 bd a9 e9 b7 3d b8 5c cb 3c 8f d4 4c 3d
       -0.060331173 0.08980114 0.024824485 0.0500074

fc2.bias f4 [128]
000000 67 fd 9c 3d e3 d3 35 bb f7 9b 9f bd ef 1c a4 3c
       0.0766552 -0.0027744703 -0.0779342 0.020033328
000010 85 02 5f bb 57 06 7e 3b 8a a3 e6 3c eb 94 a6 3d
       -0.0034028601 0.0038761103 0.028154153 0.081338726
000020 61 57 dd 3c aa 5c 9b bd 3b 15 d1 3c b3 f2 d1 bd
       0.027019205 -0.07586034 0.025522819 -0.10251369
000030 31 d8 7d 3c fd 33 86 bd b9 03 2b bd 46 22 e3 bc
       0.015493439 -0.06552885 -0.041751597 -0.027726304
000040 ea e3 31 3c 9a 50 42 3c db 44 83 3d 07 bc 1c 3d
       0.010857562 0.011860037 0.064096175 0.038265254
000050 7a 47 e3 bd 6a 0b df 3c f2 52 f6 bc 98 1e 1c bd
       -0.110976174 0.027227122 -0.030068848 -0.038115114
000060 a3 d2 e8 3c ca 28 bb bc 3b f6 52 3d 5f 16 0c 3d
       0.028420752 -0.022846598 0.051504355 0.034201022
000070 c6 d2 ba bc 70 78 6f 3d 3f 66 17 3d 5d c2 2d 3d
       -0.022805583 0.058464468 0.036962744 0.042421687
000080 b5 62 cc 3b c0 79 e4 3c fc 4d c6 bc 3f c7 7c 3d
       0.0062373527 0.027890086 -0.024207108 0.061713453
000090 85 32 98 3c 05 39 ce 3c 0a 74 a4 3d 85 af 11 bc
       0.018578777 0.025173673 0.08029945 -0.008891945
0000a0 20 de 4d bd c1 d8 87 bd bd f8 b4 3b 6d f8 b5 3b
       -0.050260663 -0.066331394 0.005522816 0.0055532963
0000b0 71 c0 a2 3c aa 9a 86 bc ce 8b 2b bd 21 1a 92 bd
       0.019867154 -0.016431171 -0.041881375 -0.0713389
0000c0 53 26 a9 3b c4 84 81 3c 2f 62 4b bd dd b8 8a bc
       0.0051620393 0.015810378 -0.049654182 -0.016933853
0000d0 8c 59 e8 ba 17 c1 cf bd fd ed dc 3d 86 a2 63 bd
       -0.0017726882 -0.10144251 0.1078758 -0.055574916
0000e0 32 27 ff 3c 66 09 59 bd c6 3f 29 3d 0f af ad bd
       0.03114662 -0.05298748 0.041320585 -0.084806554
0000f0 16 f5 e2 3b 45 e9 13 3b 75 7b 0b 3c 62 09 49 3d
       0.006926189 0.002256946 0.008513321 0.049081214
000100 a0 de 82 bc c1 ae 8a bc a8 ba 55 3d 98 99 a1 3d
       -0.015975296 -0.016929032 0.052179962 0.07890624
000110 cf bf 1d bd c6 e8 5e bd 30 29 0a bc 92 81 02 3d
       -0.038513 -0.05442121 -0.008432671 0.03186185
000120 61 4b 23 bd 4e 2d 22 bc 7a cf 86 bc 9d 50 e0 bc
       -0.03986681 -0.009898497 -0.016456354 -0.02738219
000130 d4 50 84 bd 70 0c 2c 3d 38 93 83 3d c5 a3 0a 3d
       -0.06460729 0.04200405 0.06424564 0.03384759
000140 84 51 9f bd b2 68 18 ba 02 bf 4c bc 75 a5 1d bd
       -0.0777922 -0.00058139407 -0.012496712 -0.03848787
000150 d5 ca 77 3c da 13 33 3d 3f 95 a4 bd 36 df 02 bd
       0.0151240425 0.043720104 -0.08036279 -0.03195115
000160 67 68 c8 3d 7e b5 8b 3d 80 14 05 bd f7 c4 56 bc
       0.09785538 0.06821726 -0.032490253 -0.0131084835
000170 de c1 71 bd 29 68 86 3d 82 89 da bb d8 d4 3e bb
       -0.059022777 0.06562836 -0.0066692242 -0.0029118564
000180 4f 3d 7f bc 55 fb bd bc 77 a6 97 3c 5d 0f 25 3d
       -0.015578582 -0.023191134 0.018511994 0.040297855
000190 b3 82 41 3d 69 7f 0a 3d f2 59 49 bd 04 6b 7f 3d
       0.047243785 0.033812914 -0.049158044 0.062357917
0001a0 d5 4d 77 3d a4 03 26 bd a5 e7 58 bd b1 88 19 3c
       0.06037696 -0.040530816 -0.05295529 0.009370969
0001b0 40 64 9e 3c 0b 7a 02 38 6c fb c4 3d a8 38 a6 bb
       0.019334912 3.1108077e-05 0.096182674 -0.005072672
0001c0 6d a3 f0 bc 98 2c f0 3c c1 b6 19 3d 8c 1c 89 3d
       -0.029374802 0.029318139 0.037527803 0.06694898
0001d0 c2 2a 03 bc 33 8c a7 bd 86 f4 31 3d 0d 97 0a 3d
       -0.0080058 -0.08181038 0.043446086 0.03383546
0001e0 9c 96 a0 3d 08 47 2f 3d d2 13 86 bc e8 b5 a8 bc
       0.078412265 0.04279235 -0.016366873 -0.020594552
0001f0 dd 99 9a bd d5 5b 7c 3c 37 ad 30 bd f3 71 0c 3d
       -0.07548878 0.015402754 -0.04313394 0.034288358

fc3.weight f4 [1, 128]
000000 ed df d4 3b 16 f8 81 bc c6 82 3c bd f2 40 23 3d
       0.0064964206 -0.015865367 -0.046023153 0.03985686
000010 67 6c 09 3c c3 ce 25 3d 2f e1 29 3d ea 1b 87 3c
       0.008387662 0.040480386 0.041474517 0.016492803
000020 c6 d3 95 bc 63 bb 9b ba 78 50 d6 bd 5c ad a1 bc
       -0.018289458 -0.0011881407 -0.10464567 -0.019735985
000030 18 e5 e6 bc 13 09 7d bc e3 a2 e0 bc 71 43 b5 bb
       -0.028185412 -0.015444058 -0.02742142 -0.0055317213
000040 50 b1 6c 3c 35 af eb bb 14 b7 c6 bc 3a db 1a 3c
       0.0144465715 -0.007192517 -0.02425722 0.009451682
000050 2f 18 a8 bc 65 e1 c5 bc 45 53 4a 3d 65 46 3f 3c
       -0.020519344 -0.024155328 0.04939582 0.011674498
000060 88 3e 4c 3c 20 a2 c5 3a f4 51 86 3c b0 c5 3c bc
       0.0124660805 0.0015078224 0.0163965 -0.011521742
000070 68 87 e5 bb 5b 61 79 3c bd 33 bb 3b 7f 8e 2a bc
       -0.007004667 0.015220965 0.005712955 -0.01040995
000080 ff 2a 42 bd db 57 7f 3c 01 42 0d 3d d4 79 16 3c
       -0.047404286 0.015584911 0.034486774 0.0091843195
000090 75 fa 1b bc 31 1e f8 bc cf 77 5b 3c 37 b9 75 bc
       -0.009520163 -0.030287834 0.013395264 -0.014997772
0000a0 11 c2 34 3c f0 f2 df bb bb 0a f0 bc 06 11 37 bd
       0.011032597 -0.0068343803 -0.029301992 -0.04469397
0000b0 4a 1d b5 3d 02 61 46 3c 4c d4 80 3c 9e 4b 13 bc
       0.08843477 0.012108089 0.015726231 -0.0089901965
0000c0 eb 7a 4d 3d a1 0d 8a bb 3d 0f a2 3b 39 ba d0 bc
       0.05016605 -0.0042130505 0.004945664 -0.025479423
0000d0 57 a7 f5 bb c8 76 a3 bc bd e2 86 3c 36 bc 22 3d
       -0.007496755 -0.0199541 0.01646554 0.039730273
0000e0 b6 a8 80 bd 86 77 de bb 19 e7 02 bc 27 84 09 bc
       -0.06282179 -0.0067891506 -0.007989668 -0.008393324
0000f0 72 c2 f0 bc 85 65 38 3d f0 00 62 3d ed 6a 83 bc
       -0.029389594 0.04501869 0.055176675 -0.016042197
000100 3a 1c 3b 3c 9e 14 15 3d 6a fc 8d bd c0 1e 00 bd
       0.011420304 0.036396615 -0.0693291 -0.031279325
000110 f1 83 dd 3c 29 a6 84 bc 98 79 81 bd 6e 73 30 bd
       0.027040454 -0.016192513 -0.0632202 -0.043078832
000120 63 cc ef 3c 3e ee 86 bc ba 11 0d 3c e5 f5 1a bd
       0.029272264 -0.016471025 0.008610183 -0.03783216
000130 60 14 35 bc c7 20 f5 bc 95 5a 1a 3c 27 ba 60 3c
       -0.011052221 -0.029922856 0.0094210105 0.013716257
000140 d0 7b a4 bc 76 b4 3b 3c 7b f2 ba bb b0 d4 02 bc
       -0.02007857 0.011456599 -0.0057051755 -0.007985279
000150 fb d4 45 3c b8 f7 4a 3c 76 d2 2e bc 6a bc 50 3c
       0.012074704 0.012388162 -0.010670295 0.012740234
000160 97 2e 2b 3c 04 0e 25 3c b3 3c af bc dc 5f 58 bd
       0.01044812 0.010074142 -0.021391248 -0.052825794
000170 94 87 a0 3c 42 e7 ef 3b 03 a1 52 bd 1c 80 cc 3d
       0.019595899 0.0073212693 -0.051423084 0.099853724
000180 cc d3 b7 3b 1e d0 06 3d 7e 7a 26 3d b4 37 f5 3c
       0.005609965 0.03291332 0.04064416 0.029933788
000190 b9 85 f1 3b e7 38 82 bc 0a 99 01 bc 64 a5 87 bc
       0.0073706773 -0.015896274 -0.0079100225 -0.016558357
0001a0 36 dd 0b 3c b4 ad b5 3c f0 e1 08 bd 83 45 7c bc
       0.0085366275 0.022177555 -0.033418596 -0.015397432
0001b0 a4 bd b3 bc 6a 6c 51 3d ae 1b ce 3b 33 45 16 3c
       -0.021941014 0.051128782 0.006289921 0.009171772
0001c0 f0 52 05 bd e2 47 4b 3c 73 8e 3b 3d bb 7c e0 3b
       -0.0325498 0.012407275 0.045790147 0.0068508065
0001d0 17 aa 8b 3d 58 e5 48 bc f1 ee a0 bc 65 fa 5e 3c
       0.068195514 -0.012261711 -0.019645186 0.013609503
0001e0 d0 b9 40 3c 3a b5 92 3c f6 03 8a 3c 1d 21 a4 bc
       0.011763051 0.017908681 0.016847592 -0.02003532
0001f0 39 6f 05 bd 76 2f 93 bc 23 3d 33 bd 05 73 fe 3b
       -0.032576773 -0.017966967 -0.043759476 0.0077651762
