p3_collab-compet/checkpoint_critic_0.pth (torch_old, 159740 bytes, 5 tensors)

fcs1.weight f4 [256, 24]
000000 f2 b0 0d bc 12 95 9d bc f3 76 ed 3c 46 a9 24 bd
       -0.008648144 -0.019236121 0.028987383 -0.040200494
000010 e6 e4 d7 bd 42 44 03 be eb d9 99 bc 31 69 e0 3c
       -0.10541706 -0.12819007 -0.01878067 0.02739391
000020 7b 98 e1 bc 8b c1 08 bc 59 ce 86 bd 3b 1b d4 3c
       -0.027538529 -0.0083469255 -0.065823264 0.02589189
000030 41 90 b6 3b 3c 44 cb bb d0 55 0b 3d b5 cf 0b 3d
       0.0055713956 -0.0062032025 0.034017384 0.03413363
000040 7f b0 85 ba 1d f3 63 bd 16 a0 27 3d 2b a3 14 3c
       -0.0010199695 -0.055651773 0.040924154 0.009072105
000050 db 83 42 3d ac 96 e4 3d fc de 5e bd bc 94 15 3d
       0.04748903 0.11161551 -0.054411873 0.036518797
000060 16 2a a7 3d c3 a9 84 3d a8 54 59 bb e8 1d 08 3d
       0.08162324 0.06477692 -0.0033162031 0.033231646
000070 16 2f 76 bd 75 ef 01 be da 6a 29 3d d5 65 44 3c
       -0.0601035 -0.12689002 0.041361667 0.011987169
000080 07 ad 94 bc 25 08 82 bd df b8 cb 3b ba ee 5c 3d
       -0.018148912 -0.0634921 0.0062171067 0.053938605
000090 4c 47 3e 3d 35 47 98 3d 27 59 f4 bc c2 85 54 3d
       0.046454713 0.07435457 -0.029827667 0.051885374
0000a0 46 8f c5 3c 8c 92 3f bd 85 db d0 bc 01 82 06 bd
       0.02411617 -0.046770617 -0.0254953 -0.032838825
0000b0 b7 33 05 3e d6 1f a0 bc d2 9e 8a 3c 23 76 a1 bb
       0.13008009 -0.01954643 0.016921435 -0.004927413
0000c0 73 78 82 3c 56 93 71 bd 3c 8a 32 bb eb 3d eb bc
       0.015926575 -0.0589784 -0.0027243039 -0.028716048
0000d0 27 e4 c9 bd c1 94 3a bd cf 36 98 3c e5 bb 7a bc
       -0.0985797 -0.04555202 0.018580822 -0.015303587
0000e0 b7 ac 9e bc d1 11 46 bd 62 de ce 3b 67 01 1f bd
       -0.019369466 -0.048356835 0.006313131 -0.038819697
0000f0 89 5f 03 3c 71 0d dc bd 36 3e a9 3c 17 88 1a 3d
       0.008018383 -0.10744751 0.020659547 0.03772744
000100 cb 82 42 3b aa 38 e5 bd d8 09 14 3d f3 be 18 3d
       0.002968001 -0.111924484 0.0361422 0.03729148
000110 1f 4c 64 3d 47 3b b0 bd f6 56 bd bc 1f cc 22 3d
       0.055736657 -0.08605056 -0.023112755 0.039745446
000120 1e 36 dc 3c 76 b8 59 bb 3a bf 09 bc 13 82 13 3c
       0.026881274 -0.003322152 -0.008407408 0.00900318
000130 46 e0 ee bd a5 a0 05 3d e7 48 2f 3b 70 59 ef 3c
       -0.116638705 0.032623906 0.0026746334 0.029217452
000140 bb 09 2f bc 8a 59 a4 3d 20 de b9 bc 72 29 08 3d
       -0.010683472 0.08024891 -0.022688925 0.03324265
000150 38 56 6d bc 98 69 86 bd ba 10 29 3d 2a 05 36 bd
       -0.014485888 -0.06563109 0.041275717 -0.04443852
000160 e9 92 9f bd db 11 34 3d 8a 75 9e 3b 05 68 41 bd
       -0.07791693 0.04396234 0.004835789 -0.04721834
000170 5c 40 00 3e 05 1a 30 be 31 be a2 3c b9 e3 62 bd
       0.12524551 -0.17197426 0.019866081 -0.055392954
000180 d6 26 18 3d a1 e2 83 bd 52 f3 b9 bc 3a db 2d 3d
       0.03714641 -0.064397104 -0.022699032 0.0424454
000190 5b 54 1b 3c 3e 9d 23 bd 5c a2 1b 3d 9f 0a 39 bb
       0.009480561 -0.03994488 0.037996635 -0.002823509
0001a0 a1 90 71 bd c5 53 26 3d e3 35 8f bb 13 69 73 3a
       -0.05897582 0.040607233 -0.0043704375 0.00092853716
0001b0 bb 08 9e 3d 62 32 3c be 2f 83 d6 bc 9d 76 c8 3d
       0.07716509 -0.18378595 -0.0261856 0.09788249
0001c0 59 08 c8 3c 57 6e ce bc 1f 22 34 bc f0 dc 49 bc
       0.024418043 -0.025199099 -0.010994463 -0.012320742
0001d0 9c ed 25 bc ee b6 0b bd 1d c6 f8 3c e8 0b 60 bd
       -0.010127451 -0.034110002 0.030367905 -0.054698855
0001e0 c1 e7 35 3d 8b e4 c8 3c 24 2b ef 3c 95 d5 25 bd
       0.04441047 0.02452304 0.029195376 -0.04048689
0001f0 e0 bf cf 3d e7 2f 13 3e c4 c8 3e bc 5a a1 a7 bd
       0.10144019 0.14373742 -0.011644546 -0.08185072
000200 86 7b 5d 3d c7 de 02 bd 3c 36 fc 3c 95 cc d0 bc
       0.05407288 -0.03195074 0.03078758 -0.025488177
000210 c4 76 d7 3c f4 73 94 3d 32 59 c6 3b 7a 02 49 bd
       0.026301749 0.07248679 0.0060531134 -0.049074627
000220 b3 07 90 3c 6d dd 52 3d a3 22 a2 bc 6d 8f 8a 3d
       0.017581796 0.0514807 -0.019791907 0.067656375
000230 b7 c3 f4 bd d5 72 3f bd 3a da 88 bb 74 e2 af bb
       -0.11951392 -0.04674037 -0.0041764053 -0.0053675715
000240 c1 db db 3d e6 9d c8 3d 53 01 19 bd fa 45 2f bd
       0.10735274 0.09795742 -0.03735478 -0.042791344
000250 80 f1 41 3d d8 32 c4 3d 36 aa 56 3b 80 95 2f 3c
       0.047349453 0.0958001 0.0032755262 0.010716796
000260 db 08 86 3d 6d ba 24 3c 43 d2 71 3d a2 c9 35 3d
       0.06544658 0.010054213 0.05903841 0.044381745
000270 85 5f 32 bd 6d a9 0e 3d 5e 4b b8 bc e0 f1 1f bb
       -0.043548126 0.034829546 -0.022496875 -0.0024405643
000280 c9 c0 94 3d 44 f0 d5 3c 8d 67 78 bc 7c ae b6 bd
       0.07263333 0.026115544 -0.015161407 -0.08919999
000290 80 2f e8 bc ed f5 d6 bd 75 aa 91 bc ab 28 44 bd
       -0.028342962 -0.10496125 -0.017781476 -0.047890346
0002a0 ff 13 80 bb 73 91 d8 3d 92 ca 67 bc 09 d1 be 3c
       -0.0039086337 0.10574617 -0.014147418 0.023293035
0002b0 a9 8c f4 bc 59 6e 6b 3c 54 89 a1 3c 6b 19 3c 3d
       -0.029852228 0.014369571 0.019718803 0.045922678
0002c0 b6 85 b1 3a 49 40 8d 3d 38 6c 32 bd 13 3e 86 bc
       0.0013543877 0.06897027 -0.043560237 -0.016387021
0002d0 8e 89 fb bc 9b 8a 7a bd 5b 6e e5 3c 72 c3 5a 3d
       -0.03070524 -0.06116734 0.028006723 0.053409047
0002e0 fb 30 28 bd 64 32 94 3c 07 5f 19 bc 8c b2 74 3d
       -0.041062336 0.018090434 -0.009361035 0.059740588
0002f0 03 c2 16 bd b0 94 38 3d 6d ca 48 3c 02 2d c6 3c
       -0.036806118 0.045063674 0.012255293 0.024191383
000300 2f e5 8e 3d 2c c9 0c bd 53 2f f1 bc f1 13 e6 3c
       0.06977307 -0.03437154 -0.029441511 0.02808568
000310 86 d0 69 3d 0c b6 7b bd e7 63 08 bc 45 92 7b 3b
       0.05708363 -0.06145291 -0.0083246 0.0038386744
000320 5a ad 77 bc 16 cb 8c bd 6e 50 41 3d 07 9f 83 3d
       -0.015117014 -0.06874673 0.047195844 0.064268164
000330 ea 0e 68 bc f1 0e 22 3d 2c 99 15 bd 80 17 6d bc
       -0.014163712 0.03956503 -0.03652303 -0.014470935
000340 20 91 e7 3c 01 c3 10 be 02 8d 65 bc 39 98 91 3c
       0.028267443 -0.14136888 -0.01401067 0.01777278
000350 07 19 71 bd 0d 5b c1 3d 36 5e 46 bc df d2 db bb
       -0.05886176 0.09441195 -0.012107423 -0.0067084874
000360 ba 82 4f bd df 5e d8 3d fe e3 11 bd 77 db 80 bd
       -0.05066178 0.1056497 -0.03561782 -0.062918596
000370 e1 93 94 bc 94 e2 c2 bd 26 80 04 3d 4d 2e 91 bd
       -0.01813692 -0.095158726 0.032348774 -0.07088909
000380 41 b9 7e 3d 12 7b 87 3d e9 6c 40 3d 4e 2c 32 bd
       0.06218839 0.06615271 0.046978865 -0.043499283
000390 6f 6b 15 bd d3 5a 58 bd 70 19 ae bc 4a 26 5d bd
       -0.03647941 -0.05282099 -0.021252364 -0.053991593
0003a0 b6 19 f7 bb d8 87 e3 3d f8 57 78 bd d0 24 05 3d
       -0.007540907 0.111098945 -0.06063077 0.03250581
0003b0 be ea fe bc 00 2a 8c 3c 73 d6 a4 3c bf 20 67 bb
       -0.031117793 0.01710987 0.020121789 -0.003526732
0003c0 e6 4d 92 bd a8 7a 1d 3e 55 7a bc 3c c9 de 9f bc
       -0.07143764 0.15378821 0.023007551 -0.019515412
0003d0 48 04 37 3c 4a 90 ab 3d 52 ce 21 3c b9 d1 f2 3c
       0.011170454 0.0837713 0.009875851 0.02964102
0003e0 78 d1 7c bd 33 e5 cb 3d 79 c1 20 3d 88 64 ad bb
       -0.061723202 0.09955826 0.03924701 -0.0052915253
0003f0 b3 07 87 3d 0b dd e9 bd 61 22 39 bd d7 f9 fc 3b
       0.065932654 -0.11419114 -0.045198802 0.007720213

fcs1.bias f4 [256]
000000 fd 74 71 bd af b6 35 3e 9f a2 01 3e 61 ff 0d 3e
       -0.05894946 0.1774547 0.12659691 0.1386695
000010 db 73 a7 bc ef 16 2a be d1 5d 49 be e8 2b 71 bc
       -0.020440986 -0.16610311 -0.19664694 -0.014719941
000020 af 3d 86 be e8 15 44 be c6 7f 14 3e 3b 7c b2 bc
       -0.26218936 -0.19148982 0.14501867 -0.021787753
000030 e4 16 0c 3e f7 a1 25 be b8 44 29 3d f6 49 4b 3e
       0.13680607 -0.16175066 0.0413253 0.19852433
000040 93 53 2e 3c ea 2d 4e bd ad 69 07 be 72 4d 36 be
       0.010640043 -0.050336756 -0.13223906 -0.1780298
000050 7b d5 be 3d 17 4e 36 be 08 c5 93 bd fa 4d 42 be
       0.09318062 -0.17803226 -0.07215315 -0.18975058
000060 93 03 d6 bc 40 64 57 be c9 7b 56 3d 8c a2 b9 bb
       -0.026124751 -0.21034336 0.052364144 -0.005665129
000070 cc 30 61 be fa 9c bb bd dc e5 8a bd 75 64 c0 bd
       -0.21991271 -0.091608 -0.067821234 -0.09394161
000080 7a 68 59 bd 04 a3 a1 3c 00 26 b1 bd 0c c9 bd 3d
       -0.053078152 0.019731052 -0.08649826 0.09266862
000090 87 ee 34 be 33 aa 54 3e 7a cf c8 bd 7d a8 bd 3d
       -0.17669116 0.20768051 -0.09805198 0.09260652
0000a0 51 97 ce bd cb 06 36 be 9f 3c d0 3c 7c 32 d7 bd
       -0.10087455 -0.17776029 0.025419531 -0.10507676
0000b0 c8 8e 8c 3c ed 15 11 be 3d 7d 0d bd 31 73 68 be
       0.017157927 -0.1416852 -0.034543265 -0.22700192
0000c0 3e 62 31 3e 1e 60 9c 3d 02 be d5 bd 50 0f 0c 3e
       0.17322633 0.076355204 -0.10436632 0.13677716
0000d0 75 86 a6 bc 0e d0 21 be 21 31 17 bd 87 9e 7e bd
       -0.020327786 -0.15802023 -0.036912087 -0.062162902
0000e0 9b 2d 16 3e bb c5 8e bd 2c 46 4b be a9 45 3d 3e
       0.14665835 -0.06971308 -0.19850987 0.18483604
0000f0 91 40 2b 3d 22 89 b6 3d 75 0d f5 3b bf ef 8d be
       0.041809622 0.08912875 0.007478411 -0.27721974
000100 84 8c ad 3d 77 9a db bd 79 10 ce bd 60 41 f3 3d
       0.08474067 -0.10722821 -0.10061736 0.11877704
000110 2d fc 61 be 60 ec 3d be 19 5b d4 bd 0a 53 6a be
       -0.22068854 -0.18547201 -0.10368938 -0.2288324
000120 4f 2c 2a be 2e 6a b6 bd 3d 0d 5c bd 51 f4 6c 3e
       -0.16618465 -0.08906971 -0.053723563 0.23140074
000130 c8 e7 01 3e 48 c0 17 3e da 30 60 3c 00 30 04 3d
       0.12686074 0.14819443 0.013683522 0.03227234
000140 99 db 98 bd f1 3f c3 bd a3 57 82 be 9e 31 2c be
       -0.0746376 -0.0953368 -0.25457487 -0.16815802
000150 15 6f 09 3e d8 a7 57 bd e9 44 c0 bd 0d d0 71 3d
       0.1342128 -0.052650303 -0.093881436 0.059036303
000160 cd 7a 73 bd 17 93 0d bd 21 eb 29 bd bb 0a ed 3d
       -0.059443284 -0.034564104 -0.041484002 0.11574312
000170 81 2f 09 be 5e 6e 3f 3e 79 9d 2e be 45 f4 32 be
       -0.13397028 0.18694445 -0.17052259 -0.17475994
000180 27 bc 43 3e d1 23 f2 bd 86 34 4f 3e db 92 56 3d
       0.19114743 -0.11823238 0.2023488 0.052386146
000190 0d 78 0f 3e 9a 6b a4 3c eb 3a fd 3d 70 e9 17 3d
       0.1401064 0.02007084 0.12364753 0.037087858
0001a0 e0 1b a0 bd 24 19 06 3e 4f 56 d1 3d d5 7a e2 bc
       -0.07817817 0.13095528 0.1022154 -0.027646462
0001b0 26 14 47 3d b0 3f fe bd bf 0b 7e bd 07 36 58 be
       0.0486032 -0.12414491 -0.06202292 -0.2111436
0001c0 62 e9 f4 bd 78 1f 5f be d2 bc f6 bd 48 32 1a 3d
       -0.11958577 -0.21789348 -0.12047733 0.03764561
0001d0 fe aa 5d 3e 23 ec 42 be f2 28 75 be 10 7c 36 3e
       0.2164726 -0.19035392 -0.239414 0.17820764
0001e0 a1 2f a0 bd 83 e6 91 bc 29 d2 12 3e f0 bd 39 3e
       -0.078215845 -0.017810112 0.14337982 0.18138862
0001f0 7b ca c9 3c 62 11 7a 3c 8c e3 a5 bb 1d ec ab bd
       0.024632683 0.015262933 -0.005062526 -0.083946444
000200 bb d8 92 3d 4b f1 7c be 36 42 73 be 37 ac 0b 3e
       0.07170244 -0.24701421 -0.23755726 0.13639913
000210 65 d8 5d be d0 39 cc 3d f6 53 1e 3e 1d 8b 12 3e
       -0.21664579 0.09971964 0.15461716 0.1431088
000220 91 b1 83 3d ff 90 b7 3c 99 94 1f 3d ca e3 f7 3d
       0.064303525 0.022408007 0.038960073 0.12103994
000230 71 df d0 3b 11 59 40 be f2 f7 ac 3d 3b 91 23 bd
       0.0063742925 -0.18783976 0.08445729 -0.039933424
000240 15 b7 da 3d 0a 88 08 be cf bd 9d bd 71 16 0f be
       0.106794514 -0.13333145 -0.07702219 -0.13973404
000250 09 dc bc bc 7c e0 24 3e 3b 27 a5 3b 67 c6 28 3e
       -0.02305414 0.16101259 0.005040077 0.16481934
000260 92 9d 10 3e 7d 13 23 be fd fd e2 3d b4 39 ec 3c
       0.14122608 -0.15925403 0.11083601 0.028836109
000270 7c e5 29 3e bf d9 4f 3d 8d 90 83 bc b8 6d 84 3e
       0.16591448 0.05074477 -0.016060138 0.2586496
000280 8c b7 27 be 11 29 78 3c bc 8a 11 bd 3c 32 35 bd
       -0.16378611 0.01514651 -0.035532698 -0.04423736
000290 8a 8d f9 3a 59 3d 55 3e 10 4a de bc 01 72 0e 3d
       0.0019039374 0.20824184 -0.027134925 0.03477669
0002a0 8e 28 42 3d b1 a4 0b 3e 7d c1 cb 3d 13 52 55 be
       0.047401957 0.13637044 0.09949014 -0.2083209
0002b0 85 f7 47 be e1 f7 6c be 50 a7 4d be ae 8a 0a be
       -0.19528015 -0.23141433 -0.20083356 -0.13529465
0002c0 24 68 ca bc c1 5c 31 3e 78 34 1a be a6 1c ad 3d
       -0.024707861 0.17320539 -0.15059078 0.0845273
0002d0 4c 17 f0 bd 60 d9 1d 3e 91 4d 0b 3e 5b 9b fd 3d
       -0.117231935 0.15414953 0.13603808 0.12383147
0002e0 7c c7 28 3e 82 88 0f be 30 1e 75 be 86 90 2c bc
       0.16482347 -0.14016917 -0.23937297 -0.010532504
0002f0 97 3b 9a 3d 16 8e 1a 3e 2d f4 a4 3d 7b f8 23 3e
       0.07530897 0.15093264 0.08054385 0.16012757
000300 00 19 0a 3d b9 be fb bd 85 8c 52 3e a3 fe 41 be
       0.033715248 -0.12292237 0.20561416 -0.18944792
000310 52 bb 09 be 0b 61 da 3d c5 02 20 3e ec 98 49 bd
       -0.13450363 0.10663041 0.15626056 -0.049218103
000320 f3 4d 63 3c d7 4b d8 3a 23 9a 94 3c 37 7f a6 bd
       0.013873565 0.0016502094 0.018139904 -0.08129733
000330 55 79 3d 3e 05 03 80 3e 0e f2 8c bd 65 76 0c 3e
       0.18503316 0.25002304 -0.06882106 0.13717039
000340 6e 2f d2 bd 61 a1 42 be 0c a4 87 3d a0 65 a3 bd
       -0.10262953 -0.19006874 0.06623086 -0.07978368
000350 37 d3 41 3e d9 31 fb 3b 7c d4 05 be 14 b0 2c be
       0.18928228 0.0076658544 -0.13069338 -0.16864043
000360 7a 4e 04 3e 8a c1 1a 3e 14 65 12 bd be 8c 2e bb
       0.12920561 0.15112892 -0.035740927 -0.0026634182
000370 8a de a9 bd 7c 44 82 3c 2e ef 70 3e 2e 9f 8a bd
       -0.08294399 0.015901797 0.2352874 -0.06768642
000380 00 51 8a b9 01 c0 93 bd c7 ff 36 3d b5 ae 7f 3c
       -0.0002638176 -0.07214356 0.044677522 0.015605618
000390 cc 0f f9 bd a6 cd bf bd b1 f7 7d 3e d6 6e 25 3e
       -0.12161216 -0.09365396 0.24801518 0.16155562
0003a0 19 21 e7 bd 90 fb 7d bd 04 fb 56 3d ef 2f 16 3d
       -0.1128561 -0.062007487 0.05248548 0.036666807
0003b0 1d 67 d9 bd a3 76 0c 3e 01 20 3c 3c d4 7f 05 3d
       -0.106153704 0.13717131 0.01148224 0.03259261
0003c0 d0 ee 1f be 98 8a fe bd a9 d7 1c 3d 51 62 66 bc
       -0.15618443 -0.124287784 0.038291607 -0.014061526
0003d0 c4 a1 1b be 58 6d 2f 3e 2b f8 a9 bd e1 96 2b be
       -0.15198427 0.17131555 -0.082992874 -0.16756774
0003e0 2e 82 21 bd c2 ca ab bd 48 f7 d3 bd 98 b3 6a be
       -0.03943079 -0.08388282 -0.103498995 -0.22920072
0003f0 77 59 16 3e bd b5 72 3e 98 58 41 be 9c e3 4e 3e
       0.14682566 0.2370214 -0.18881452 0.20204014

fc2.weight f4 [128, 258]
000000 70 f1 64 bd 2b 47 cb 3a c7 f2 2a 3d af a7 d7 bc
       -0.055894315 0.0015508881 0.041735437 -0.026325075
000010 e7 24 77 3d 05 81 0e bc e5 78 dc 3d 51 36 a7 3d
       0.060337927 -0.008697753 0.10765246 0.08164657
000020 c8 53 bd bd e2 49 c4 3b 28 bd 1d 3d 09 db 8a bd
       -0.09244496 0.005990253 0.03851047 -0.06780059
000030 8c 5a 91 3c 9f 5a dc bc 65 60 cd 3b 8b b3 f4 3d
       0.017743371 -0.02689868 0.0062675946 0.119483076
000040 2f a3 2e bd 8b c9 ff bc c6 09 60 3d a1 b1 1c bd
       -0.042636093 -0.031224033 0.05469682 -0.038255338
000050 b0 fa 08 3c 9a 10 92 bd 3f 34 8d bb 66 77 9f bc
       0.00836055 -0.07132073 -0.0043092067 -0.019466113
000060 27 4f ae bd f8 24 19 bd fb 6f 48 bd 4c ad 54 3c
       -0.08511191 -0.03738877 -0.048934918 0.01298077
000070 21 a9 d9 3c ea a1 33 3a 03 92 fd 3c a1 00 8c bc
       0.026569905 0.0006852435 0.030953413 -0.017090144
000080 18 ba b2 3d 4d f0 03 be 4f 9f d3 bd fa 59 a0 3d
       0.08726901 -0.12884636 -0.1033312 0.07829662
000090 ec 57 19 3c 74 a4 69 3d bd d0 8f bd 99 54 99 bd
       0.009359341 0.0570416 -0.070222355 -0.07486839
0000a0 cc ba bd 3c 59 4d 00 3c a2 e9 4a 3c ac c7 16 bd
       0.02316036 0.007830941 0.012384804 -0.036811516
0000b0 25 49 70 ba 86 c2 c5 bd 05 51 3d 3c 6e 5f b5 3c
       -0.0009166173 -0.09656243 0.011554961 0.022140231
0000c0 74 08 55 bd 1e 8a 87 3c 26 8f 9e 3d 47 b9 f4 3c
       -0.052010015 0.016545352 0.07742147 0.029873503
0000d0 b8 1a 3c 3d 71 f7 57 3d 4c 53 5c bd 4f 1b b0 3d
       0.04592392 0.052726213 -0.053790376 0.08598959
0000e0 3e b1 5e bc 90 bf 68 3d c5 cd 55 3c 11 78 d1 3d
       -0.0135920625 0.056823313 0.013049548 0.10227979
0000f0 7f 97 14 bd a5 f0 19 3c f7 51 fd 3d ec d0 6c bd
       -0.03627729 0.009395753 0.12369149 -0.05781643
000100 4c 6f 80 bd 07 42 69 bd 87 f2 82 3d 17 f0 cf bd
       -0.06271228 -0.056947734 0.06393915 -0.101532154
000110 e0 ff 86 3b 74 58 87 bd 9d cf f6 bc 54 b7 27 3d
       0.004119858 -0.06608668 -0.030128295 0.04094632
000120 9a 7a 09 bd 7c 47 5b 3c a9 c9 99 bd c5 4e d0 bc
       -0.033564188 0.013383742 -0.07509167 -0.025428185
000130 17 2c 08 3e c4 fe 25 3d 05 c4 7e 3c d1 89 bd bd
       0.13298069 0.040526167 0.015549664 -0.09254802
000140 2c 43 c1 3d e8 8f b0 bd 06 64 8b 3a 36 9d 00 3d
       0.0943664 -0.08621198 0.0010634668 0.031399928
000150 96 ee 2e bc d7 c4 53 3d 73 e0 bf 3d 32 e7 74 3d
       -0.0106770005 0.051701393 0.09368982 0.059790798
000160 aa ed 63 be 7f 21 98 be c2 9c 5c 3d 51 41 d8 bd
       -0.2225863 -0.29713055 0.053860433 -0.10559333
000170 87 90 87 bd de b0 72 bd 80 e8 43 ba 59 5e 8f bc
       -0.06619363 -0.059250705 -0.0007473305 -0.017501043
000180 6f 7b 5f 3d be 17 30 bd e7 8b b9 bd 0b 46 5d bd
       0.054561075 -0.042991392 -0.090598874 -0.054021876
000190 d4 3f e4 3d 9c 91 c8 bd f8 d0 46 bd 02 bc bd bc
       0.11144987 -0.09793398 -0.048539132 -0.023160938
0001a0 cd 3c 70 bd 8e f4 c3 bd 48 04 d2 bb e1 52 78 bd
       -0.058651734 -0.095681295 -0.006409202 -0.060625914
0001b0 ee 96 84 3d 15 a6 87 3d fe 56 48 3d 78 14 82 3d
       0.064741 0.066234745 0.048911087 0.0635156
0001c0 07 af 7c 3b 37 e0 54 3c d1 0b 93 bd 31 99 aa 3d
       0.0038556473 0.01299291 -0.07179988 0.0833
0001d0 4c 0b a9 bd eb 0d f4 bc 2f 98 ce 3d 20 04 98 3d
       -0.08254108 -0.029791793 0.100876205 0.07422662
0001e0 00 b1 8f bd 5e 61 68 3d 5a b5 0f bd 11 43 1c 3c
       -0.07016182 0.05673348 -0.03508506 0.009537474
0001f0 c4 36 7b bd 82 b1 1b bd 95 39 d2 bc 23 be 29 3d
       -0.061331525 -0.03801108 -0.025662223 0.041441094
000200 c4 ef 9f bd f8 71 db bc cb f8 94 bd f3 93 d9 3b
       -0.078094035 -0.026787743 -0.07274016 0.0066399514
000210 26 46 1c 3d 3e 0f fd bc a0 d1 6c 3d 37 1c cd 3c
       0.038152836 -0.030891057 0.0578171 0.025037868
000220 12 d6 a5 3d 19 bd 79 3c d5 3f 84 3d cc 62 47 3d
       0.08097471 0.015242838 0.064574875 0.048678204
000230 5b 89 85 bd 39 88 67 3d fd 4b 9e bc 51 6a 38 3d
       -0.06520339 0.056526396 -0.019323343 0.045023266
000240 2c e9 69 bd 86 a9 37 bd 4f 17 fb 3b 63 71 55 3c
       -0.057107136 -0.044839405 0.0076626907 0.013027522
000250 d9 97 9e 3d 29 13 32 bd 6c b4 7c bd fd e1 28 3d
       0.077438064 -0.043475304 -0.0616955 0.041231144
000260 c6 39 08 3c c1 c7 16 3c 77 8f 63 bd e7 aa 09 be
       0.0083145555 0.0092028985 -0.05555674 -0.134441
000270 e2 60 a9 3c 16 99 af 3c 39 65 24 3d cb e2 78 3d
       0.02067608 0.021435302 0.040135596 0.06076316
000280 86 26 06 bd 6d 6f 20 3d 23 1c da 3c eb 5e 93 bc
       -0.032751583 0.039168764 0.026624745 -0.017989596
000290 d0 11 b8 bd 7d 4f 08 3d 1c 84 ce bc b0 b5 4c bd
       -0.089877725 0.03327893 -0.025209479 -0.04997796
0002a0 6b 1e 46 3d 5a 75 21 3b b9 69 cc bd 4d f2 1f bd
       0.048368853 0.0024636597 -0.099811025 -0.039049435
0002b0 33 d8 82 3d 0f f3 11 3c 65 dd e6 bc 89 3d 96 3d
       0.06388893 0.008908047 -0.028181741 0.07335956
0002c0 00 7d 6d 3d ec f9 1e 3d 4e 18 6a 3d f6 3f 7f bd
       0.057980537 0.038812563 0.057152085 -0.062316857
0002d0 71 68 86 bc c4 20 28 3c e7 b0 16 3d 1e 73 66 bd
       -0.016407223 0.010261718 0.0367898 -0.056262128
0002e0 f1 9a 57 bd 9a d5 9b 3c 49 66 b5 3d 09 7d 52 be
       -0.052637998 0.019022752 0.088574 -0.2055551
0002f0 ad 68 d1 bd 98 b9 81 3c f8 f0 e0 3c f1 3d 71 bd
       -0.102250434 0.015835568 0.027458653 -0.058896963
000300 6b 10 8b bc cf 8f 85 bd eb 0e 73 3b 6b 33 af 3c
       -0.016975602 -0.0652157 0.003708775 0.021386823
000310 e2 6a 97 3d 77 e5 54 3d a1 dd fa 3c 36 f0 e2 bd
       0.07393433 0.051976647 0.030623259 -0.11080973
000320 95 f4 c4 3d 80 9b ba ba c2 e2 b4 3c 1d 30 47 bd
       0.09616963 -0.0014237016 0.022080783 -0.04862987
000330 23 e8 80 3c 8e 22 b0 bd 8a 62 f6 bb 77 cf 8e bc
       0.015735691 -0.08600341 -0.007519071 -0.017432911
000340 08 7b 2b bc dd e8 6a bd d3 cb 60 3d b1 14 37 bd
       -0.010466345 -0.057350982 0.054881882 -0.044697467
000350 62 7e 48 3d 31 7a 04 3d ae ca 8a bb 68 16 fb 3c
       0.048948653 0.032343093 -0.004235587 0.030650333
000360 c8 f5 0b bb 00 8e a2 bd 56 05 0b 3d 70 2c d0 3d
       -0.0021356214 -0.079372406 0.033940636 0.10164726
000370 f6 23 fc bc 2f 64 d3 bc bd ce 96 3d 54 3f cc bc
       -0.030778866 -0.025804607 0.07363651 -0.024932541
000380 10 54 29 bd 6c c9 20 bd ff 16 fe bd 69 4e 84 bd
       -0.041339934 -0.03925459 -0.1240673 -0.06460268
000390 87 94 b8 bd f0 6e dd bc 56 0c 40 bd 91 78 a1 bc
       -0.09012704 -0.027030438 -0.046886764 -0.01971081
0003a0 c9 80 08 3d a9 49 94 3c b6 4b 8a 3d ee 82 91 3d
       0.033325944 0.01810153 0.06752722 0.07105051
0003b0 af 41 3d bd e2 8e 0d 3b 59 ff bd 3b 02 db 80 3d
       -0.04620522 0.0021600057 0.005798262 0.062917724
0003c0 ce 8a 91 3b ef 4a 06 bd 87 85 3b 3d 61 bb bc 3c
       0.0044415956 -0.032786306 0.04578164 0.023038568
0003d0 bd c9 d9 3d ed 0f 45 bd f7 e6 66 bd 8f 25 07 3d
       0.10634182 -0.04811089 -0.05637261 0.032994803
0003e0 10 51 a6 3a f9 cd dc bc 66 11 2a 3d 85 91 93 bd
       0.0012688953 -0.026953684 0.0415205 -0.0720549
0003f0 00 37 23 bd 8f c4 e5 bb 46 41 68 3d bd 17 7d 3d
       -0.039847374 -0.007011957 0.056702875 0.061790217

fc2.bias f4 [128]
000000 00 29 ab 3d 8f d6 eb 3c 16 50 cf bd 9b d8 41 3b
       0.083574295 0.028788833 -0.10122697 0.002957857
000010 8e ba 7d bd f6 cc f0 bc cc 0c 30 ba 92 93 0e 3d
       -0.06194549 -0.029394608 -0.0006715774 0.034808703
000020 60 f1 23 3d d4 53 7d bd ee 33 ba 3d 70 ca 84 bd
       0.040025115 -0.061847523 0.09091936 -0.064839244
000030 20 be a0 3d 1b 0e 65 bd 9f 81 8d bd 9f 1b f1 b9
       0.078487635 -0.055921655 -0.06909489 -0.0004598768
000040 28 d9 cd bc 95 92 62 3c 08 20 36 3d d7 d2 e0 3c
       -0.025127962 0.013828893 0.04446414 0.027444286
000050 aa 68 5b bd c6 7c 32 3c 5b d3 ab 3c c3 17 84 bd
       -0.053566612 0.010894006 0.020974806 -0.06449845
000060 97 57 40 3c d5 93 4e bc 18 cf 61 3c 17 d6 0f bc
       0.011739633 -0.012608488 0.013782285 -0.00877907
000070 06 31 10 3d 42 52 00 3d 20 a4 a4 3a 2d d4 0a 3d
       0.035203002 0.031328447 0.001256112 0.033893753
000080 99 57 75 3c 5c fb eb bc bd 48 7b bd f7 53 5e 3d
       0.014974498 -0.02880638 -0.061348666 0.054279294
000090 69 38 e4 ba 98 9e 8a 3b ea 6a 35 3d 25 7f bd bc
       -0.0017411831 0.0042303316 0.044291414 -0.023131916
0000a0 81 98 f3 bc 3c 65 e3 bd ea 2e 4d bd f6 ab 5b bd
       -0.029735805 -0.11103293 -0.05009357 -0.05363079
0000b0 4c ef 51 3c 5d 0b 61 bc 05 d1 4e bd 9d f2 97 bd
       0.0128134005 -0.013735619 -0.050492305 -0.07419322
0000c0 f4 37 f2 3b 7a 59 6f 3c c6 bb 5e bd 17 00 1b 3d
       0.007391924 0.014608735 -0.054378293 0.037841883
0000d0 0b 20 85 bc d0 ba ae bd 89 84 51 3d e7 92 9a bd
       -0.01625063 -0.085317254 0.051151786 -0.07547551
0000e0 92 4b 1b bd b3 04 50 bd b5 3b 95 3d c6 b1 cd bd
       -0.037913866 -0.05078573 0.07286779 -0.10043673
0000f0 3b 88 68 bd df a4 58 bc 2b fe 33 bd 86 cf 63 3d
       -0.056770544 -0.013222902 -0.043943565 0.05561783
000100 a1 8b 9d bb bc e7 7e bd 7c 8c 36 3d 6f d1 62 3c
       -0.004807905 -0.062232718 0.04456757 0.013843878
000110 5b b9 21 bd 4c 87 54 bd cd 57 27 bc e5 57 2f 3d
       -0.03948341 -0.05188684 -0.010213804 0.042808432
000120 6e 2e a9 ba c5 57 14 bd 66 8f fc 3a a5 3c 42 bd
       -0.0012907514 -0.036216516 0.001926881 -0.047421116
000130 1c 29 10 bc 5b 1d c1 3c 1a 52 74 3d 38 23 cb 3c
       -0.008798864 0.023573568 0.05964861 0.024797067
000140 6f c6 36 bd fe 1e 5e bc 25 a9 f0 bc e7 a6 2d bd
       -0.044622835 -0.013557194 -0.02937753 -0.0423955
000150 fe 5c c2 3c 29 cc 2f bb 40 55 98 bd 52 7c 29 bd
       0.023725983 -0.002682457 -0.07438135 -0.041378327
000160 fc 4d 88 3d 1c 54 9e 3b d3 3c cc bc f3 00 46 bc
       0.06655499 0.004831804 -0.024931347 -0.012085187
000170 77 40 c2 bd c3 5e 9a 3d 18 72 d1 39 48 5b d0 bc
       -0.09484952 0.075376056 0.00039948593 -0.025434151
000180 90 79 07 3b b5 f1 29 bd ad 19 87 bc fe 92 8b bb
       0.0020671822 -0.041490275 -0.016491735 -0.004259466
000190 3a 60 48 3d 22 0d 20 3d 95 22 2e bc 49 bf 05 3d
       0.048919894 0.039075024 -0.010628362 0.032653127
0001a0 76 a8 94 3d 96 db fc bc 05 fb 23 bc 24 d6 44 3c
       0.07258694 -0.030866425 -0.010008578 0.012013946
0001b0 32 5f 92 3a 35 42 08 3c db d9 75 3d f4 2c b7 3c
       0.0011167286 0.008316566 0.060022216 0.022360303
0001c0 6e 96 2f 3d 22 6b c7 3c b3 01 08 3d e7 f3 0c bc
       0.04286807 0.024343077 0.033204746 -0.008603073
0001d0 1b c9 ec 3c 73 df 75 bc c6 5e 15 3d 9c 41 e1 bc
       0.028904488 -0.015006888 0.036467336 -0.027497105
0001e0 80 b6 71 3d 73 31 51 3d db f3 d2 bc ae e6 82 bb
       0.059011936 0.05107255 -0.025751045 -0.0039947843
0001f0 dd c7 ae bc f0 cc a2 3c 3e 77 55 bb dd 92 2c 3d
       -0.021335537 0.019873112 -0.0032572295 0.042132247

fc3.weight f4 [1, 128]
000000 ef 1d 3d 3c 31 63 45 3c dc c6 64 bc 97 75 70 3c
       0.011542781 0.012047575 -0.013963427 0.014676473
000010 af 24 61 bc 6a 47 d8 3c f1 2f df 3c f1 67 9c bc
       -0.013741656 0.02640124 0.02724454 -0.019092532
000020 24 28 72 bd 61 10 5e bc 40 e1 8e 3d 74 db 05 bc
       -0.059120312 -0.01355371 0.06976557 -0.0081699975
000030 03 5c 90 3c 0c d9 e6 bc 18 51 fd bd 6a 3a 20 3d
       0.017622 -0.028179668 -0.12368983 0.039118208
000040 32 eb ae 3c 44 a8 6b bc 6b 6c 01 bc 87 31 5a 3c
       0.021352384 -0.014383379 -0.007899384 0.013317472
000050 7c 41 39 bb eb a7 ab bc cb 11 93 bc 7b 4a 0b 3d
       -0.0028267791 -0.020954093 -0.01795282 0.034006577
000060 1f 88 eb bb 9e e0 42 3c 99 5c 35 3d a8 59 b1 bc
       -0.0071878578 0.011894373 0.04427776 -0.021649197
000070 63 b4 69 3d cb 27 3b 3c f8 2b dd 3c e1 ad 09 bc
       0.057056796 0.011423062 0.026998505 -0.008403272
000080 9c 07 9d bd e4 26 57 bc a8 48 2c 3d ca 21 29 3c
       -0.07667467 -0.013131831 0.042061478 0.010322997
000090 c5 65 ac bc f5 a7 9a 3c 73 94 f4 3c 1c 4c 1d bc
       -0.021044621 0.018878916 0.029855942 -0.009600665
0000a0 c9 c3 89 3c 5d 52 54 bc 72 1f f1 bc 6e 50 ec bd
       0.01681699 -0.01295909 -0.02943394 -0.11538778
0000b0 82 d8 d7 bc eb f9 34 3c 55 57 07 3d cc 91 7b bc
       -0.026348356 0.011045913 0.03304227 -0.015354585
0000c0 ce f9 47 bc a6 a4 6e bc 8f 03 41 3c 30 27 79 bc
       -0.012205554 -0.014565622 0.011780634 -0.015207097
0000d0 56 56 45 bc b1 98 c2 bc b6 d3 40 bc 59 5b 15 bd
       -0.01204451 -0.02375445 -0.011769226 -0.03646407
0000e0 45 7c 52 bd 07 d1 ab bc 36 79 3c 3d 2f a2 4c bc
       -0.051388044 -0.020973695 0.046014033 -0.012489839
0000f0 20 58 82 bc 79 8a e8 bd 84 6d 2b bc 7f 9b 5d bc
       -0.015911162 -0.113545366 -0.010463122 -0.013525843
000100 a3 4b d7 3b e7 f1 6e 3c c0 20 88 bc 50 7f d6 3d
       0.006570296 0.014584041 -0.016617179 0.10473502
000110 b1 37 26 bd 8a df 0d 3d 47 b7 60 3c ab 41 74 bc
       -0.040580455 0.03463701 0.013715572 -0.014908235
000120 80 e4 7a 3c 2b 70 e7 bd d1 78 0e 3c 27 d9 0b 3c
       0.015313268 -0.11300691 0.008695797 0.00853566
000130 9d 2a c7 bc 80 f5 53 bd 98 28 d6 3d c6 33 19 3d
       -0.024312312 -0.0517478 0.104569614 0.03740289
000140 6d 8f d4 bb e2 fa 9f bd 49 0f 1b bd 1f 0b 30 bc
       -0.0064868242 -0.07811524 -0.037856374 -0.010744839
000150 bc 75 4e 3c 67 2e a5 3c fd cf 14 bd 29 2e 93 3c
       0.012601312 0.020163728 -0.036331166 0.017966347
000160 56 1b e4 3c f6 03 3c bc f8 83 02 bc 0f bd 7d bb
       0.027845066 -0.011475554 -0.007966034 -0.0038717424
000170 e8 98 a4 bb f8 c9 01 3d ce 8b 38 bc 61 81 a8 3c
       -0.0050231107 0.031686753 -0.011263801 0.020569505
000180 34 c7 21 3c 58 b1 50 3d fc e3 05 be c6 eb 81 bc
       0.009874154 0.05095038 -0.1307525 -0.015859496
000190 4c 44 25 3c 4c 1a 9a bc 01 b4 97 bb d0 e7 29 bc
       0.010087084 -0.018811367 -0.0046296124 -0.01037021
0001a0 0e 40 19 3c 56 92 da 3d 9c f0 80 bc af 02 b4 bc
       0.009353651 0.106724426 -0.015739731 -0.021973936
0001b0 71 30 32 bc 72 50 8b 3c 0b c4 fe 3d b1 30 ba 3c
       -0.010875807 0.017006133 0.12439736 0.022728296
0001c0 dc aa 01 bd 2e 2b 88 3d 8f 98 65 3d a1 73 76 bb
       -0.031657085 0.06648861 0.056053694 -0.0037605541
0001d0 ef c6 5c bd 8d a7 0e 3c ad 95 e4 bc 41 f3 a8 bc
       -0.053900655 0.008706939 -0.027903402 -0.020623805
0001e0 84 50 fa 3b 5d 64 d1 3c b3 6e c9 3c 51 92 3b bc
       0.0076389927 0.025560552 0.024588918 -0.011448459
0001f0 14 58 13 bd d1 ac 54 bc 0d 51 0a 3d 67 1b 1a be
       -0.03597267 -0.012980656 0.033768702 -0.15049516
