p3_collab-compet/checkpoint_actor_0.pth (torch_old, 159230 bytes, 6 tensors)

fc1.weight f4 [256, 24]
0.13464606 0.039939977 -0.004433352 -0.050913688 -0.08866629 0.10657964 0.0001112505 0.02609519
0.095948055 0.04753808 0.012043051 0.005112863 -0.022888131 0.19712631 0.07409745 0.058309823
0.030228887 -0.09930908 -0.048283353 0.024169765 -0.02974147 0.33413053 0.017120525 -0.020997858
-0.027809372 -0.033943232 0.023277588 -0.1293929 -0.10187584 0.0310055 0.03179535 -0.22214918
-0.038614757 -0.09087854 0.065672725 -0.14134833 -0.13392083 -0.049400087 0.018253671 -0.13128573
-0.012497664 -0.14103313 -0.033296507 -0.106567316 -0.02864417 -0.048623953 0.011917329 -0.14488342
-0.05960175 0.08239443 0.017432496 -0.14296512 -0.0026415763 0.06976507 -0.06533198 -0.19692276
0.020739542 0.03703567 -0.06378471 -0.15066223 0.06956447 0.009121652 -0.0445996 -0.13082467
0.0045814356 0.027810482 -0.076758705 -0.078993 0.15544306 -0.12075586 -0.030378876 -0.0038710574
-0.010862696 0.129556 -1.3258032e-05 -0.08514594 -0.046072293 -0.077197626 0.023806443 -0.09210732
-0.061959997 0.034715667 -0.029278299 -0.053615037 0.03483282 0.14216486 0.00917043 0.018230977
0.014316326 0.034544375 -0.05325567 0.035390332 0.079728626 0.37067622 0.04322648 0.06494852
-0.059208933 -0.09057042 0.06268293 0.05599684 0.12508608 0.030302132 -0.043060906 -0.01623859
-0.0362016 0.03229809 0.018689588 -0.036830533 0.114964925 0.057686005 0.040673595 0.030479982
0.030334083 0.087159395 0.009537749 -0.058462888 -0.13290052 0.15459116 0.04818139 0.009791386
-0.041155662 0.047423624 -0.051662777 -0.04794837 -0.042321824 0.060639862 0.026551336 -0.02972027
-0.062428333 0.08962098 -0.025982134 -0.09177957 -0.0105443075 0.06521456 0.041611876 -0.0658054
-0.03598293 -0.019012017 0.027516862 -0.02812167 0.1497811 0.13647147 0.03575923 -0.054317888
-0.07897161 -0.028166456 -0.013766037 -0.039701637 0.09196003 -0.07767278 0.013680834 0.049836513
0.018034795 -0.07842194 0.010597541 -0.001731501 0.042415205 0.07057819 -0.010646741 0.0065045785
-0.026515743 -0.11390973 0.10606064 0.04160122 0.17106223 0.04666891 0.104007274 0.07236691
0.08018199 -0.09322882 -0.017322835 -0.08361682 -0.076461025 -0.007960401 0.010587922 -0.12942967
0.03996963 -0.064534016 -0.06051569 0.03347144 0.034943044 0.13186233 -0.04710434 0.040978704
0.046393596 -0.045867477 -0.12522432 0.09735662 0.19086282 0.14865951 -0.048674993 0.07786843
-0.046168003 -0.15390313 0.021812996 0.12880859 -0.06882714 -0.05519956 0.024267344 0.103445806
0.072300956 -0.07560415 0.059510004 -0.043644525 -0.022077885 -0.037043184 0.079722844 -0.018901926
0.08810746 -0.09564464 0.044924382 0.080173954 -0.14384641 0.17314103 -0.032757122 0.013899849
0.02357032 0.05948362 -0.031215025 0.13532177 0.025179913 0.1161166 -0.03939014 0.15291345
-0.054305892 0.038237683 0.062462553 0.08248915 0.03642549 0.1351021 0.017193709 0.012190522
0.018828098 -0.033987645 -0.057994995 -0.007964672 0.07578633 0.009757551 0.038958076 -0.034085948
0.00025537843 0.062067285 -0.02792613 0.026370334 0.09923601 0.19941662 -0.07030432 0.08214116
0.06253862 0.17340748 0.03855202 0.05492723 0.16619758 0.12641256 -0.0028117716 0.076409996
00000000: a8e0 093e 1a98 233d a745 91bb df8a 50bd
00000010: ac96 b5bd 6d46 da3d 284f e938 94c5 d53c
00000020: 6a80 c43d 4ab7 423d 3850 453c ce89 a73b
00000030: e47f bbbc 7bdb 493e 67c0 973d 48d6 6e3d
00000040: 92a2 f73c 8f62 cbbd c4c4 45bd acff c53c
00000050: 62a4 f3bc 2813 ab3e 5840 8c3c b303 acbc
00000060: 7bd0 e3bc 0f08 0bbd a4b0 be3c 937f 04be
00000070: 48a4 d0bd 3fff fd3c d73b 023d 137b 63be
00000080: 822a 1ebd 871e babd 6c7f 863d 9ebd 10be
00000090: 8b22 09be bf57 4abd b988 953c c46f 06be
000000a0: 01c3 4cbc fd6a 10be eb61 08bd f73f dabd
000000b0: 2ea7 eabc e929 47bd e740 433c 525c 14be
000000c0: f720 74bd 69be a83d 98ce 8e3c 7365 12be
000000d0: 4c1e 2dbb fde0 8e3d c6cc 85bd 1fa6 49be
000000e0: f9e5 a93c b7b2 173d 8fa1 82bd 3347 1abe
000000f0: d177 8e3d fb72 153c 12ae 36bd e7f6 05be
00000100: de1f 963b cfd2 e33c ab33 9dbd 15c7 a1bd
00000110: 772c 1f3e d94e f7bd 1fdd f8bc 91b1 7dbb
00000120: 73f9 31bc 54aa 043e d06e 5eb7 ff60 aebd
00000130: 4db6 3cbd ca19 9ebd bb05 c33c c3a2 bcbd
00000140: c4c9 7dbd 0432 0e3d 0bd9 efbc 719b 5bbd
00000150: dcac 0e3d aa93 113e 923f 163c 2159 953c
00000160: 068f 6a3c 677e 0d3d 9e22 5abd 74f5 103d
00000170: c348 a33d 46c9 bd3e 400e 313d bb03 853d
00000180: 1185 72bd fc7c b9bd e85f 803d f15c 653d
00000190: 9116 003e 2d3c f83c a260 30bd cb06 85bc
000001a0: 2148 14bd 014b 043d e81a 993c 9ddb 16bd
000001b0: bb72 eb3d 2948 6c3d 5b99 263d 28b1 f93c
000001c0: 2f7f f83c a080 b23d 3844 1c3c c876 6fbd
000001d0: 1317 08be 254d 1e3e d959 453d 0d6c 203c
000001e0: d792 28bd 463f 423d 599c 53bd 8365 44bd
000001f0: a659 2dbd 8161 783d 3082 d93c ec77 f3bc
00000200: dab4 7fbd 348b b73d 7cd8 d4bc edf6 bbbd
00000210: 08c2 2cbc 368f 853d 3771 2a3d fbc4 86bd
00000220: d662 13bd 17bf 9bbc 0b6b e13c 6b5f e6bc
00000230: 3760 193e 2dbf 0b3e 4578 123d 6f7c 5ebd
00000240: debb a1bd 57bd e6bc f28a 61bc 2f9e 22bd
00000250: 8a55 bc3d e812 9fbd 9425 603c 5f21 4c3d
00000260: b5bd 933c af9b a0bd 4fa1 2d3c 88f3 e2ba
00000270: 91bb 2d3d 4c8b 903d ab6f 2ebc 5c24 d53b
00000280: 8b37 d9bc 8149 e9bd 5236 d93d 0a66 2a3d
00000290: f02a 2f3e e627 3f3d c401 d53d 1a35 943d
000002a0: 7536 a43d c0ee bebd 9ee8 8dbc 4c3f abbd
000002b0: 9997 9cbd 576c 02bc f778 2d3c 3689 04be
000002c0: 32b7 233d 692a 84bd 4ddf 77bd 5919 093d
000002d0: 7020 0f3d eb06 073e 7bf0 40bd 49d9 273d
000002e0: 3607 3e3d 89df 3bbd ce3a 00be e862 c73d
000002f0: 8b71 433e 333a 183e 6e5f 47bd 7c79 9f3d
00000300: a91a 3dbd c898 1dbe 2bb1 b23c 66e6 033e
00000310: 3ef5 8cbd ef18 62bd 4fcc c63c 65db d33d
00000320: 8612 943d 59d6 9abd c3c0 733d 9ac4 32bd
00000330: aedc b4bc 98ba 17bd bb45 a33d 36d8 9abc
00000340: af71 b43d 56e1 c3bd a102 383d 3e32 a43d
00000350: 794c 13be e24b 313e 552c 06bd 31bc 633c
00000360: 8b16 c13c 19a5 733d a7b6 ffbc ca91 0a3e
00000370: 1b46 ce3c 8ace ed3d 8e57 21bd 5895 1c3e
00000380: db6f 5ebd 1e9f 1c3d bcd8 7f3d 12f0 a83d
00000390: e532 153d 3458 0a3e d2d9 8c3c c1ba 473c
000003a0: 623d 9a3c a136 0bbd 298c 6dbd 417e 02bc
000003b0: dd35 9b3d 23de 1f3c 8192 1f3d b59d 0bbd
000003c0: 50e4 8539 443a 7e3d 57c5 e4bc 9906 d83c
000003d0: 403c cb3d df33 4c3e b6fb 8fbd a039 a83d
000003e0: 3f14 803d bb91 313e b9e8 1d3d 60fb 603d
000003f0: b32f 2a3e 4b72 013e b345 38bb d87c 9c3d

fc1.bias f4 [256]
-0.03887971 0.14538242 0.13359764 0.09067498 -0.06386666 -0.16963288 -0.16142988 -0.06738597
-0.23404826 -0.16569573 0.15310764 0.0101518165 0.072839394 -0.04767525 0.047860324 0.1773421
0.020268124 0.04103393 -0.0771846 -0.2100098 0.16321117 -0.060373574 0.13600862 -0.11337764
0.11539908 -0.12463315 0.059866726 0.0028954246 -0.091494985 -0.023803513 -0.13367976 -0.21615648
-0.04633838 0.16505136 -0.11700746 -0.02277789 -0.07984625 0.188688 -0.17636397 0.1571835
-0.18187882 -0.1036267 -0.083619125 -0.1306176 -0.018138759 -0.097300336 -0.015787099 -0.15564881
0.1962204 0.1195248 -0.069805555 0.18438777 -0.071573526 -0.21261811 0.09741547 -0.074341446
0.17262675 -0.025590299 -0.18142964 0.21019414 0.07715474 0.08157282 0.01338186 -0.12305608
0.11130437 -0.025409877 -0.16132581 0.06250848 -0.19233924 -0.11279528 -0.13428725 -0.19120802
-0.17800795 -0.1318575 0.0061352965 0.17801775 0.078072555 0.17463374 0.06254747 -0.0077022985
-0.103696145 -0.099515 -0.20485339 -0.1181242 0.037902232 -0.1936793 -0.21382742 0.11003514
-0.07794175 0.056342795 0.020690318 0.09559001 -0.07155773 0.10020384 -0.19735053 -0.17859887
0.08803792 -0.08362031 0.16749975 0.07526132 0.10052352 -0.07091083 0.0067478465 0.08551724
-0.06983589 0.14602971 0.10549552 -0.012619186 0.15387963 -0.084307745 -0.11338145 -0.12905681
-0.09211099 -0.24213187 -0.013171862 0.12659346 0.2453401 -0.29498926 -0.090684794 0.13724409
-0.07598594 0.0012458223 0.14799118 0.2198177 0.047375947 0.09982412 -0.041491456 0.079951786
0.16938262 -0.16181467 -0.22568902 0.1479492 -0.14832798 0.09633725 0.08420061 0.20215178
0.19412503 -0.044467624 0.09077531 0.1140382 -0.03321209 -0.14861435 0.13857032 0.11943151
0.060741223 -0.16766742 -0.07024267 -0.11352622 -0.031101955 0.15830906 0.021362096 0.1649996
0.14838797 -0.15994284 0.16515584 0.060147554 0.20107959 0.06553844 -0.06724907 0.15817484
-0.18730141 -0.065802656 0.0032725336 -0.008361257 -0.099493995 0.15501514 -0.064511746 0.03150735
0.04505795 0.14800015 -0.0045441277 -0.13956235 -0.21452932 -0.13003702 -0.17803358 -0.059635594
0.032166403 0.2126514 -0.111536846 0.21701352 -0.11855132 0.149712 0.15774241 0.104165465
0.26713896 -0.18822661 -0.20150085 -0.14507568 -0.04779147 0.13909535 0.1573082 0.09497474
0.01190824 -0.13807166 0.1684155 -0.16273524 -0.08632104 0.20948389 0.10585256 0.06924783
0.014560294 0.01282253 0.021525873 -0.035109438 0.20024006 0.21955551 0.0017230674 0.118455894
-0.03561283 -0.07634049 0.0713106 -0.046848882 0.14635603 -0.02213098 -0.059110995 -0.1891153
0.1386176 0.15644234 0.028919613 0.0601783 -0.1723386 0.0682769 0.15596077 0.039511506
-0.02853964 -0.24038497 0.0889247 -0.03450496 -0.050996862 -0.13731767 0.21795514 0.20216468
-0.11087724 -0.025660437 0.074927785 0.024741642 -0.046448294 0.1458801 0.0092719095 0.15946414
-0.12105293 -0.09809762 0.041245837 9.9789344e-05 -0.034994964 0.24807191 0.042518627 -0.09868066
0.0035904525 -0.15775275 -0.073392175 -0.07044475 0.17242256 0.11086685 -0.15233669 0.09097346
00000000: 5540 1fbd 21df 143e d2cd 083e ceb3 b93d
00000010: 86cc 82bd 3eb4 2dbe e04d 25be a801 8abd
00000020: 59aa 6fbe 24ac 29be 40c8 1c3e ce53 263c
00000030: d22c 953d 1f47 43bd 3009 443d 2b99 353e
00000040: 5609 a63c 3213 283d f612 9ebd cf0c 57be
00000050: d420 273e 484a 77bd d845 0b3e 8932 e8bd
00000060: 5a56 ec3d aa3f ffbd d036 753d 2ac1 3d3b
00000070: b961 bbbd 96ff c2bc 59e3 08be 2058 5dbe
00000080: 50cd 3dbd 3903 293e 9ba1 efbd b398 babc
00000090: 6e86 a3bd 6d37 413e c298 34be b6f4 203e
000000a0: 713e 3abe 3c3a d4bd 8140 abbd 9fc0 05be
000000b0: bc97 94bc 6645 c7bd f253 81bc 6762 1fbe
000000c0: 00ee 483e 6bc9 f43d 37f6 8ebd 26d0 3c3e
000000d0: 2495 92bd 90b8 59be c381 c73d 5440 98bd
000000e0: 11c5 303e bfa2 d1bc b1c8 39be 223d 573e
000000f0: 4e03 9e3d a70f a73d 973f 5b3c d304 fcbd
00000100: 8cf3 e33d 6028 d0bc 9832 25be 7204 803d
00000110: 94f4 44be 3601 e7bd 9982 09be 09cc 43be
00000120: b747 36be a705 07be 990a c93b 494a 363e
00000130: 81e4 9f3d 30d3 323e e318 803d 9063 fcbb
00000140: a55e d4bd 85ce cbbd 16c5 51be 1aeb f1bd
00000150: 5f3f 1b3d de53 46be 93f5 5abe 1a5a e13d
00000160: ed9f 9fbd b4c7 663d be7e a93c b2c4 c33d
00000170: dc8c 92bd ac37 cd3d 4216 4abe 9fe2 36be
00000180: 3a4d b43d 2041 abbd 0e85 2b3e 9b22 9a3d
00000190: 46df cd3d b239 91bd 0a1d dd3b aa23 af3d
000001a0: 1e06 8fbd d088 153e 090e d83d b4c0 4ebc
000001b0: 9f92 1d3e 8aa9 acbd 8934 e8bd 7827 04be
000001c0: b0a4 bcbd 6bf1 77be cbce 57bc b7a1 013e
000001d0: 6f3a 7b3e d508 97be f3b8 b9bd b789 0c3e
000001e0: 849e 9bbd dc4a a33a 008b 173e e417 613e
000001f0: 480d 423d 9770 cc3d f2f2 29bd c3bd a33d
00000200: a372 2d3e bfb2 25be 061b 67be ff7f 173e
00000210: 4ae3 17be 774c c53d 5f71 ac3d e000 4f3e
00000220: b6c8 463e af23 36bd 68e8 b93d dc8c e93d
00000230: 6709 08bd 5c2e 18be 61e5 0d3e 8298 f43d
00000240: cacb 783d 02b1 2bbe 64db 8fbd 6f80 e8bd
00000250: 87c9 febc c51b 223e 90ff ae3c a8f5 283e
00000260: 04f3 173e 0ec8 23be 9d1e 293e 485d 763d
00000270: cfe7 4d3e 0539 863d e1b9 89bd 96f8 213e
00000280: f1cb 3fbe 8bc3 86bd 0178 563b a7fd 08bc
00000290: 82c3 cbbd 4abc 1e3e bc1e 84bd da0d 013d
000002a0: af8e 383d 5a8d 173e e8e6 94bb 6fe9 0ebe
000002b0: 93ad 5bbe 6d28 05be 6f4e 36be 7444 74bd
000002c0: ebc0 033d 4ac1 593e 6e6d e4bd cb38 5e3e
000002d0: 09cb f2bd 1a4e 193e 3a87 213e b454 d53d
000002e0: 70c6 883e 7abe 40be 3d56 4ebe b88e 14be
000002f0: fdc0 43bd 036f 0e3e 6715 213e 1e82 c23d
00000300: c71a 433c a862 0dbe 1d75 2c3e 11a4 26be
00000310: 16c9 b0bd f282 563e 3ac9 d83d ced1 8d3d
00000320: 4d8e 6e3c 9715 523c 0757 b03c eace 0fbd
00000330: bb0b 4d3e 29d3 603e 8cd8 e13a 0199 f23d
00000340: c2de 11bd 6758 9cbd 4b0b 923d 9de4 3fbd
00000350: 5bde 153e 074c b5bc 5f1e 72bd 71a7 41be
00000360: c6f1 0d3e 6c32 203e d3e8 ec3c 857d 763d
00000370: 8879 30be c2d4 8b3d 2eb4 1f3e d1d6 213d
00000380: f7cb e9bc 7a27 76be 271e b63d 1355 0dbd
00000390: 16e2 50bd 019d 0cbe a22f 5f3e 4204 4f3e
000003a0: 9b13 e3bd d635 d2bc bd73 993d fcae ca3c
000003b0: 9140 3ebd 9861 153e 35e9 173c 914a 233e
000003c0: 99ea f7bd 68e7 c8bd 65f1 283d ff45 d138
000003d0: e156 0fbd 9006 7e3e 0328 2e3d 1619 cabd
000003e0: cc4d 6b3b f089 21be a34e 96bd 5645 90bd
000003f0: 8a8f 303e 290e e33d 26fe 1bbe 4b50 ba3d

fc2.weight f4 [128, 256]
-0.28234723 0.073843084 -0.040820386 -0.039841168 0.026920099 0.052921217 0.00061643927 0.026815755
0.025744898 0.09822838 -0.119531915 -0.12933666 0.091810234 -0.12638013 0.067693084 -0.069551066
-0.055151507 0.00789779 0.15928572 -0.11449774 -0.15572746 -0.078126796 -0.24346605 -0.00413467
-0.099584006 -0.1641035 -0.069540225 -0.10837651 -0.075293176 -0.17747936 0.09433061 -0.026528504
0.16665837 -0.05242359 0.054596543 0.0615859 -0.07262351 -0.06177188 0.04020866 0.04940996
0.10915381 0.0693498 0.033349633 -0.008910678 0.23232324 0.1518525 0.028891195 -0.053581387
0.0561377 -0.016155092 -0.004414471 -0.07117373 0.027997958 0.0034615179 -0.18920104 -0.0059858114
0.03223411 0.115944676 -0.06828219 -0.088654056 -0.15776177 0.12527929 0.15070467 0.030553276
-0.116797656 -0.000762165 -0.18364583 0.0072698747 -0.023583254 0.07371152 0.07290581 -0.1344225
0.048981495 0.13977745 0.13287081 0.026203038 0.017274426 -0.14776368 -0.12639046 -0.011551682
-0.12759303 -0.06179387 0.09780129 0.12918624 0.12393128 -0.13441397 0.011085374 -0.11056415
-0.06718673 0.089401014 0.08455282 -0.005812307 -0.043916017 0.05791145 -0.1490803 0.069894016
0.09788342 -0.121917166 0.044592537 -0.02368995 0.07594148 0.15569964 0.025230559 0.122571
0.07453014 -0.21309824 0.06640842 0.10546912 -0.08811244 0.15311277 -0.3316201 -0.10793545
0.02584613 0.08208764 -0.14530902 0.04456423 0.0012579903 0.16660559 -0.009037874 -0.06245658
0.08771504 -0.022865813 -0.1353766 -0.0080460245 0.03023981 0.019221725 0.026316803 -0.025142293
-0.0753031 -0.08732639 -0.019593462 0.015357996 0.0025180127 0.11811895 0.18599528 -0.09706414
-0.1378858 0.27226833 0.02374182 0.06849723 0.113935836 0.07149602 0.0756818 -0.20976983
0.04677068 0.15107884 0.045074236 0.06536317 -0.04403132 0.1935575 0.068479046 -0.15240124
0.0035956013 0.0020923824 0.025399532 -0.07115016 -0.05662966 0.008678338 0.029062092 0.11948186
0.08961927 0.00700247 0.09827645 0.12783599 0.009251972 -0.10563738 -0.101154186 0.08707348
0.072354496 0.05714898 -0.03855886 0.028679496 -0.032630745 -0.077730425 0.041322306 -0.12445274
0.03934924 0.08238479 0.1478947 0.01851876 0.018693376 -0.033074632 0.21995924 -0.030107535
0.013756119 0.14719145 0.004234634 0.049528886 0.005416067 0.11670212 -0.0645731 0.13095124
-0.10129246 -0.03258345 0.00017352786 0.01581329 -0.026616877 -0.0021391662 0.15161958 -0.16103384
-0.054088227 0.037498154 -0.035990413 -0.08895048 -0.06944502 -0.049659893 -0.17503169 0.083045304
-0.12564452 0.034069322 0.019411024 0.24424364 0.025242552 0.13905655 0.201942 -0.06634741
-0.022142986 0.054901015 -0.06995204 -0.3003004 -0.08019328 -0.19456136 0.0975842 -0.03527326
-0.008776959 0.07716195 -0.09975097 0.15448362 -0.030305192 0.015002228 -0.039063703 0.029355427
-0.008113773 -0.072381124 -0.042567875 -0.079593375 0.028713373 -0.007965747 0.010294916 0.098391615
-0.032602698 0.03715012 0.11599454 -0.11228521 0.028625797 0.07565592 0.074630596 -0.04970718
0.055128515 0.0563519 0.078714244 -0.2616516 0.002768774 -0.021733752 0.010053235 -0.1108288
00000000: d18f 90be 0b3b 973d 4733 27bd 7e30 23bd
00000010: 8a87 dc3c ebc3 583d 8a98 213a b7ac db3c
00000020: f7e6 d23c f62b c93d 26cd f4bd d470 04be
00000030: 0107 bc3d cb69 01be aca2 8a3d ca70 8ebd
00000040: 8ce6 61bd bb65 013c cc1b 233e cb7d eabd
00000050: 0577 1fbe f100 a0bd 2a4f 79be 207c 87bb
00000060: b3f2 cbbd bf0a 28be 1b6b 8ebd 81f4 ddbd
00000070: 4f33 9abd 26bd 35be 6830 c13d 4e52 d9bc
00000080: 7ea8 2a3e 1eba 56bd a0a0 5f3d 7f41 7c3d
00000090: a3bb 94bd 8304 7dbd d6b1 243d 1962 4a3d
000000a0: 088c df3d 4507 8e3d a099 083d 18fe 11bc
000000b0: 25e6 6d3e 397f 1b3e 3aad ec3c 2878 5bbd
000000c0: a5f0 653d af57 84bc 44a7 90bb 88c3 91bd
000000d0: f95b e53c a2da 623b ebbd 41be a024 c4bb
000000e0: ea07 043d 6774 ed3d 88d7 8bbd 4290 b5bd
000000f0: 4d8c 21be 3749 003e 5352 1a3e dd4a fa3c
00000100: 9c33 efbd 07cc 47ba a70d 3cbe 2138 ee3b
00000110: ab31 c1bc 11f6 963d a44f 953d 0da6 09be
00000120: d2a0 483d d221 0f3e 490f 083e c1a7 d63c
00000130: 1983 8d3c 5d4f 17be 806c 01be 4443 3dbc
00000140: bfa7 02be 921b 7dbd 0b4c c83d 6649 043e
00000150: afcf fd3d d1a3 09be 6e9f 353c 756f e2bd
00000160: 3299 89bd e117 b73d 072a ad3d 2a75 bebb
00000170: 48e1 33bd 8e34 6d3d 82a8 18be 9824 8f3d
00000180: 1a77 c83d b5af f9bd aaa6 363d 6d11 c2bc
00000190: 3587 9b3d ba6f 1f3e 51b0 ce3c 8106 fb3d
000001a0: 42a3 983d 6d36 5abe 2301 883d 3200 d83d
000001b0: 4c74 b4bd 98c9 1c3e 1cca a9be 430d ddbd
000001c0: 43bb d33c 911d a83d e3cb 14be fb88 363d
000001d0: 26e3 a43a a89a 2a3e 9713 14bc 79d2 7fbd
000001e0: f1a3 b33d 1651 bbbc 2aa0 0abe 79d3 03bc
000001f0: 7ab9 f73c e176 9d3c 5696 d73c 36f7 cdbc
00000200: 8338 9abd 2ed8 b2bd 7882 a0bc 1ba0 7b3c
00000210: 3e05 253b 59e8 f13d 8c75 3e3e 90c9 c6bd
00000220: ef31 0dbe c166 8b3e 357e c23c 4748 8c3d
00000230: 3157 e93d 816c 923d 0fff 9a3d e7cd 56be
00000240: 9d92 3f3d 69b4 1a3e c39f 383d 20dd 853d
00000250: 2f5a 34bd f033 463e be3e 8c3d 120f 1cbe
00000260: 2ea4 6b3b 5a20 093b ae12 d03c 2db7 91bd
00000270: 81f4 67bd 962f 0e3c a013 ee3c e8b2 f43d
00000280: 4f8a b73d fa74 e53b 2a45 c93d 70e7 023e
00000290: 9595 173c 6958 d8bd ed29 cfbd 9553 b23d
000002a0: 982e 943d 0d15 6a3d e5ef 1dbd 43f1 ea3c
000002b0: d1a7 05bd 2131 9fbd 9441 293d 14e1 febd
000002c0: ab2c 213d 5bb9 a83d b571 173e a8b4 973c
000002d0: da22 993c 4479 07bd ff3c 613e 14a4 f6bc
000002e0: 5861 613c 5bb9 163e afc2 8a3b cdde 4a3d
000002f0: 4379 b13b 8501 ef3d e73e 84bd 1518 063e
00000300: 6c72 cfbd 3976 05bd 08f5 3539 df8a 813c
00000310: a30b dabc 4131 0cbb 2a42 1b3e 0ee6 24be
00000320: 9e8b 5dbd aa97 193d af6a 13bd ab2b b6bd
00000330: 3139 8ebd 2c68 4bbd 823b 33be a813 aa3d
00000340: f5a8 00be 468c 0b3d de03 9f3c 011b 7a3e
00000350: 78c9 ce3c d764 0e3e e2c9 4e3e 27e1 87bd
00000360: 3565 b5bc e3df 603d 0443 8fbd f9c0 99be
00000370: 603c a4bd 183b 47be 3ada c73d b27a 10bd
00000380: 3ccd 0fbc 1607 9e3d 3d4a ccbd f430 1e3e
00000390: 9842 f8bc e8cb 753c 4301 20bd cb7a f03c
000003a0: a1ef 04bc 8e3c 94bd a75b 2ebd da01 a3bd
000003b0: 4f38 eb3c c482 02bc 02ac 283c 8b81 c93d
000003c0: 688a 05bd b92a 183d 8c8e ed3d caf5 e5bd
000003d0: a680 ea3c 7ef1 9a3d edd7 983d c299 4bbd
000003e0: 70ce 613d 40d1 663d ef34 a13d 33f7 85be
000003f0: 5274 353b fb0a b2bc 53b6 243c 36fa e2bd

fc2.bias f4 [128]
0.06083169 0.024590865 -0.08872979 0.009663761 0.0044757957 0.08313481 0.06962395 -0.13996615
0.055299085 0.04065673 0.04829712 0.08519201 -0.05702913 0.046556413 0.008252977 -0.015569233
-0.09756444 -0.011621956 -0.038492948 -0.018002246 0.003143171 -0.03634498 -0.03020554 0.058265448
0.120758 0.0071979524 -0.07841532 0.038170487 0.005301758 -0.04105586 0.04595588 0.06282227
-0.075067244 -0.07143637 -0.1262644 0.006899796 0.046635516 -0.0340885 -0.017836018 -0.046506945
0.033044517 0.032520995 0.01950713 0.12004089 0.00043183687 -0.02796736 -0.0032558658 0.14708
0.012826753 -0.08040929 -0.02740748 0.019610958 -0.03345585 0.0057308897 -0.006423291 0.096659504
0.049159262 0.11292154 -0.021433538 -0.0035180799 0.008696259 -0.021906141 -0.029070979 -0.0057716016
0.100506745 0.052636836 -0.05776202 -0.06295322 -0.05030961 0.11427667 -0.025133722 -0.091247484
0.027705314 -0.0890389 0.037196152 -0.008087167 -0.10658545 0.001964773 -0.0928404 -0.08616797
0.0021077269 -0.03481778 0.030413507 -0.078064755 -0.0062487214 -0.023641868 -0.04282313 -0.07209479
0.059350934 -0.05695197 0.08375924 0.0476553 0.004609133 -0.014843395 0.09210028 -0.0024257298
0.0547031 -0.027617587 0.01362384 0.035433933 0.04860347 -0.0020826166 -0.03865996 0.046581745
-0.04142749 -0.068717174 -0.06159687 -0.046892036 0.0006275479 0.092396915 -0.060544804 -0.0298292
-0.016401311 0.10825632 -0.0081460485 -0.0014523071 -0.0057502165 -0.028259791 0.02938027 -0.03869122
0.025827391 0.036509175 0.064905286 -0.03360849 -0.019555261 0.01996217 0.04560794 -0.05259887
00000000: a62a 793d c872 c93c f7b7 b5bd c054 1e3c
00000010: b2a9 923b 9542 aa3d 0097 8e3d 4953 0fbe
00000020: 4b81 623d ac87 263d 33d3 453d 2679 ae3d
00000030: 6197 69bd f0b1 3e3d 7f37 073c 1916 7fbc
00000040: ddcf c7bd 046a 3ebc c8aa 1dbd 7279 93bc
00000050: a9fd 4d3b 79de 14bd 9c71 f7bc c0a7 6e3d
00000060: f84f f73d cddc eb3b 3698 a0bd a858 1c3d
00000070: 5fba ad3b 312a 28bd 3c3c 3c3d f6a8 803d
00000080: dbbc 99bd 3b4d 92bd 744b 01be af17 e23b
00000090: e204 3f3d 62a0 0bbd d71c 92bc 117e 3ebd
000000a0: b059 073d bc34 053d 6bcd 9f3c 00d8 f53d
000000b0: 2a68 e239 ce1b e5bc 5d60 55bb 249c 163e
000000c0: 4d27 523c a0ad a4bd a785 e0bc 29a7 a03c
000000d0: 0009 09bd 30ca bb3b 787a d2bb 6bf5 c53d
000000e0: 395b 493d 6943 e73d 6395 afbc 968f 66bb
000000f0: c17a 0e3c 8274 b3bc 4326 eebc b41f bdbb
00000100: 7bd6 cd3d b999 573d de97 6cbd 9eed 80bd
00000110: 7311 4ebd e309 ea3d 3ce5 cdbc f6df babd
00000120: 41f6 e23c 075a b6bd fe5a 183d 0980 04bc
00000130: 7949 dabd 6cc3 003b 1c23 bebd d578 b0bd
00000140: ca21 0a3b 179d 0ebd bf25 f93c 6ae0 9fbd
00000150: 13c2 ccbb 97ac c1bc 4e67 2fbd 6fa6 93bd
00000160: f719 733d 7846 69bd f789 ab3d 3432 433d
00000170: 3608 973b b631 73bc 129f bc3d fef8 1ebb
00000180: 5c10 603d 473e e2bc 8736 5f3c 2c23 113d
00000190: 6f14 473d 827c 08bb e859 1ebd 80cc 3e3d
000001a0: dfaf 29bd 97bb 8cbd 004d 7cbd dd11 40bd
000001b0: 0782 243a 983a bd3d d4fd 77bd 5e5c f4bc
000001c0: 0b5c 86bc 7db5 dd3d 0177 05bc 575b beba
000001d0: 506c bcbb 1481 e7bc e4ae f03c af7a 1ebd
000001e0: f793 d33c a58a 153d 10ed 843d 0ea9 09bd
000001f0: 5b32 a0bc b487 a33c 64cf 3a3d ea71 57bd

fc3.weight f4 [2, 128]
0.11705553 -0.14605281 -0.1630406 0.18219928 -0.114800535 -0.028733363 0.09168577 0.28583458
-0.064620994 0.013625178 -0.26397943 0.09478914 -0.45498282 -0.025659675 -0.0014079809 -0.07694309
0.15351178 -0.09096753 0.03464855 0.17368485 -0.017962344 -0.2231067 -0.2697021 -0.09919895
-0.01820302 -0.29611215 0.07651255 -0.10449711 0.24728732 -0.084925726 0.01947373 0.008948645
0.1523957 -0.1524987 -0.037567984 0.111927286 -0.2916836 0.0081323385 0.10031637 -0.062025495
-0.0064089703 0.1498937 -0.10509702 0.027129667 -0.03517656 0.015443328 0.06528532 0.088365406
0.063534 0.102659516 -0.10214375 0.062039334 0.10258314 -0.26192018 -0.19836475 0.07088332
0.07456247 0.006393692 0.06515636 0.21874703 -0.008354158 0.11033485 0.08708799 0.15142088
-0.02890116 0.08935767 0.09653316 -0.18026571 -0.19391859 -0.047296435 -0.24197467 0.08425994
0.18238194 -0.22658993 0.2246686 -0.11888627 -0.5520922 -0.1871716 0.24422869 0.10104486
-0.16464615 -0.20263338 0.03503261 0.23665655 0.0736812 -0.15520531 -0.52635455 -0.23533262
-0.21406026 0.12458363 0.071109094 -0.059746057 -0.0008195806 0.033639595 -0.039251804 -0.09632732
-0.15766378 0.07191347 -0.07811026 -0.09275863 0.09966781 0.21776226 -0.17408258 -0.05661008
-0.059372753 0.15919545 0.20544595 0.1910657 -0.22342287 -0.04620248 -0.14491168 0.21812516
0.06117656 0.080649905 -0.20829156 -0.10068402 0.23684643 -0.117405504 0.04290696 0.052936535
-0.005584256 0.12553474 0.096682414 -0.2402158 -0.12031189 0.102320336 0.06020275 -0.16740169
0.15005688 0.020307073 0.12091753 0.08415141 -0.070196666 -0.1409637 -0.006427228 0.09105141
0.2851466 -0.040318336 0.21074599 -0.0795866 0.45761874 -0.12576137 -0.097915486 0.37469912
0.10870535 0.20031956 0.08725024 0.18736646 0.3372863 0.1110513 0.31723526 0.02522984
-0.17617661 -0.0124188615 0.19703509 0.021277692 0.0068410747 0.18784603 -0.1202501 -0.11203907
0.09361665 0.2538704 0.25125575 0.1920711 0.07689786 0.54965717 0.15592162 0.10067908
0.04204361 0.013549094 0.23442037 -0.18070248 0.30101293 0.2646208 0.06811124 0.13429694
0.22551414 0.13470809 0.00908329 0.05929343 -0.049050555 0.088081054 0.23150134 0.2546578
0.03349218 -0.14002655 -0.025955793 0.058358066 -0.09023035 -0.030161498 0.06395758 0.21407683
-0.11996641 0.00025747795 0.15473817 0.24322507 0.00020294724 -0.13420013 0.15690057 0.3258
0.27001268 0.11711602 0.06421794 0.2736874 0.27635002 -0.20401832 -0.021526787 0.29795304
0.1267624 -0.16504636 -0.083463974 0.015693663 0.12202004 0.38410857 0.34936807 0.21852773
0.2613835 -0.007489757 -0.059126 0.041965324 0.00040766195 0.11991868 -0.15346035 -0.10122958
0.15690537 -0.03287764 0.0877878 0.1968387 0.22752346 -0.11004912 0.13063739 0.06697924
-0.15626492 0.12721685 -0.0680943 0.07245962 0.016280735 0.31691477 0.09762061 0.1788513
0.034615576 -0.04669841 -0.15744045 0.15665264 0.16824035 -0.006783056 0.3294198 0.31929085
0.23658212 0.1355712 0.26366463 0.08689659 -0.057481352 0.041151047 0.186352 0.17561677
00000000: cfba ef3d de8e 15be 1df4 26be 7392 3a3e
00000010: 8b1c ebbd 3b62 ebbc c0c5 bb3d e958 923e
00000020: 0358 84bd 233c 5f3c 5028 87be cf20 c23d
00000030: 82f3 e8be 3d34 d2bc 008c b8ba 5794 9dbd
00000040: 3132 1d3e 2f4d babd a3eb 0d3d 71da 313e
00000050: c425 93bc 1576 64be 6516 8abe d228 cbbd
00000060: 801e 95bc 039c 97be 9db2 9c3d 9502 d6bd
00000070: e338 7d3e 8aed adbd 5f87 9f3c 569d 123c
00000080: 9e0d 1c3e 9f28 1cbe e3e0 19bd 223a e53d
00000090: 8e57 95be 803d 053c ab72 cd3d 720e 7ebd
000000a0: 5702 d2bb bc7d 193e 1b3d d7bd 093f de3c
000000b0: 4c15 10bd 0306 7d3c 4fb4 853d ecf8 b43d
000000c0: 1d1e 823d 273f d23d be30 d1bd f51c 7e3d
000000d0: 1c17 d23d 671a 86be 2120 4bbe 462b 913d
000000e0: 35b4 983d 2d82 d13b b370 853d 39ff 5f3e
000000f0: e1df 08bc 3df7 e13d 305b b23d 130e 1b3e
00000100: 20c2 ecbc 2701 b73d 2db3 c53d 9397 38be
00000110: 9892 46be e8b9 41bd 35c8 77be 7a90 ac3d
00000120: 55c2 3a3e 3107 68be 870f 663e a57a f3bd
00000130: ea55 0dbf e9a9 3fbe 1617 7a3e 9cf0 ce3d
00000140: 0099 28be 207f 4fbe 5b7e 0f3d 1856 723e
00000150: 2be6 963d 24ee 1ebe 2cbf 06bf 09fb 70be
00000160: 9d32 5bbe b425 ff3d a5a1 913d 48b8 74bd
00000170: 1fd9 56ba acc9 093d 80c6 20bd 4247 c5bd
00000180: 9d72 21be 5f47 933d 46f8 9fbd 3df8 bdbd
00000190: a31e cc3d 12fd 5e3e b442 32be f9df 67bd
000001a0: d830 73bd 2204 233e 6c60 523e baa6 433e
000001b0: f7c8 64be d03e 3dbd ba63 14be 345c 5f3e
000001c0: 4694 7a3d c72b a53d 624a 55be 6c33 cebd
000001d0: df87 723e 4c72 f0bd 35bf 2f3d fbd3 583d
000001e0: 22fc b6bb 2e8c 003e 6e01 c63d 21fb 75be
000001f0: 1566 f6bd 538d d13d 2997 763d 596b 2bbe
00000200: 83a8 193e 055b a63c 9ca3 f73d 9357 ac3d
00000210: 45c3 8fbd ca58 10be 7f9b d2bb 2979 ba3d
00000220: bcfe 913e d724 25bd cccd 573e 4dfe a2bd
00000230: 014d ea3e 97c7 00be ea87 c8bd 90d8 bf3e
00000240: e9a0 de3d 9220 4d3e 41b0 b23d fedc 3f3e
00000250: cab0 ac3e dd6e e33d a96c a23e cfae ce3c
00000260: a467 34be 7b78 4bbc 91c3 493e 8e4e ae3c
00000270: 182b e03b b65a 403e af45 f6bd bd74 e5bd
00000280: 16ba bf3d 4dfb 813e 98a4 803e 49ae 443e
00000290: a07c 9d3d 55b6 0c3f eba9 1f3e d530 ce3d
000002a0: ec35 2c3d 05fd 5d3c e50b 703e 120a 39be
000002b0: 5e1e 9a3e 617c 873e e87d 8b3d 2385 093e
000002c0: 2eed 663e ebf0 093e 14d2 143c abdd 723d
000002d0: 3ce9 48bd d763 b43d b00e 6d3e 8262 823e
000002e0: 192f 093d 1f63 0fbe 3ea1 d4bc de08 6f3d
000002f0: b1ca b8bd 3f15 f7bc 31fc 823d f536 5b3e
00000300: f3b0 f5bd 1bfe 8639 af73 1e3e fe0f 793e
00000310: 3cce 5439 c26b 09be 8baa 203e 42cf a63e
00000320: 1a3f 8a3e 86da ef3d b284 833d c120 8c3e
00000330: c07d 8d3e 2eea 50be f258 b0bc 4d8d 983e
00000340: 01ce 013e ea01 29be 29ef aabd ff8f 803c
00000350: a5e5 f93d e1a9 c43e 5fe0 b23e bcc5 5f3e
00000360: 0fd4 853e a36c f5bb 1b2e 72bd d5e3 2b3d
00000370: 76bb d539 ed97 f53d b624 1dbe 7451 cfbd
00000380: cdab 203e b4aa 06bd 17ca b33d 1690 493e
00000390: e9fb 683e 6f61 e1bd cfc5 053e 692c 893d
000003a0: e903 20be 2245 023e 0675 8bbd b665 943d
000003b0: 2d5f 853c a742 a23e 50ed c73d cc24 373e
000003c0: 10c9 0d3d d546 3fbd 1238 21be 8d69 203e
000003d0: 3347 2c3e 6644 debb b6a9 a83e 177a a33e
000003e0: 9542 723e 2dd3 0a3e 0dff 863e d7f6 b13d
000003f0: 9171 6bbd 008e 283d 0fd3 3e3e e2d4 333e

fc3.bias f4 [2]
-0.002060145 -0.02402987
00000000: 7f03 07bb 4ada c4bc
