p2_continuous-control/checkpoint_critic.pth (torch_old, 542602 bytes, 5 tensors)

fcs1.weight f4 [400, 33]
000000 7c 91 d2 be 60 9d 96 3f a2 48 94 3d 3e 74 5b 3e
       -0.4112662 1.1766777 0.07240416 0.21431062
000010 70 b1 6e 3e df 47 af bc d3 91 d1 3e 12 70 86 3d
       0.23309875 -0.021396575 0.40931568 0.065643445
000020 58 fa c3 be 19 8c 11 be 0c 79 91 3d f2 7b 8e 3e
       -0.38276935 -0.142136 0.07103166 0.27828938
000030 4f 63 6f 3d 85 a7 46 3e 73 04 80 be a5 5a 72 3e
       0.058444317 0.19399841 -0.25003394 0.2366739
000040 ba 8a 0f 3c db ae 98 be da 24 3f 3c da 6c f5 be
       0.008761102 -0.29820904 0.011666501 -0.4793461
000050 95 e7 af bd 2f b8 6d be 8a 5c f2 3d 0c 2d 89 3d
       -0.08589093 -0.23214792 0.11834057 0.06698045
000060 cd 84 70 3d de 40 26 3e 55 be 3d 3e bc fb 07 3f
       0.0587204 0.16235682 0.18529637 0.5311849
000070 99 ea f5 bd 76 7f 9a 3c 27 13 0a bf e4 87 79 3c
       -0.120076366 0.018859606 -0.53935474 0.015230153
000080 fa 74 7a 3f 7f df 35 be 37 3e d2 3e d9 65 11 be
       0.9783474 -0.17761038 0.4106309 -0.14199008
000090 0e d1 5b 3d 47 c1 d2 3e d6 3f 14 3e 4a 68 e1 bd
       0.053666167 0.41163084 0.14477476 -0.1100622
0000a0 0f 1f 37 3d 53 21 23 be 5b 9d b6 bc 57 11 e0 bb
       0.044707354 -0.15930681 -0.02229183 -0.0068380046
0000b0 37 35 15 3e bc 65 a9 3c 7d 3e d3 3e 71 54 95 bd
       0.14571081 0.020678394 0.41258612 -0.072914965
0000c0 8a 43 a8 3e 2e 32 78 3d fb fa da 3b 48 75 97 b9
       0.32864028 0.06059473 0.0066827512 -0.00028888346
0000d0 bb 7e 03 3e a6 72 bd bb 3b fd ff 3d 2a 64 b0 bc
       0.12841313 -0.0057814894 0.12499472 -0.021532137
0000e0 df 2f 38 3d 39 f0 9d bd 95 9a a0 3d 67 33 48 bc
       0.04496753 -0.077118345 0.07841984 -0.0122192865
0000f0 e0 50 5d 3f 00 81 aa be 50 bf b4 bc 46 91 64 bf
       0.8645153 -0.33301544 -0.022063881 -0.8928417
000100 d5 e6 40 3d 44 05 df bf d4 83 db be eb 97 9e be
       0.04709514 -1.7423482 -0.42874014 -0.3097528
000110 e1 7f 01 3f dd b8 98 bc 76 01 47 bc c6 3b a4 3d
       0.5058575 -0.018642837 -0.012146344 0.080192134
000120 7e b7 bf bd 62 e1 86 3d e6 84 4b 3f c9 93 98 bf
       -0.0936117 0.06585957 0.7949966 -1.19201
000130 f9 6e 95 3e fd 11 a1 3d d2 ba 19 3d c8 31 a0 be
       0.29186228 0.07864759 0.03753168 -0.3128798
000140 b4 6d 21 3f 79 f9 cb be 5e 79 bf be dd b3 be 3c
       0.6305802 -0.3983877 -0.37397283 0.023279125
000150 d5 23 af be 04 60 9c 3d 2a a2 e1 3d b1 1a d5 3d
       -0.34207025 0.07635501 0.110172585 0.104054816
000160 9a 42 aa bc b0 47 2d be af 47 ae 3d d5 38 81 be
       -0.020783711 -0.16921878 0.08509766 -0.25238672
000170 4e 70 1e 3d f3 1b 70 3f ec df 49 3e e8 34 23 3c
       0.03868132 0.9379265 0.19714326 0.009961344
000180 30 52 65 bf 30 62 14 bd 25 85 bf 3f 21 01 84 be
       -0.89578533 -0.03622645 1.4962507 -0.2578211
000190 f0 0a 28 3f 95 44 56 3e 27 66 19 be a8 1f 8a 3e
       0.6564169 0.209246 -0.14980374 0.26977277
0001a0 96 d9 96 3e af e1 ae bd bc e7 af 3e 39 6d 25 bf
       0.2946288 -0.085391395 0.34356487 -0.64619786
0001b0 28 6f c4 3e 2f e8 fd bd 3f 86 ed 3d f6 88 53 be
       0.38366055 -0.12397801 0.11597871 -0.20657715
0001c0 35 f5 8c 3b ea aa 1f bf 77 15 b3 be 20 99 b1 3a
       0.004301692 -0.6237017 -0.34977314 0.0013549663
0001d0 cb 03 ae bc 90 c1 d7 3d 01 a5 9e bd 56 12 a0 bd
       -0.021242043 0.10534966 -0.07746316 -0.07815997
0001e0 37 d8 c3 3d 88 08 10 bd b9 cc 04 bd 32 84 9a be
       0.09562724 -0.035164386 -0.0324218 -0.30178982
0001f0 a3 55 3d 3d 04 c7 0b 3d 12 58 90 3f 86 15 e4 bd
       0.046224248 0.034125343 1.1276877 -0.11136918
000200 34 02 8a bc c2 ad 87 bf 98 6c 40 bc 71 1e 11 be
       -0.016846754 -1.0599902 -0.011744641 -0.14171769
000210 1f 62 a9 be c4 79 80 3d 70 fd 89 bd f2 59 da be
       -0.33082673 0.06273225 -0.067377925 -0.42646748
000220 18 31 52 bf f0 87 76 bf 84 8c 6c bf d4 f6 a4 3e
       -0.8210616 -0.96301174 -0.9240191 0.32219565
000230 a1 ae b8 3e 67 6d 2e 3d 71 4c 68 be a0 1e f7 3e
       0.3607073 0.042584803 -0.2268541 0.48265553
000240 25 5b fe 3b e0 65 08 3e 06 28 17 3f 6f ce f5 3d
       0.00776233 0.13320112 0.59045446 0.12002265
000250 9e 4e fa be 1d e4 64 be be 10 68 3f da 73 45 3e
       -0.48888105 -0.22352643 0.90650547 0.19282475
000260 a3 03 95 be 2e 1e 86 be 56 30 0a bf fa 17 03 bd
       -0.29104337 -0.261949 -0.53980005 -0.032005288
000270 10 39 aa bc 13 2f 46 3e 2c 96 9a 3d a2 dd 4b 3f
       -0.020779163 0.19353895 0.07548174 0.7963506
000280 26 99 61 3d ac ad 0f 3c 3b d9 55 bf 6c 52 8c bc
       0.055077694 0.008769434 -0.8353459 -0.017129146
000290 a2 eb 57 3f fd b1 f7 3b 49 f2 ce be 62 92 e6 3e
       0.8434392 0.0075590597 -0.40419224 0.45033556
0002a0 77 a4 0b 3e 5a a8 0d 3f 1e d0 98 bd 4b 94 49 be
       0.13636957 0.5533501 -0.0746157 -0.19685476
0002b0 c4 11 2d be 01 af 1a be 01 54 67 bf df b7 19 3e
       -0.16901308 -0.15105821 -0.90362555 0.15011548
0002c0 97 7c 5c 3e 6b 20 87 3d 44 10 d2 3d 82 77 db 3e
       0.21531902 0.0659798 0.10257009 0.42864615
0002d0 38 da 43 bd 16 d7 a5 bd f9 16 36 be af 50 13 bf
       -0.04781553 -0.08097665 -0.17782201 -0.5754499
0002e0 a5 d0 b5 3c e6 39 70 3e 83 b3 6d be 35 94 ea bd
       0.022194216 0.23459587 -0.2321301 -0.114540495
0002f0 24 5f 08 be 89 11 9f be 40 8c 62 be 14 b6 f4 bb
       -0.13317543 -0.31068066 -0.22123814 -0.0074679945
000300 03 65 61 3f c9 1e 4f be fd 04 1d 3d cf 8e 58 bf
       0.88044757 -0.20226587 0.038334835 -0.8459291
000310 fd 75 0c 3d d7 d5 94 bd a5 51 04 bf 9a 94 5a bd
       0.03429221 -0.07267349 -0.5168708 -0.053364374
000320 c7 9c 3d 3f d6 66 c2 3c 3b c1 94 3d d7 3d 68 bc
       0.7406735 0.023730677 0.07263418 -0.0141749
000330 99 c5 bd 3d a1 0c a0 3c 95 50 a6 3d b5 49 07 be
       0.092662044 0.019537272 0.081208386 -0.13211711
000340 47 c0 87 bc d8 94 e8 3b 04 1f 0c 3d 37 fa 15 3f
       -0.016571177 0.0070978217 0.034209266 0.5858492
000350 87 b1 51 3d 92 a2 69 bf f5 b2 58 3d 70 9d 90 bc
       0.051194694 -0.9126369 0.05290504 -0.017653197
000360 44 f6 ba 3c 39 5d 20 3c 9d b7 19 3c da 0a 77 bd
       0.022822507 0.009787851 0.009382156 -0.060313083
000370 dc d9 4f 3c 6f 39 00 3d e2 be cd bb ab 37 ac bc
       0.012686219 0.031304773 -0.0062788585 -0.021022638
000380 a9 ac 91 be 02 9f 5b 3e 16 d7 ed 3e 64 d1 72 3c
       -0.28452042 0.21447375 0.4645316 0.01482043
000390 f7 32 13 be e7 cc df bc 34 85 33 3c 13 dd b5 3e
       -0.1437491 -0.027319385 0.010957051 0.3552023
0003a0 1e 99 b1 bd 16 af 09 3f 98 e0 7a 3d 55 90 1c bc
       -0.08671783 0.53782785 0.061249346 -0.009555896
0003b0 c4 60 92 3c e1 7d 3f bd fb 71 f8 3d 2d dc 72 3d
       0.017868407 -0.046750907 0.12131115 0.059292007
0003c0 50 a8 f3 be 34 6b 06 3e de 67 0e be 9b 0c 77 3e
       -0.4758935 0.13126832 -0.1390681 0.24125902
0003d0 2e 0a a4 3d 33 fa 6f be 21 d1 f3 be e3 6e 06 3c
       0.08009754 -0.23435287 -0.4762049 0.008205148
0003e0 2d 48 35 bc 19 4d c2 3d f7 b0 d6 bd 5a 58 01 3e
       -0.011064571 0.094873615 -0.10482972 0.1263136
0003f0 92 95 03 bf 12 b6 0b 3e db 84 c3 bd 29 cf 0a bd
       -0.514001 0.13643673 -0.095468245 -0.03388897

fcs1.bias f4 [400]
000000 86 cd 15 bf 3b cb 72 bf 5e 45 41 bf fa 10 8a bf
       -0.5851673 -0.94841355 -0.7549647 -1.0786431
000010 4f 14 79 bf 15 cc 7e bf ea bf a1 be 92 92 a2 bf
       -0.97296613 -0.99530154 -0.3159173 -1.270098
000020 04 e3 29 bf 7b f8 84 be 2f 0b 3e bf a0 88 a4 bf
       -0.66362023 -0.25970826 -0.74235815 -1.2854195
000030 dd 70 12 bf 7f 76 d2 be 24 a7 21 bf da 14 81 bf
       -0.57203466 -0.4110603 -0.6314566 -1.0084488
000040 88 2f e4 be f7 4e 34 bf a0 1c 61 bf d5 05 ab bf
       -0.44567513 -0.7043299 -0.87934303 -1.3361155
000050 0c 99 87 bf c4 c7 48 bf ba 74 2e bf a6 74 78 bf
       -1.0593581 -0.7842982 -0.6814686 -0.9705299
000060 24 f1 74 bf cd 19 a9 bf 67 71 38 bf 83 1d 77 be
       -0.9568045 -1.3210999 -0.7204804 -0.24132352
000070 69 7e 39 bf 32 f4 99 bf be 1b 18 be dd dd 05 bf
       -0.7245851 -1.2027647 -0.14854333 -0.5229166
000080 54 26 e4 be 2c 7a f3 be c1 d5 c2 be 42 c8 62 bf
       -0.44560492 -0.47554147 -0.38053706 -0.8858682
000090 bd ea 4e bf d7 43 6e bf a0 a1 ca 3e 3d 6a 78 bf
       -0.8082693 -0.93072265 0.39576435 -0.97037107
0000a0 5c 7c 32 bf f3 3c 92 bf cc 0c 48 bf 0e 75 8d bf
       -0.6972101 -1.142485 -0.78144526 -1.1051347
0000b0 1d cc bb be 05 b3 56 bf 28 6b 82 be bf e3 87 bf
       -0.36679164 -0.8386691 -0.2547238 -1.0616378
0000c0 4b c3 9a bf a1 99 4f be 1b 42 77 bf e5 dc 17 bf
       -1.2090849 -0.20273449 -0.96585244 -0.59321433
0000d0 65 70 13 bf 86 d6 4b bf 5f 78 62 bf 01 33 20 bf
       -0.57593375 -0.7962421 -0.8846492 -0.62577826
0000e0 97 c3 24 bf c4 48 16 bf 0a c3 39 bf 8e 65 41 bf
       -0.64360946 -0.5870478 -0.7256323 -0.75545585
0000f0 82 46 a3 bf 04 13 80 bf 66 cd a7 be bf 41 21 bf
       -1.2755892 -1.0005803 -0.32773894 -0.62990946
000100 53 d3 17 bf af e7 3d 3e 95 29 00 bf 9b bd 43 bf
       -0.5930683 0.18545412 -0.5006345 -0.7646119
000110 73 cc 4b bf 68 b8 8f bf a3 c7 80 bf b4 25 09 bf
       -0.7960884 -1.1228151 -1.0060924 -0.53573155
000120 0b 3f 68 bf bd de 84 bf 7c 94 7d bf 2d ea 20 bf
       -0.90721196 -1.0380474 -0.99054694 -0.62857324
000130 42 ba 9c bf 0b e4 9d bf 90 a0 80 bf 03 c6 09 be
       -1.2244341 -1.2335218 -1.0049 -0.13454442
000140 2f 69 51 bf 17 08 33 bf 63 d6 5d bf f1 ab 51 bf
       -0.8180112 -0.6993422 -0.86655253 -0.81902987
000150 71 fe 58 be 67 b4 44 bf 54 4c 87 bf 8a 82 a8 be
       -0.21190812 -0.7683777 -1.0570168 -0.32912093
000160 8e 2b 28 bf b2 6c 8c bf b0 c1 6f bf 3b ac 13 bf
       -0.6569146 -1.0970671 -0.9365492 -0.5768468
000170 d8 c6 3b bf 79 cb 81 bf fe c5 3a bf 65 7b 9b bf
       -0.73350286 -1.014022 -0.7295836 -1.2147032
000180 12 7c 8e bf 7a 12 61 bf 58 b5 48 bf 9f ba a6 bf
       -1.1131613 -0.8791882 -0.7840171 -1.3025702
000190 e8 94 84 bf 1a 0c 86 3d 1f f6 65 bf d4 48 f8 be
       -1.0357943 0.06545277 -0.89828676 -0.48493063
0001a0 d4 0c 77 bf f6 05 7c bf a9 6e 5e bf c3 51 45 bf
       -0.9650395 -0.98446596 -0.86887604 -0.77077883
0001b0 3a 03 8d bf dd 63 14 bf 5c 0f b1 bf 21 51 6e bf
       -1.101661 -0.5796488 -1.3832812 -0.9309254
0001c0 d7 5a 95 bf 5d f1 a8 bf 10 14 41 bf 8d 4f a3 bf
       -1.1668347 -1.3198658 -0.7542124 -1.2758652
0001d0 56 5d 8b bf 50 a4 44 bf 61 67 93 bf de 07 43 bf
       -1.0887859 -0.7681322 -1.1515924 -0.7618388
0001e0 09 22 a3 bf 96 d2 59 bf 38 19 a0 bf 63 12 61 bf
       -1.2744762 -0.85086954 -1.2507696 -0.8791868
0001f0 19 75 1e bf 0c ca 49 bf 9e d5 2f bf 84 e4 8b bf
       -0.61897427 -0.78823924 -0.6868533 -1.0929112
000200 c0 39 48 bf 99 4a 4b bf 2e c2 3c bf 69 21 4e bf
       -0.7821312 -0.794107 -0.73733795 -0.8051973
000210 18 50 88 bf cd 5c 26 bf a8 ed 4d bf 05 f2 05 bf
       -1.0649443 -0.6498535 -0.8044076 -0.5232242
000220 ef 83 8b bf c5 f9 2d bf 7d ca 74 bf b6 8d 4d bf
       -1.0899638 -0.67959243 -0.9562147 -0.8029436
000230 3c c8 4d bf 26 4c 39 bf 61 a4 aa bf 36 2b 58 bf
       -0.8038366 -0.7238182 -1.3331414 -0.84440935
000240 20 6c 8a bf eb c0 8c bf d8 6a 1f bf 58 9b a0 bf
       -1.0814247 -1.0996374 -0.62272406 -1.2547407
000250 ec 76 6e bf 9f ee 6b 3e 4a e4 5d bf 76 4b 8d bf
       -0.9315021 0.23040245 -0.86676466 -1.1038654
000260 71 b1 52 bf e7 80 93 bf 13 37 4c bf a9 a5 81 bf
       -0.82302004 -1.1523713 -0.79771537 -1.012868
000270 12 64 4e bf 45 e4 81 bf f0 0f 10 bf 01 56 83 bf
       -0.80621445 -1.0147787 -0.5627432 -1.0260621
000280 dc b5 0e bf 56 62 45 bf bc f5 51 bf 6e 8c d2 be
       -0.55746245 -0.77103174 -0.82015586 -0.41122764
000290 c3 19 51 3e 73 d6 1d bf 53 4c 8b be fd 3f 11 bf
       0.20419984 -0.6165535 -0.27206668 -0.56738263
0002a0 14 14 10 bf 4e f7 9d bf fd 3f 3e bf e3 0d 98 bf
       -0.56280637 -1.2341096 -0.7431639 -1.1879238
0002b0 de 0c bf be 2b 61 58 bf 8f ae 81 bf f6 04 9d bf
       -0.37314504 -0.84523267 -1.0131396 -1.2267139
0002c0 2b 86 7e bf db a7 4a bf 4e 8a 85 be c9 5c 69 bf
       -0.99423474 -0.7916238 -0.2608208 -0.91157204
0002d0 f9 76 a9 be d9 dd 8d bf 77 09 57 bf 6e d4 b1 bf
       -0.3309858 -1.1083328 -0.8399882 -1.3892953
0002e0 f3 4e 20 bf 51 68 9e bf a9 25 82 bf 48 cb 2d bf
       -0.62620467 -1.2375585 -1.0167743 -0.6788831
0002f0 12 55 f9 3d 8a 25 33 3e 78 e2 98 bf 54 8a 92 bf
       0.12174429 0.17494789 -1.1944113 -1.1448464
000300 4c 91 97 bf 4d 09 6a bf e9 01 58 bf 45 02 0c bf
       -1.1841216 -0.9142044 -0.84377915 -0.54690963
000310 0d 84 51 bf 26 29 49 bf 4c b6 46 bf e3 f9 84 be
       -0.8184212 -0.7857841 -0.7762191 -0.25971898
000320 df 0a 25 bf a4 1e f4 be 55 b3 43 bf 9c d6 27 bf
       -0.6446971 -0.47679627 -0.76445514 -0.6556184
000330 63 3e a2 bf 67 ae 09 bf 6b 58 82 bf 9c 51 a7 be
       -1.2675289 -0.5378174 -1.0183233 -0.3267945
000340 1b 3d 37 bf c8 62 43 bf b1 29 4a bf 48 e1 5f bf
       -0.71577615 -0.76322603 -0.78969866 -0.87453127
000350 9d 5d 14 bf cb 1c 8d bf 3f 43 ae bf 54 74 8c bf
       -0.5795534 -1.1024412 -1.3614272 -1.0973
000360 90 ae 82 bf a2 e5 2e bf bc 8f 37 bf 32 8a cb be
       -1.0209522 -0.6831914 -0.71703696 -0.39753872
000370 76 7b 8c bf 1f cc bd be 27 9f 0f bf e7 8d 8c bf
       -1.0975177 -0.37069795 -0.5610222 -1.0980805
000380 61 1c 1d bf f0 02 83 bf c4 be 04 bf 39 e5 41 bf
       -0.6137143 -1.0235271 -0.51853585 -0.7574039
000390 60 ab f5 be 50 2a 7b be 1d b6 80 bf 92 7b 98 bf
       -0.4798231 -0.2452786 -1.0055577 -1.1912711
0003a0 98 53 77 bf 09 48 64 bf e6 36 f0 bd 8b b7 69 3e
       -0.9661193 -0.89172417 -0.11729221 0.22823922
0003b0 5b 40 46 bf 0f 80 b6 3d f3 40 a6 bf 6f 22 8c bf
       -0.7744195 0.08911144 -1.2988571 -1.0948008
0003c0 79 0e 9e bf c0 ab c1 bf 28 fa 26 bf 64 00 4d bf
       -1.2348167 -1.5130539 -0.6522546 -0.8007872
0003d0 68 5f 53 be fe 57 87 bf 67 56 4d bf 1f f3 99 3c
       -0.20641863 -1.0573728 -0.80209965 0.018792687
0003e0 48 0c 4f bf dc 3f d5 be 55 9c 4a bf 53 83 80 bf
       -0.80878115 -0.41650283 -0.79144794 -1.0040077
0003f0 aa 71 88 bf a0 f9 ad bf d1 38 45 bf f2 3b 47 bf
       -1.0659688 -1.3591805 -0.7703982 -0.77825844

fc2.weight f4 [300, 404]
000000 56 f6 8e be 50 0a 1f 3f 35 30 6c 3e e0 09 fb bd
       -0.27922314 0.6212511 0.23065265 -0.12257743
000010 a3 9b 96 3e e4 80 e1 3d 8b f0 b2 3d 53 ee aa be
       0.29415616 0.11010912 0.08737286 -0.33384952
000020 48 38 aa be e5 9f 87 be 87 ad bd 3d 3a 7e 19 bf
       -0.33246064 -0.26489177 0.09261613 -0.5995823
000030 dc 81 85 be b5 04 38 be dc 0d 0f 3e a4 f5 8a be
       -0.26075637 -0.17970546 0.1397013 -0.27140534
000040 f9 19 13 3f c8 43 15 3e 07 b2 23 3f ce bd 29 be
       0.57461506 0.14576638 0.63943523 -0.16576311
000050 80 4b de be b3 0c 0d 3e b5 bd 33 be 82 b2 48 3e
       -0.43416977 0.13774376 -0.17552836 0.19599345
000060 d9 43 1b be c7 28 ba be 1d 9f 8b 3d da 9a 36 3e
       -0.151626 -0.36359236 0.06817458 0.17832509
000070 31 e2 e1 3e 84 e7 85 3e 4e f9 d2 bd f2 f7 47 be
       0.44117883 0.26153195 -0.10301457 -0.19528177
000080 a3 5d c6 3d 4b 3e e3 3e 2e a3 f5 be 8b 4a 30 bf
       0.096858285 0.44383463 -0.4797606 -0.68863744
000090 21 2a 92 3e 98 94 7b bf 10 1e 6b bd 37 df 24 be
       0.28547767 -0.9827361 -0.057401717 -0.16100775
0000a0 fc 97 f7 bd f8 e6 b1 be c9 ca c2 3e 63 4e 2f bf
       -0.120895356 -0.34746528 0.38045338 -0.68478984
0000b0 f3 f6 c2 3e fe f2 3b 3e 1c 05 c2 3c 4f 04 57 be
       0.38079032 0.18354413 0.023684077 -0.20997737
0000c0 d5 57 b1 3e e3 2f 81 3e 6b 70 9d bd 00 f3 32 be
       0.34637323 0.25231847 -0.07687458 -0.1747551
0000d0 a4 ed 3c 3e a1 e9 21 3d 17 02 da be e6 0d 5b be
       0.18450028 0.039529447 -0.4257972 -0.2139202
0000e0 29 9b da 3c 5b dc f0 bc de d0 7a 3f 6a 33 4f 3e
       0.026685314 -0.029401949 0.97974956 0.20234457
0000f0 e2 9e 71 3d 68 59 6e be 96 e3 b8 3d 24 cf 6b bd
       0.058989413 -0.23276293 0.090277836 -0.05757059
000100 f8 f0 cd 3d c9 f1 02 be 71 c3 ba be 57 3d 4a be
       0.10055727 -0.12787546 -0.36477235 -0.19749962
000110 dd 08 fc be e1 8f 2d 3e 0a e3 91 3e 62 e3 41 bf
       -0.49225512 0.16949417 0.2849353 -0.75737584
000120 0f fa 2f bd 4e 92 80 bf d9 56 36 bf 6f db 94 3d
       -0.042963084 -1.0044649 -0.7122627 0.07268416
000130 5e 1e b8 be f2 a9 c7 bd 7c b4 42 bd 86 1c 95 be
       -0.35960668 -0.09749211 -0.047535405 -0.29123324
000140 df e8 a3 bd 17 6c 5e bf 0e af fd be 00 e7 96 bf
       -0.08003401 -0.8688368 -0.4954762 -1.1789246
000150 e3 fe 27 3e 1d 75 0d be ea 15 71 3e a4 05 8f be
       0.16405825 -0.13814206 0.23543516 -0.2793399
000160 d0 58 66 bf c0 69 33 3e 37 fa cb 3e 60 10 b3 3e
       -0.8997927 0.17520809 0.39839336 0.3497343
000170 f5 0f 5e be 54 2d 80 3d 3c fe 0d 3e 8e 97 fa bc
       -0.21685775 0.06258646 0.13866514 -0.030589845
000180 10 c3 84 3e 82 1a af 3e 3b 05 53 3e a1 71 11 3c
       0.2593007 0.3419991 0.20607464 0.008877189
000190 03 d2 a5 bf a1 cd 12 bf a5 aa 0b be c4 c1 52 bc
       -1.2954715 -0.57345015 -0.13639314 -0.01286358
0001a0 f9 30 e1 be a1 48 1d 3f c4 f4 29 3f 9f ec 8f bf
       -0.43982676 0.6143895 0.6638911 -1.1244086
0001b0 8a 21 a8 bd ba 59 1f bf 55 9f 8f bc 5c 77 6b 3e
       -0.08209522 -0.62246287 -0.01753203 0.2299475
0001c0 a1 89 53 be 61 e3 0f be ca ee 08 bf 06 92 40 3d
       -0.2065797 -0.14051582 -0.53489363 0.04701426
0001d0 c1 06 34 3e ab 52 ca 3e 1e 9c 4f 3e a6 21 8c bf
       0.17580701 0.39516196 0.20274398 -1.0947769
0001e0 cd 8f 53 3d 15 83 cd bd ff 00 a6 3e 59 b7 d4 3e
       0.05165081 -0.100347675 0.32422635 0.41546133
0001f0 d5 7b 69 3d af b8 64 3e 15 4e d0 be 79 0a f7 bd
       0.05700286 0.22336076 -0.40684572 -0.120625444
000200 1c cc 0b 3d b6 71 06 be e2 9f ed bd 9b 3b 25 bf
       0.0341302 -0.13129315 -0.11602761 -0.64544076
000210 e0 4f b4 be 8a f8 af bf 3c ba 1d 3e 6f de e2 be
       -0.3521719 -1.3747723 0.15403074 -0.44310328
000220 04 d9 e2 bd 30 43 eb be 03 20 a8 bd 28 31 25 be
       -0.11076549 -0.45949697 -0.08209231 -0.16132033
000230 56 be 8a bf 07 98 cb be 06 85 d1 be 18 18 c7 be
       -1.0839336 -0.39764425 -0.409218 -0.3888557
000240 7f 92 12 3f 2a 0c 86 be 4f d5 25 3d 1c 00 69 be
       0.57254785 -0.26181155 0.04048663 -0.22753948
000250 ef 76 92 3e be 4c 94 bd 89 9b 8c 3e e4 72 06 3e
       0.28606364 -0.072412 0.27462414 0.13129765
000260 5b 16 16 be b2 18 db bd 33 c3 3f 3f 16 1f 38 bf
       -0.14656965 -0.1069807 0.74907225 -0.71922433
000270 64 04 1b bf 8e 5d 01 3f f2 d8 2b 3e 38 8d 26 bf
       -0.60553575 0.5053338 0.16781977 -0.6505923
000280 0e 67 ed 3e db 1e 2c bd 33 56 b0 bd 45 34 be bb
       0.46367687 -0.042021614 -0.08610191 -0.005804571
000290 86 a0 50 3e a4 8f 89 be 5d bc f0 bc 18 84 b1 be
       0.20373735 -0.26867402 -0.029386694 -0.34671092
0002a0 fd 20 60 be 14 ae ff bd a1 03 ea 3d 16 37 9d be
       -0.21887584 -0.12484375 0.114264734 -0.3070609
0002b0 a4 da f3 3e bb 27 f7 3e bb 42 d5 bb c8 50 e2 3d
       0.47627747 0.482725 -0.006508199 0.11050564
0002c0 b3 c9 6d 3d 46 07 b3 bc 33 3b ca 3e 36 6a 31 3e
       0.058053683 -0.021854054 0.3949829 0.17325673
0002d0 13 61 a3 3e fc db 39 bf 5f c6 00 bf 54 dd 98 be
       0.3191 -0.72601295 -0.5030269 -0.2985636
0002e0 32 f6 e8 3b 64 bf b5 be 12 1b 8b bd f9 a4 5f 3e
       0.007109427 -0.35497582 -0.067922726 0.21840276
0002f0 cd 69 ea 3d 11 69 20 be e0 df 95 be c3 98 88 be
       0.11445961 -0.1566508 -0.29272366 -0.26679048
000300 a5 80 ad be a1 b8 bd be db b1 a3 bd 59 e6 cd be
       -0.3388721 -0.37054923 -0.079929076 -0.40214804
000310 90 49 e8 3d ac d7 f2 3e 78 66 89 3d a7 10 49 3e
       0.11342156 0.4743017 0.067089975 0.19635259
000320 8c 72 9c be 9e 31 15 bf 38 44 ed 3e 39 77 84 3e
       -0.30556142 -0.58278835 0.4634111 0.2587221
000330 ab 42 c5 be 31 2c 9b be 1d dc f7 be 36 88 e9 bd
       -0.38527426 -0.30307153 -0.4841012 -0.11402933
000340 ee 68 2f 3d 5c 4b 37 bf 04 4a 09 be 91 d8 a6 bd
       0.042824678 -0.71599364 -0.13407141 -0.081467755
000350 37 01 59 bc 80 b4 84 3e 08 5b 6b bf f4 73 00 bf
       -0.013244919 0.2591896 -0.9193578 -0.5017693
000360 0b 87 90 3e 4c 22 06 3e 91 35 30 bf 11 eb 8e bf
       0.2822803 0.1309902 -0.68831736 -1.1165487
000370 a9 40 e2 bd 8b 99 ec bd 4e 4b af be fc 38 bc be
       -0.11047489 -0.115527235 -0.3423714 -0.36762226
000380 42 61 1b be 96 48 0b 3d 79 14 59 3f 99 50 99 3e
       -0.1517382 0.03400477 0.84796864 0.29944304
000390 11 de ea 3e 03 93 a9 be d5 35 4f 3e f2 7a 75 3e
       0.45872548 -0.33119974 0.20235379 0.23972681
0003a0 7a 21 7d be cf 43 09 be e2 16 da 3e 7b a6 ac 3e
       -0.24719802 -0.13404773 0.42595583 0.33720765
0003b0 ac 36 a8 3e 5e ac a5 be aa 70 97 be 73 95 b2 bf
       0.3285421 -0.32358068 -0.29578143 -1.3951858
0003c0 91 cc 68 3e d1 f2 e7 3d 18 d3 c0 be 25 b2 f6 be
       0.22734286 0.113256104 -0.37661052 -0.48182788
0003d0 58 bc 9b 3d 4c 89 06 bf 53 64 ef be 12 fe 87 3e
       0.07604283 -0.5255325 -0.4675623 0.26561028
0003e0 6e 1b 45 bc f8 9c 91 3e 38 89 04 3e 92 b8 02 bf
       -0.0120304655 0.2844007 0.1294297 -0.5106288
0003f0 f4 bd 3e 3e 9c 85 9e 3e b1 67 9f be e0 09 af be
       0.18627149 0.3096131 -0.31133798 -0.34187222

fc2.bias f4 [300]
000000 7d 4c b5 be 5d f5 a8 3d b0 13 df bd 47 a2 72 be
       -0.35409918 0.08249924 -0.10892427 -0.23694716
000010 08 24 3e be e4 34 bf 3e 1b 72 00 bd 31 e7 cc be
       -0.18568432 0.3734504 -0.03135882 -0.40020135
000020 04 ab 1d 3f 0b 81 40 3e b3 e9 44 3c 7a 1a 98 3c
       0.61589074 0.18799226 0.012018609 0.018567313
000030 44 ca c0 bd 28 9c 0a be 9b a0 c5 bd 08 58 e4 bd
       -0.09413579 -0.13536131 -0.09649774 -0.11149603
000040 0a 00 df 3d be 13 dd bd 7f 3c 86 bf 0f e4 40 be
       0.10888679 -0.10794781 -1.0487212 -0.18836997
000050 27 a8 02 3f 6f 89 86 bd 5c 40 20 3f 60 3e 97 be
       0.5103783 -0.06569182 0.62598205 -0.29539776
000060 e6 e9 5c 3d 61 69 d6 3d 81 71 13 be d3 4b 4f bd
       0.053934 0.10469318 -0.14398767 -0.05060942
000070 61 db d4 b8 b6 98 af bd e0 29 0d bf 39 ee 17 bd
       -0.0001014981 -0.08574049 -0.5514202 -0.03709242
000080 85 dd d6 be a5 b9 d2 bc 70 1c 20 3f e8 44 bd bd
       -0.4196588 -0.025723288 0.6254339 -0.092416584
000090 e0 1a 02 be bf 5f f9 bd 17 35 b6 3e dd ca a6 bd
       -0.12705564 -0.12176465 0.3558738 -0.08144162
0000a0 90 b3 f9 bd 47 0e 81 3f 2b bb d3 be 14 77 94 bd
       -0.12192452 1.0082482 -0.41353735 -0.07249275
0000b0 1d 91 2f 3f 8e fb d1 bc 7a 19 89 3e 42 ce 0c 3f
       0.685808 -0.025632646 0.2677725 0.55002224
0000c0 c8 27 9d be b8 e7 e6 3e 30 d5 aa bd cf 24 92 bd
       -0.30694413 0.45098662 -0.083414435 -0.07135927
0000d0 a4 76 a3 bc b1 76 47 3b a7 aa 6f bd d9 14 0b bf
       -0.019954033 0.0030435736 -0.058512356 -0.54328686
0000e0 a2 2e a8 bc 82 d2 87 be 71 f8 5e be 95 52 aa bc
       -0.020530049 -0.26527792 -0.2177446 -0.020791331
0000f0 b9 07 e3 bd 59 db 4f bd cc 52 bf 3d 4a 6e 12 3f
       -0.11085457 -0.050746296 0.09341964 0.5719954
000100 c6 c4 02 bf a1 09 f4 be db 3a fe 3e bd ba 01 be
       -0.510815 -0.47663596 0.49654278 -0.12668891
000110 52 4e a1 bd 10 4b 07 bf f5 7b d2 bd 9e 56 bd be
       -0.078762665 -0.5284891 -0.10277549 -0.36980146
000120 e6 d3 d5 bd c0 66 34 bd 8c c4 e4 bd 3e 6c 10 3f
       -0.10440807 -0.044043303 -0.11170301 0.56415164
000130 0a de cf 3e 5f 0f 1b be b6 14 84 be d9 fa 01 bf
       0.4059909 -0.15142582 -0.2579705 -0.5077339
000140 40 9f 01 bf 35 c0 36 bc 7e d4 59 bd a3 34 df be
       -0.5063362 -0.011154224 -0.053181164 -0.43594846
000150 26 47 72 3c 1a d6 ed bd 80 c1 ce bd b9 77 a3 bd
       0.014787471 -0.11613102 -0.10095501 -0.0798182
000160 92 46 bd bd 93 c5 af bd ca 66 bf bd 17 18 bf bd
       -0.09241976 -0.08582606 -0.09345777 -0.09330767
000170 c6 4b 40 3d 03 53 5e bd 30 25 35 bd 15 fb e4 bd
       0.046947263 -0.054278385 -0.044224918 -0.111807026
000180 99 50 a8 bd 37 95 b5 bd df 3e cf bd 35 3a 6e 3f
       -0.08218498 -0.08866351 -0.101194136 0.93057567
000190 fa 65 5b 3e 00 43 b7 bd 32 80 84 bd 56 92 59 3e
       0.2142562 -0.08948326 -0.06469764 0.21247229
0001a0 e1 d1 51 bd 90 e0 d3 be ee 98 14 bf d6 f0 f0 bd
       -0.051225547 -0.41382265 -0.5804585 -0.11764686
0001b0 e0 e5 84 3e 45 97 63 be 2d 12 d3 3e e0 d9 fe 3e
       0.2595663 -0.22225673 0.41224805 0.497756
0001c0 f3 06 dc bd d1 af c2 bd 97 24 07 bf a6 f3 d9 3e
       -0.10743513 -0.095061906 -0.52790207 0.42568702
0001d0 9d cb 98 3e be 81 3f bd 6d 1f 37 bd cc 0f 8e be
       0.29842845 -0.04675459 -0.044707704 -0.27746427
0001e0 78 92 b4 be 5b b9 fe be ac 59 af bd be ad 4e bd
       -0.35267997 -0.4975079 -0.085620254 -0.050458662
0001f0 4d 0f e3 bd 5e 01 dc bd ce ef 7b 3f 4d 72 30 bd
       -0.11086903 -0.10742448 0.9841279 -0.043077756
000200 78 6d 84 bc fa 1c a9 bd 88 87 b0 3d 84 18 51 bd
       -0.01616548 -0.0825748 0.086196005 -0.05104877
000210 60 df 56 3f 9a da 97 be e3 13 a4 bd 00 fc 0f be
       0.83934593 -0.29658967 -0.080116056 -0.14060974
000220 ae 65 fc bd 46 f5 8d bd d6 89 b6 bd d7 41 17 3f
       -0.12324081 -0.06931548 -0.08913009 0.5908484
000230 80 3f c3 bd 93 4c 48 bd 1d 64 95 3e 60 85 42 bd
       -0.09533596 -0.048901152 0.29177943 -0.047490478
000240 f6 08 3e bd 4b 64 9b bd ee 5b ba bd 6d 9c 3f 3f
       -0.046395265 -0.07587489 -0.090995654 0.7484806
000250 02 fb 07 be 70 8e 14 3e a4 66 02 be 28 d8 d8 3e
       -0.13279346 0.1450746 -0.12734467 0.42352414
000260 b6 1e 26 be 04 6b 9d bd c4 b7 bb bd 0a 3d bf 3e
       -0.16222653 -0.07686427 -0.0916591 0.37351257
000270 35 6f a2 bd 3f 97 e2 3e 29 79 08 be 64 12 5f bd
       -0.07931367 0.44256017 -0.13327469 -0.054460898
000280 87 36 dd be 9e 3e 07 3f e1 a0 73 bd df 32 8a bd
       -0.43205664 0.5282992 -0.059479598 -0.06747984
000290 38 9d 8a bd 83 03 9d bb af df 0a 3e cb 6c 3c bd
       -0.06768268 -0.0047916784 0.13561891 -0.04600219
0002a0 3b cc da bd bb c2 a2 be e3 cd 8b 3f 4e 5b 86 3e
       -0.10683485 -0.31789193 1.0922207 0.26241535
0002b0 56 75 c9 be 53 6b 01 be 8f e5 2c 3e 3b a1 da bd
       -0.39347333 -0.12638597 0.16884445 -0.106752835
0002c0 3a 17 0b be 17 cd aa be 1a d7 80 bd 2a 63 1f 3f
       -0.13583079 -0.33359596 -0.06291027 0.6226069
0002d0 11 80 11 be 9d 60 b1 bd 64 c5 e1 3d 09 05 8d bd
       -0.1420901 -0.08661006 0.110239774 -0.06885726
0002e0 9a 3f 0f bf 19 13 d5 bd 22 20 83 bd 33 47 52 be
       -0.55956423 -0.10404033 -0.06402613 -0.20534973
0002f0 b9 6a 6c bd 58 ae 4c 3c df 1d fd bd 5b 8c b0 bd
       -0.057718966 0.012492739 -0.12359213 -0.08620521
000300 d1 11 46 bd b5 fb c0 be 7e 01 f2 bc 82 06 15 bd
       -0.048356835 -0.37692037 -0.029541727 -0.03638316
000310 71 5c bb 3e b6 e7 02 3e 71 17 54 be b1 ec 1f be
       0.36593965 0.12783703 -0.20712067 -0.15617634
000320 ee 8c 49 3f 41 50 05 be a9 00 07 bd c9 1d a7 be
       0.78730667 -0.13018896 -0.032959614 -0.32639912
000330 a6 b3 8e bd cf 89 4f bd 59 fe 29 bd 30 85 90 3e
       -0.06967859 -0.050668534 -0.04150233 0.28226614
000340 f2 94 4b bd 66 44 cd bb 02 78 ee bd 24 09 09 bf
       -0.049702592 -0.0062642572 -0.116439834 -0.5352957
000350 83 fb 60 bd a8 00 aa bd 3c d0 c4 bd c4 09 95 3e
       -0.05492736 -0.083009064 -0.0961003 0.29109013
000360 10 6b e7 3e f0 2d e8 be 1f 5a 90 bd 94 19 02 bc
       0.4519887 -0.45347548 -0.07048439 -0.007940669
000370 77 2d c1 bd 45 93 6c bd 35 18 ca bd 87 db 0f bf
       -0.094325 -0.057757635 -0.098678984 -0.5619435
000380 44 5f 84 3f 16 17 d9 3e dd ca e1 bc a8 b3 ab 3d
       1.0341573 0.42400426 -0.027562553 0.08383876
000390 3a e0 98 be 8c a0 95 bc 91 f1 8d 39 fe 36 0a 3c
       -0.2985857 -0.018265031 0.00027073597 0.008435963
0003a0 04 f0 98 bd dc 01 48 3f 1c 5e 05 3f 7a 45 c0 bc
       -0.07467654 0.7812784 0.52096725 -0.023470629
0003b0 bd 96 22 bf 5d 3e e6 be 8c 65 d4 bd 65 23 9b bd
       -0.6351126 -0.44969454 -0.10370931 -0.0757511
0003c0 fd 1f 9a bd fc 6a b8 bd 29 54 95 3e 43 1c a4 be
       -0.075256325 -0.09004781 0.29165772 -0.32052812
0003d0 74 81 de be b0 dc bc bd 06 05 80 3d 68 34 6c 3d
       -0.4345814 -0.0922178 0.06250958 0.057667166
0003e0 0a d9 8d bc fa a5 40 bd 66 de 98 bd 9a c6 89 bd
       -0.017315406 -0.047033288 -0.07464294 -0.06727333
0003f0 e6 c9 77 bd 4b 15 2e bd 7d 06 21 3e a3 51 c0 bc
       -0.06049528 -0.042500775 0.15725131 -0.023476427

fc3.weight f4 [1, 300]
000000 b1 a9 a0 bb d8 79 bf 3b a1 e5 b9 3a 0e 39 1a bc
       -0.0049030413 0.0058433823 0.0014182815 -0.009413017
000010 e8 4d 13 bc 63 99 d2 3b 7e 1e 32 3a 9f ad a0 bb
       -0.008990742 0.0064269765 0.0006794705 -0.0049035097
000020 61 b5 c8 3b 4c 57 45 3c f4 d1 db 3b 20 8f 5e bc
       0.0061251377 0.012044739 0.006708378 -0.013583928
000030 b2 e4 28 bb cd 97 35 bc d4 9a e6 bb 6e 1c ad 3b
       -0.0025771079 -0.011083555 -0.0070375 0.00528293
000040 44 c7 90 3b 64 1b 2a bc f3 30 c0 bc c7 ab 9d 3c
       0.0044182856 -0.010382507 -0.02346084 0.019246949
000050 f3 26 28 3c 61 99 b9 3c e7 be e3 3b b0 48 41 3c
       0.0102631925 0.022656145 0.0069502476 0.011797115
000060 06 6c af 3c 4b 91 ae 3b c0 fa a1 bb 4b f3 03 3d
       0.021413814 0.005327379 -0.004943222 0.032214444
000070 8f 45 49 3c a7 aa 1d bc e9 8d ea bc a0 1f 7f bc
       0.0122846505 -0.009623206 -0.028632121 -0.015571505
000080 f3 6e 94 3c 53 59 2b bd c2 e7 8c 3c d8 75 73 bc
       0.018119311 -0.041833233 0.017200354 -0.014859639
000090 90 a4 9a bc dc 7a 67 3c 9e c9 1d 3c c2 b9 31 3c
       -0.018877298 0.014128413 0.009630589 0.010847511
0000a0 0e ca 91 3b 29 f2 c0 3c d3 df a9 bb d9 2f 78 bb
       0.0044491356 0.023552971 -0.0051841526 -0.0037870316
0000b0 16 3e b5 3b 69 9b 04 bc 4b ed c2 3b 26 99 bf 3b
       0.005531083 -0.008093693 0.0059486977 0.005847114
0000c0 7e 59 ab bc 03 55 51 3c db b9 9d 3b af 4c 9b 3c
       -0.020916697 0.012776616 0.0048134155 0.018957464
0000d0 85 77 0a 3c 5d 6d 81 3c ff 99 62 3c 51 07 b4 bc
       0.008451347 0.015799219 0.013830661 -0.021976145
0000e0 e4 93 5a 3c 37 74 c3 bb 81 6e fd bb 95 8f c8 bc
       0.013340924 -0.0059647816 -0.0077341204 -0.024482528
0000f0 c9 f7 0f bd 46 0e bb 3b 05 aa 97 3b 1b 29 14 3c
       -0.035148416 0.0057084886 0.004628422 0.009043003
000100 03 30 ec bc 35 a5 de 3c be 7b 05 3c 59 87 81 bc
       -0.028831488 0.027178386 0.008147178 -0.01581161
000110 df 19 8c 3c 84 04 33 bd a1 43 7a b9 05 97 1f bd
       0.01710218 -0.04370548 -0.00023867052 -0.038962383
000120 cc 67 f6 3b bd 14 3c 3c ab 31 dc bc 14 78 df 3b
       0.007519698 0.011479554 -0.026879152 0.0068197343
000130 ea ea c7 3b aa 53 32 3c 7d 90 b5 bb 8f 17 09 bd
       0.006101002 0.010884205 -0.005540906 -0.033469733
000140 8b 36 b8 bc ab 8c 33 3c b8 af 39 bb b0 49 ca bb
       -0.022486946 0.010958831 -0.0028333496 -0.006173335
000150 07 36 48 3c 43 bd 77 3c 7b 4d 0c 3b 0f 9f 51 bc
       0.012219912 0.015120807 0.0021408487 -0.01279427
000160 dd 4f 0b bb a9 a8 6e 3c 38 a7 80 bc 16 7d 23 3c
       -0.002125732 0.014566579 -0.015704736 0.009978553
000170 da cc 2d 3c b0 99 96 3c c1 c5 89 bc 29 df a4 3b
       0.010607922 0.01838383 -0.01681793 0.0050314856
000180 cc 7d 7f 3c f4 35 ef 3a b5 43 30 3b fe b2 18 3c
       0.015593957 0.0018250332 0.0026895825 0.009320019
000190 fb 06 2d 3c 06 a6 34 bc e7 88 f0 3a 06 ad a1 3b
       0.010560746 -0.011025911 0.0018351347 0.004933956
0001a0 83 c7 5b 3b d2 80 d3 bb 25 26 f7 bb ff 09 7d bc
       0.0033535666 -0.0064545656 -0.007542389 -0.015444278
0001b0 6c 6c 11 3c ec 77 e0 bb 8d 4d 8b 3b 9f 09 3c 3c
       0.008875947 -0.0068502333 0.004251188 0.011476903
0001c0 e3 f8 67 3b c3 68 05 3a 23 91 16 bc e2 ca e9 3b
       0.003539615 0.0005089158 -0.009189877 0.007134781
0001d0 2f ad d7 3b e8 45 3e bc 39 6b 36 3c f6 13 b2 bb
       0.0065819244 -0.011613347 0.011133962 -0.0054345084
0001e0 6d 0d 38 bd eb 2a cb bb 3f da 49 3c 1f 08 90 bc
       -0.04493468 -0.0062001846 0.0123201 -0.017581997
0001f0 d1 14 d3 bc eb d7 3b 3d 43 a9 2d 3c d9 04 15 3b
       -0.025766762 0.045860212 0.010599437 0.0022738485
000200 35 ce 2b 3c 24 1f 08 3c 35 4c 8e 3c d7 88 1f 3c
       0.010486175 0.008308206 0.017370323 0.009737215
000210 f7 41 d2 3b c4 72 67 3c 1e 0a d0 3c c2 f0 b9 3b
       0.006416555 0.014126483 0.02539545 0.0056744525
000220 91 9d b1 3c 42 f5 16 bb 84 33 84 bc ae 3f 85 3b
       0.021681579 -0.0023034369 -0.016137846 0.004066429
000230 80 43 97 3c b4 4b f5 bb b3 7c 44 3c 59 10 28 bc
       0.018464804 -0.007485831 0.011992621 -0.010257804
000240 b0 0f a4 3b 36 8f 15 bc 4e 11 24 3c 9b 49 de 3b
       0.005006753 -0.009128382 0.010013891 0.006783677
000250 cf 96 5c 3b 4e 3f 5b 3c f2 1b 0b bb 9c 99 dd 3b
       0.0033659225 0.013381792 -0.0021226374 0.0067626964
000260 33 c0 f6 bb 70 1c b7 3c fd 45 42 bc 26 29 dd 3b
       -0.007530236 0.022352427 -0.011857507 0.00674929
000270 7a ff 83 bc fb 83 c1 3b 91 cc 83 bc c1 93 eb bb
       -0.016113032 0.005905626 -0.016088756 -0.0071892445
000280 8f e1 ef bc ff b2 c0 3b 10 5e d6 bb f2 dd b4 bb
       -0.02928236 0.005880713 -0.006541975 -0.005519622
000290 50 d4 37 bc 8f 80 cf 3b f6 9b 07 3c 87 be 52 3c
       -0.011220053 0.006332464 0.00827693 0.012862808
0002a0 30 fc b6 bc 5e 55 9f bb da bd 3e 3c 47 0b 80 3c
       -0.02233705 -0.0048624715 0.011641944 0.015630377
0002b0 f3 1c a8 bc d9 c7 e6 ba ef 25 33 3c 2f a7 9d 38
       -0.020521617 -0.0017607167 0.010934337 7.517484e-05
0002c0 d8 e3 5e bc d7 d0 2d bd a0 2b 3b 3c 05 3d bc 3b
       -0.013604127 -0.042435493 0.011423975 0.005744579
0002d0 82 47 3d bc e4 b1 4d bc 9f 85 45 3c 3a 7d dd ba
       -0.011552693 -0.012554619 0.0120557835 -0.0016898282
0002e0 96 7e 80 bc e8 e8 6a 3c 85 f7 4a bc d9 5b cb 3c
       -0.01568536 0.014337756 -0.012388115 0.02482407
0002f0 e0 d0 ac bc 38 87 31 3c 22 98 a7 3c b4 c7 f6 3b
       -0.021095693 0.010835461 0.020458285 0.0075311307
000300 17 49 72 3c 0b 08 f0 bb ca 3d ab bc e4 8e cd bb
       0.014787934 -0.0073251775 -0.020903487 -0.0062731374
000310 f1 09 03 3c 86 cc aa 3c b7 3a 01 3c db f7 04 3c
       0.007997976 0.020849477 0.007887534 0.008115734
000320 2a 4c ef 3b c0 e5 05 bd e0 fe 79 bb 9a 0e c4 bb
       0.0073027806 -0.03268981 -0.0038146302 -0.005983186
000330 69 a7 3c b9 5e f8 9e 3c 4d 0b 58 3c 37 8d 06 3d
       -0.00017991442 0.01940554 0.013186288 0.032849517
000340 ec b3 5d 3c 66 20 77 3b 6b 7b e9 bb 01 47 d6 bb
       0.013531666 0.003770852 -0.0071253083 -0.006539226
000350 e6 f5 88 3c 7b 70 81 3b 54 76 fe bb 60 22 f4 3b
       0.016718816 0.0039501763 -0.0077655707 0.007450387
000360 6c 29 b1 3b f0 db ec bc 4f 44 83 3c 78 5d 70 3b
       0.005406549 -0.028913468 0.016023783 0.0036676805
000370 68 50 be 3b ca 75 ca 3c 0b 9e 9f 3b cd db b5 bc
       0.005807925 0.02471437 0.004871135 -0.022199536
000380 11 ad 1d 3c fb 7b af 3b 85 9b 12 bc 03 78 25 3c
       0.009623782 0.005355356 -0.008948212 0.010099414
000390 33 c5 b4 bc 18 99 29 bc 1c 66 21 3c 5d 02 df bb
       -0.022066688 -0.010351442 0.009851005 -0.0068057016
0003a0 81 40 99 3c f5 b4 bb 3b 37 62 37 3c e4 f2 03 3d
       0.018707516 0.005728359 0.01119285 0.03221406
0003b0 aa 0c c5 bc 4a 1e de bb 42 dc de bb ed e4 46 bc
       -0.02405389 -0.006778513 -0.006801159 -0.012139541
0003c0 22 5d e1 3c 14 fd 38 bb 7e 80 28 3c 77 6a 59 bc
       0.02751023 -0.0028227018 0.010284541 -0.013270012
0003d0 0e 8b 3a bc b5 2e b9 3b 24 ac 94 3c 4f 52 09 3c
       -0.011385692 0.00565132 0.01814849 0.00838144
0003e0 41 2d f5 3a a4 c1 13 3b 74 d8 d9 bb 10 bd 79 3c
       0.0018705503 0.0022545839 -0.0066481177 0.01524283
0003f0 57 06 6a 3c 6c dd 88 bc 0d a7 5d bc e8 15 33 3c
       0.014283738 -0.016707145 -0.013528598 0.010930516
