p2_continuous-control/checkpoint_actor.pth (torch_old, 541411 bytes, 6 tensors)

fc1.weight f4 [400, 33]
0	0xbded1a82	-0.115773216
1	0x3e4938e6	0.19650611
2	0xbe0b8c8c	-0.13627833
3	0x3d8104cf	0.06299745
4	0x3c895aea	0.016766984
5	0x3dbccd68	0.09218866
6	0xbd0c6ac0	-0.034281492
7	0x3dcfdf0a	0.10149963
8	0xbe334758	-0.17507684
9	0x3dc019a9	0.09379894
10	0x3d064c51	0.032787625
11	0x3c62cfed	0.013843519
12	0xbdc754dc	-0.097329825
13	0x3c98d9c8	0.018658534
14	0xbe342c51	-0.1759503
15	0xbe48bd5f	-0.1960349
16	0x3dac2bea	0.084068134
17	0x3ccb7eb3	0.024840688
18	0x3d909d80	0.07061291
19	0xbdabadf7	-0.083827905
20	0xbd96ff4f	-0.07372915
21	0xbe1286ee	-0.14309284
22	0xbe0187df	-0.12649487
23	0xbd860b58	-0.065451324
24	0xbd199980	-0.037499905
25	0xbdf5783c	-0.119858235
26	0xbd9244e2	-0.071420446
27	0x3d977da6	0.073970124
28	0x3defda3c	0.11711547
29	0x3d4b65c9	0.049657617
30	0xbd9f01b1	-0.077639945
31	0xbcea4fb7	-0.028602464
32	0x3efd3c96	0.49460286
33	0x3e0355b1	0.12825657
34	0xbd28fdb4	-0.041257575
35	0x3eb42303	0.35182962
36	0x3bafbc14	0.005362997
37	0xbcbf2f99	-0.023338126
38	0x3d0289b2	0.031869598
39	0xba6e1dcc	-0.00090834196
40	0xbc5c9891	-0.013464109
41	0x3da1f7b6	0.07908575
42	0xbc05eaa6	-0.00817362
43	0x3cb28484	0.021791704
44	0x3c01ea48	0.007929392
45	0x3d558c60	0.052135825
46	0xbd690e2c	-0.05689828
47	0xbdeb0235	-0.1147503
48	0xbea0c080	-0.31396866
49	0xbc7a439b	-0.015274907
50	0x3996e793	0.00028782766
51	0xbc244396	-0.010025879
52	0x3d0a0ee5	0.03370561
53	0x3c049fd2	0.008094745
54	0xbd2df2d5	-0.04246791
55	0x3c92b9f4	0.017910935
56	0xbd584429	-0.052799378
57	0xbd74b6c7	-0.059744623
58	0xbd7bdce1	-0.061489943
59	0x3d088a3d	0.03333496
60	0x3dafbb44	0.0858064
61	0x3d00f15c	0.03148018
62	0xbd28afc3	-0.041183244
63	0xbd377707	-0.044791248
64	0xbc3b03ec	-0.011414509
65	0x3e23308f	0.15936492
66	0x3d97a33b	0.074041806
67	0xbe312399	-0.17298736
68	0xbe293624	-0.1652456
69	0x3d7601a3	0.060060155
70	0xbd342e9f	-0.043989774
71	0x3cd69527	0.026194168
72	0x3b94320e	0.0045225685
73	0x3ca324d1	0.019915016
74	0xbdf7a6c6	-0.120923564
75	0x3d9fdd1d	0.07805846
76	0x3ddf1d80	0.108942986
77	0xbd5611ca	-0.05226306
78	0xbd6906da	-0.0568913
79	0xbe0b9aed	-0.13633318
80	0x3e9b4688	0.3032725
81	0x3b4729ce	0.0030389908
82	0x3d54d26e	0.051958494
83	0x3daf14b8	0.08548874
84	0xbd8b150c	-0.06791124
85	0xbbc6101e	-0.006044402
86	0xbd171e26	-0.036893986
87	0x3ca2329c	0.019799523
88	0x3e040eb3	0.12896232
89	0xbd450e80	-0.04810953
90	0x3d4ac624	0.049505368
91	0x3c87c6cc	0.016574286
92	0xbd9655d2	-0.07340588
93	0xbe6057e3	-0.21908526
94	0x3e0ff8e6	0.14059791
95	0xbd0bd4ec	-0.034138605
96	0x3e216121	0.15759708
97	0x3d3cb22b	0.04606835
98	0x3cfb8e5b	0.030707529
99	0x3dd74dbe	0.10512875
100	0x3dbfc912	0.09364523
101	0xbdc4c7dd	-0.096084334
102	0xbce763bb	-0.028245797
103	0x3e4561d5	0.19275601
104	0x3cb21cfa	0.021742333
105	0xbc0d61f5	-0.008629312
106	0xbdfa08d9	-0.12208719
107	0x3d0a0a91	0.033701483
108	0x3dced997	0.10100096
109	0xb90e2dab	-0.00013559188
110	0xbcf20bba	-0.029546607
111	0xbd5e8430	-0.054325283
112	0x3e48fecb	0.19628446
113	0x3e039bcc	0.128524
114	0xbda3593d	-0.07976005
115	0x3cb5635b	0.022142103
116	0xbdb0ba90	-0.08629334
117	0x3da40e30	0.080105186
118	0xbe0ae1b0	-0.13562655
119	0xbd8e3f29	-0.069456406
120	0x3dcd2d6b	0.100184284
121	0x3d7aa9e3	0.061197173
122	0x3df8bc56	0.12145297
123	0x3d80cb03	0.062887214
124	0xbe1be2bd	-0.15223213
125	0xbd833f2a	-0.06408532
126	0x3d7b0577	0.06128451
127	0x3d60fc0a	0.054927863
128	0xb8545800	-5.0626695e-05
129	0xbdcd0ef6	-0.10012619
130	0xba080380	-0.000518851
131	0xbd0050a4	-0.031326905
132	0xbd8d0511	-0.06885732
133	0x3e215215	0.15753968
134	0x3d8f8e2c	0.07009539
135	0x3cc1493e	0.023594495
136	0xbd8a559a	-0.067546085
137	0x3d07a14f	0.03311282
138	0x3c4d16fe	0.012517689
139	0xbd486b17	-0.048930254
140	0x3cb7e497	0.022447867
141	0x3dd38b06	0.10329251
142	0x3d33def6	0.043913804
143	0x3ca5b459	0.020227598
144	0xbd06f02b	-0.032943886
145	0xbe054d8b	-0.13017862
146	0xbe4e0f58	-0.2012304
147	0xbd808b8d	-0.06276617
148	0x3c96ddc2	0.01841629
149	0x3d2150a5	0.03938355
150	0xbdc3f302	-0.095678344
151	0x3d6a8d19	0.057263467
152	0xbd15e697	-0.03659686
153	0x3d064037	0.032776084
154	0x3d779430	0.060444057
155	0xbdda95d3	-0.10673108
156	0xbc96dce4	-0.018415876
157	0xbd802641	-0.06257296
158	0xbd0535de	-0.032522075
159	0x3cc0899a	0.023503114
160	0xbc8c4fb7	-0.017127855
161	0xbd1b80e0	-0.0379647
162	0xbd48784d	-0.048942853
163	0xbc19c468	-0.009385206
164	0x3ef423a3	0.4768344
165	0x3c9851bb	0.01859366
166	0x3e4cb518	0.19990957
167	0x3d93234b	0.07184466
168	0xbd6aed84	-0.05735542
169	0xbd091dc5	-0.033475656
170	0x3e1c94f3	0.15291195
171	0x3d50971e	0.050925367
172	0xbe508b59	-0.20365657
173	0x3d153690	0.036428988
174	0xbe568709	-0.2094995
175	0x3cbb7706	0.022883903
176	0x3da42ad0	0.08015978
177	0x3c505677	0.012715927
178	0xbe2b1d14	-0.16710311
179	0x3e2cd1b2	0.16876867
180	0x3ddb98ba	0.1072249
181	0xbe61b6e9	-0.22042431
182	0xbd261e92	-0.040556498
183	0x3d73c0ae	0.059509926
184	0x3c9c6aef	0.019093959
185	0xbd4d1242	-0.05006624
186	0x3df93190	0.121676564
187	0xbe17c133	-0.14819793
188	0x3c64903f	0.013950407
189	0x3dd2defb	0.102964364
190	0x3de2ffcb	0.11083945
191	0x3c10ffc9	0.008850046
192	0xbc27877c	-0.010225173
193	0xbe30f292	-0.17280033
194	0x3d402789	0.046912704
195	0x3d65383c	0.055961832
196	0x3a713ec0	0.0009202771
197	0xbd1101be	-0.035402052
198	0x3d199827	0.03749862
199	0x3d865042	0.06558277
200	0x3b6018cb	0.0034194465
201	0x3cc430e1	0.023949089
202	0xbdbc80f5	-0.09204284
203	0x3c862cf1	0.016378852
204	0x3d447bc6	0.047969602
205	0xbde92dda	-0.113856986
206	0xbe19c97f	-0.15018271
207	0x3e9d9da5	0.30784336
208	0x3e7e6131	0.24841763
209	0x3dd79eae	0.105283126
210	0x3e3c3a89	0.18381704
211	0xbc9f4759	-0.0194432
212	0xbca27533	-0.019831276
213	0x3dd3b055	0.10336367
214	0x3c958c28	0.018255308
215	0x3ded8949	0.11598451
216	0xbbba8e92	-0.0056932652
217	0xbd47e0e5	-0.04879846
218	0xbd1451a5	-0.036210675
219	0xbe2a5e09	-0.16637434
220	0xbd6102bb	-0.054934245
221	0xbe4c3944	-0.1994372
222	0xbdd187c4	-0.10230973
223	0xbdbd7319	-0.09250469
224	0xbb881973	-0.0041534244
225	0x3dfb1b43	0.12261059
226	0xbc9740ba	-0.018463481
227	0xbd2f707f	-0.042831894
228	0xbe12f0bf	-0.1434965
229	0x3c2ce8ac	0.01055352
230	0xbf125aed	-0.5716999
231	0xbe6ba44e	-0.23011896
232	0xbd194bcf	-0.037425812
233	0xbd800f73	-0.06252947
234	0x3d86dee0	0.06585479
235	0xbd73fcb2	-0.05956716
236	0xbd73bd86	-0.059506916
237	0xbcc85f10	-0.024459392
238	0xbe0dbe7f	-0.138422
239	0xbd187e31	-0.03722972
240	0x3db17959	0.08665723
241	0x3d265bef	0.04061502
242	0xbd2ec479	-0.04266784
243	0xbd172ed2	-0.036909886
244	0x3d7fae9e	0.062422387
245	0x3cb8c466	0.022554588
246	0x3de9dab4	0.114186674
247	0xbc8c73d1	-0.01714507
248	0xbc8ee01f	-0.017440854
249	0x3d5b2275	0.053499658
250	0x3d482884	0.048866764
251	0x3d958cce	0.07302247
252	0x3e3caa9c	0.18424457
253	0x3d8a9209	0.06766135
254	0xbcdb2607	-0.026751531
255	0x3d19e8f1	0.037575666

fc1.bias f4 [400]
0	0xbe311dd5	-0.17296536
1	0xbe0baa8f	-0.13639282
2	0x3eb56007	0.35424826
3	0xbd6be1d9	-0.057588432
4	0xbe21fc8d	-0.15818997
5	0xbdfc5946	-0.12321715
6	0xbe7e447f	-0.24830817
7	0xbd8f4de5	-0.06997279
8	0xbdcebfa2	-0.10095145
9	0xbe33bd40	-0.17552662
10	0x3e1eba5e	0.15500781
11	0xbe1c9d13	-0.15294294
12	0x3dc059ed	0.09392152
13	0xbdc4a6df	-0.09602141
14	0xbe3fba58	-0.18723428
15	0xbdebdcba	-0.115167096
16	0xbe22fe3f	-0.159173
17	0xbd95eb6e	-0.07320295
18	0xbe4af956	-0.19821677
19	0x3cd615ea	0.026133496
20	0xbe953529	-0.2914212
21	0xbd01a221	-0.03164876
22	0xbe286e67	-0.16448365
23	0xbe22812f	-0.15869592
24	0x3ceaaaac	0.028645836
25	0xbe85f179	-0.26160792
26	0xbe064df3	-0.13115673
27	0x3e0c3c73	0.13694935
28	0x3e9925ab	0.2991155
29	0xbddb273c	-0.10700843
30	0x3d255e4f	0.040373143
31	0x3ccde5a5	0.025133917
32	0x3e6d7cac	0.2319209
33	0xbd6908d2	-0.056893177
34	0x3d826c76	0.063683435
35	0xbcb89ee4	-0.022536702
36	0xbd99e325	-0.075140275
37	0x3e46a29e	0.19397971
38	0x3e13b590	0.1442473
39	0x3d61564a	0.055013932
40	0x3dd8b770	0.10581863
41	0x3b3d88df	0.0028920693
42	0x3d7ca601	0.06168175
43	0xbd026137	-0.031830993
44	0x3e2741a7	0.16333638
45	0x3d276c38	0.04087469
46	0x3e2c6cd9	0.16838397
47	0x3e2d2fa3	0.16912703
48	0xbdf1ec16	-0.11812608
49	0xbe429d7a	-0.19005385
50	0x3c354e45	0.011066024
51	0x3d82c02d	0.06384311
52	0x3e4fc62a	0.20290437
53	0x3e8e7e5b	0.27830777
54	0x3dd0fd04	0.10204509
55	0x3e3b8373	0.18311863
56	0x3dee8fbe	0.116485104
57	0xbe536f65	-0.20647962
58	0x3c9e3160	0.019310653
59	0x3e00fa23	0.1259542
60	0xbdd88def	-0.10573947
61	0xbd31c984	-0.04340507
62	0x3deceb2c	0.11568293
63	0x3c99e7ef	0.018787352
64	0xbe66dfac	-0.22546262
65	0x3c434446	0.011918133
66	0xbcf519aa	-0.029919464
67	0xbda758c1	-0.08171225
68	0x3dd2a855	0.10286013
69	0xbe1e862b	-0.15480869
70	0x3e105617	0.1409534
71	0xbd80212e	-0.062563285
72	0x3d8d369c	0.068951815
73	0xbdf392ef	-0.1189326
74	0x3d5bccd3	0.053662132
75	0x3d543cf6	0.05181595
76	0xbe651725	-0.2237211
77	0xbda74f15	-0.081693806
78	0x3e1223ee	0.14271519
79	0xbda002b3	-0.07813015
80	0xbbbe77ce	-0.0058126217
81	0xbd544874	-0.05182691
82	0x3bf06f2f	0.007337473
83	0x3da55cd8	0.08074349
84	0x3c81931a	0.015817214
85	0x3e816dd2	0.252791
86	0x3d010416	0.031498037
87	0xbdaee2c2	-0.08539344
88	0x3e244be0	0.16044569
89	0xbdf8c5ef	-0.12147128
90	0xbe03c009	-0.12866224
91	0xbda28792	-0.07936014
92	0x3d68f682	0.056875713
93	0x3d7ac327	0.061221268
94	0xbe688f7f	-0.2271099
95	0xbe18ce5f	-0.14922474
96	0xbd5070ff	-0.05088901
97	0x3e20142a	0.15632692
98	0xbd52758e	-0.05138164
99	0x3da4afbc	0.08041331
100	0xbe1ea6db	-0.15493338
101	0x3e8aadce	0.27085727
102	0xbde77005	-0.11300663
103	0xbd584473	-0.052799653
104	0x3de42e60	0.11141658
105	0x3d37c342	0.044863947
106	0x3e3197b7	0.17343031
107	0xbb808408	-0.0039219894
108	0xbd49b09f	-0.049240705
109	0xbd51ec8f	-0.05125099
110	0x3c80c330	0.015718073
111	0xbe8885c7	-0.26664564
112	0xbd00e00c	-0.031463668
113	0xbddefcf6	-0.10888092
114	0x3e238821	0.15969898
115	0x3dacab63	0.08431127
116	0xbd555a54	-0.052088097
117	0xbd81b241	-0.06332827
118	0xbe5b46de	-0.21413752
119	0xbe012364	-0.12611157
120	0xbd99cd68	-0.07509881
121	0xbe846ef6	-0.25865906
122	0xbd9f8ecd	-0.07790909
123	0x3c97f815	0.018550912
124	0xbe6280b0	-0.22119403
125	0x3d7f0869	0.06226388
126	0x3e03a713	0.12856703
127	0xbcf6f4a7	-0.030145956
128	0x3d9c7729	0.076399155
129	0x3ded6978	0.11592382
130	0xbdfcc4a9	-0.123421974
131	0x3e4c0457	0.1992353
132	0x3e8043e2	0.2505179
133	0x3d8ab7d1	0.067733414
134	0xbdb8e648	-0.09028298
135	0xbc4d27f3	-0.012521732
136	0xbc0a4f3a	-0.008441741
137	0xbd7233f3	-0.059131574
138	0x3dc7c6f6	0.09754746
139	0xbdd61f70	-0.10455215
140	0xbd28bf40	-0.041198015
141	0xbdff00d8	-0.12451333
142	0xbd63afe3	-0.05558766
143	0x3e0b03e7	0.13575707
144	0xbdc0dee2	-0.094175115
145	0xbd6afae7	-0.057368185
146	0x3d39ad0f	0.045331057
147	0xbd626481	-0.05527163
148	0xbe53312b	-0.20624225
149	0x3d2008d6	0.039070927
150	0xbdacba6a	-0.08433993
151	0xbd48156d	-0.04884856
152	0x3dc61e48	0.096737444
153	0xbdb917e7	-0.09037762
154	0xbd383554	-0.044972733
155	0xbe686d66	-0.22697982
156	0x3cb9be4f	0.022673754
157	0xbe26ad99	-0.1627716
158	0x3cf5dd2a	0.030012686
159	0x3cbc6c6d	0.02300092
160	0xbdc2c3b1	-0.095099814
161	0x3dd77339	0.10520024
162	0x3e003c60	0.12523031
163	0x3db69111	0.08914388
164	0x3d1051cd	0.03523426
165	0xbdbd41b8	-0.092410505
166	0x3db66525	0.089060105
167	0x3dca5289	0.098790236
168	0xbd263f93	-0.040587973
169	0xbd0b20ff	-0.033967014
170	0x3c9dc02b	0.019256672
171	0xbe0ae9d7	-0.13565765
172	0xbe7643f2	-0.24049357
173	0xbdcfb72b	-0.101423584
174	0xbe43f985	-0.19138153
175	0x3e05a6dc	0.13051933
176	0xbde055db	-0.10953876
177	0xbd31a586	-0.043370746
178	0x3e02dca1	0.12779476
179	0x3dc8f4a9	0.0981229
180	0xbd2196ac	-0.039450333
181	0xbcbba6b3	-0.022906637
182	0xbe4bc813	-0.19900541
183	0xbe91d977	-0.28486225
184	0xbc1095ba	-0.00882476
185	0xbe3c52a5	-0.18390901
186	0xbdc777af	-0.09739625
187	0xbe40bd91	-0.18822314
188	0x3d074850	0.033027947
189	0x3e34e971	0.17667176
190	0xbda911cd	-0.08255348
191	0xbe225221	-0.15851642
192	0xbe5acf32	-0.21368101
193	0x3ccb8d71	0.024847718
194	0xbd1bd943	-0.038048994
195	0x3c2c1aca	0.010504434
196	0xbe46d2e0	-0.1941638
197	0xbc38f180	-0.011288047
198	0x3dcc4cb7	0.0997557
199	0xbdd0d5f1	-0.10197056
200	0xbe0020fd	-0.12512584
201	0xbdc23d02	-0.094842926
202	0xbe44fc59	-0.19236888
203	0xbdd89df2	-0.10577001
204	0xbe882558	-0.2659099
205	0x3d8fa765	0.0701435
206	0xbc7f3faf	-0.015579148
207	0x3d49fdbd	0.04931425
208	0x3d6075d4	0.05479987
209	0xbcbcf6f1	-0.02306697
210	0xbdb2c21b	-0.08728429
211	0x3da58167	0.08081322
212	0x3de4a2d7	0.11163872
213	0xbe885be2	-0.266326
214	0xbe0e7e94	-0.13915473
215	0xbe071689	-0.1319219
216	0xbde5f0e6	-0.11227588
217	0x3bd05e25	0.006358879
218	0xbcc31dfe	-0.023818012
219	0x3dd5c1f3	0.104373835
220	0xbe44d510	-0.19221902
221	0xbe4549c1	-0.19266416
222	0xbe3130f5	-0.17303832
223	0xbe1fab2c	-0.1559264
224	0x3c01402a	0.007888833
225	0xbda4837f	-0.080328934
226	0x3e153a16	0.1457294
227	0xbd4b8cf7	-0.04969498
228	0x3e4918c8	0.1963836
229	0xbe544819	-0.20730628
230	0x3d6e9a7f	0.058252808
231	0xbd83678c	-0.064162344
232	0x3e16aa2a	0.1471335
233	0xbe4b6ee3	-0.19866519
234	0xbcde62c7	-0.02714671
235	0x3e249fd5	0.16076596
236	0xbe3861fa	-0.18006125
237	0xbe1b5b3b	-0.1517152
238	0xbe0b2985	-0.13590057
239	0xbd853570	-0.06504333
240	0x3c4b5e7d	0.0124126645
241	0xbd2a1dcf	-0.041532334
242	0x3dfacb37	0.122457914
243	0x3e0b3488	0.13594258
244	0xbe2e0ef9	-0.16997899
245	0xbbecd680	-0.007227719
246	0x3e12f6e1	0.1435199
247	0x3dc6b765	0.097029485
248	0xbd8fdedc	-0.07024929
249	0xbe24d7f3	-0.16098003
250	0xbd6b0939	-0.057381842
251	0x3db20264	0.08691862
252	0xbe11be99	-0.14232863
253	0x3baaa92c	0.005208155
254	0x3e9f502b	0.3111585
255	0x3e5346a2	0.20632413

fc2.weight f4 [300, 400]
0	0x3e244040	0.16040134
1	0x3e29805d	0.16552873
2	0xbe56cde8	-0.20976985
3	0x3d53509f	0.05159056
4	0xbe4a6a71	-0.19767167
5	0xbe605c7c	-0.2191028
6	0xbd0204e2	-0.031742938
7	0xbe3909cb	-0.18070142
8	0xbe61415a	-0.21997586
9	0x3d7426dd	0.059607375
10	0xbdc67e63	-0.09692075
11	0x3da9e4b7	0.08295577
12	0xbd7ffdb8	-0.062497824
13	0x3d693815	0.05693825
14	0xbe2b6502	-0.1673775
15	0xbe8d4891	-0.27594426
16	0x3e3b2ec0	0.18279552
17	0xbd47368a	-0.048635997
18	0x3e3846ea	0.17995802
19	0x3e0c80c1	0.1372099
20	0xbe50d18a	-0.20392433
21	0x3d691425	0.056903977
22	0xbd45d359	-0.04829726
23	0xbe0e925a	-0.13923016
24	0xbd0811ec	-0.033220217
25	0x3de53a88	0.111928046
26	0x3eac3233	0.3363205
27	0x3b328e40	0.0027245432
28	0xbd4dcf69	-0.05024663
29	0xbe82fb62	-0.25582415
30	0x3d37041b	0.04468165
31	0xbe1c9364	-0.152906
32	0xbe14585c	-0.14486831
33	0xbe9cd18b	-0.3062862
34	0xbe3df132	-0.1854904
35	0xbe06ac02	-0.13151553
36	0xbe1dfba8	-0.1542803
37	0xbe146ab4	-0.14493829
38	0xbd1097e4	-0.035301104
39	0x3dea940d	0.1145402
40	0x3d561737	0.052268233
41	0x3e18fc7b	0.14940064
42	0xbbab1b63	-0.0052217706
43	0xbe18f209	-0.14936079
44	0xbd59ce1a	-0.05317507
45	0x3df3b96c	0.11900601
46	0xbd6862ac	-0.056734726
47	0x3d26aa33	0.04068966
48	0xbc59a347	-0.013283557
49	0x3def2db5	0.1167864
50	0x3e48f57e	0.19624898
51	0xbca5e5f4	-0.020251252
52	0xbe08f261	-0.1337371
53	0xbedda43e	-0.4328937
54	0x3db3a4bc	0.08771655
55	0xbe02208b	-0.12707727
56	0xbbe90ea7	-0.0071123424
57	0x3da531ad	0.080661155
58	0x3d6e8af3	0.05823798
59	0xbcbed451	-0.0232946
60	0xbe2ad3a6	-0.166823
61	0x3d1a3133	0.037644576
62	0xbcd23310	-0.025659114
63	0x3e5d2f9a	0.2160019
64	0xbe202f82	-0.15643123
65	0x3cf02482	0.029314283
66	0x3e01d552	0.12679031
67	0xbd287607	-0.041128185
68	0xbd623861	-0.05522955
69	0x3e341bfe	0.17588803
70	0x3bb5635e	0.005535527
71	0x3e87f3ce	0.26553196
72	0x3d21532b	0.039385956
73	0x3e272c40	0.16325474
74	0xbe884565	-0.26615444
75	0xbe2c125e	-0.16803882
76	0xbc2819f9	-0.010260099
77	0xbe31cb28	-0.17362654
78	0xbdbd7c1e	-0.09252189
79	0xbd01e0a1	-0.031708363
80	0xbd3243cd	-0.04352169
81	0x3c4a28d1	0.012338833
82	0xbe94861d	-0.2900857
83	0xbcdd448a	-0.027010221
84	0xbd70d3be	-0.058795683
85	0x3db30406	0.08741002
86	0xbd1a2bef	-0.037639555
87	0x3e48a7d1	0.19595267
88	0xbe86c941	-0.2632542
89	0x3e8abeff	0.27098843
90	0xbd1b5356	-0.037921272
91	0xbc981199	-0.018563079
92	0x3dd6c573	0.10486879
93	0xbde2374a	-0.11045702
94	0xbe57d655	-0.21077855
95	0x3e30828d	0.17237301
96	0xbdc03f6b	-0.09387096
97	0x3e8aeb2d	0.2713255
98	0x3ce92c7c	0.028463595
99	0x3e2c844f	0.16847347
100	0x3e1df1bb	0.15424244
101	0xbcc8b9a6	-0.024502587
102	0xbe28b29a	-0.16474381
103	0x3e30eccc	0.17277831
104	0xbed40b5e	-0.41414922
105	0xbdaec64e	-0.08533917
106	0xbd36e0fa	-0.044648148
107	0x3ebb9677	0.36638233
108	0xbead312f	-0.33826587
109	0x3d429617	0.047506418
110	0xbe169a45	-0.14707287
111	0xbd253ee8	-0.040343195
112	0xbec1d9b5	-0.3786141
113	0x3dcc9fb3	0.09991398
114	0x3cd7675e	0.026294407
115	0x3d07e848	0.033180505
116	0x3ca02b3b	0.019551864
117	0xbdfc3229	-0.12314255
118	0x3e63e645	0.2225581
119	0xbdb11be2	-0.08647896
120	0x3d5fd3e5	0.054645438
121	0x3e00c038	0.12573326
122	0x3b87a76c	0.0041398313
123	0x3e531416	0.20613131
124	0x3e059371	0.13044526
125	0x3d522715	0.051306803
126	0x3d4de0d6	0.05026325
127	0x3a9d2421	0.0011988917
128	0x3e2d0293	0.16895513
129	0x3e73c49f	0.23805474
130	0xbe59808a	-0.2124044
131	0x3cecead1	0.028920563
132	0xbe962b85	-0.29330078
133	0xbd825fff	-0.06365966
134	0xbe586d07	-0.2113534
135	0x3cc8ae23	0.024497097
136	0x3d8cef5c	0.06881592
137	0x3ea31ab4	0.3185631
138	0xbe98ad25	-0.298196
139	0x3dabdf65	0.083922185
140	0xbe973f5c	-0.29540527
141	0xbbf2595f	-0.007395908
142	0xbe01233f	-0.12611102
143	0xbe4305d4	-0.19045192
144	0xbe102e41	-0.14080144
145	0x3db437b5	0.08799688
146	0xbb72ec19	-0.0037066995
147	0x3e5f0c66	0.21782073
148	0xbda69b8b	-0.08135136
149	0xbd75e8ee	-0.060036592
150	0x3bcca288	0.006244961
151	0x3d927192	0.07150568
152	0xbca7a009	-0.020462053
153	0xbe80a5bf	-0.25126454
154	0x3e9f98ea	0.31171352
155	0xbdce4aad	-0.10072837
156	0xbcd6e445	-0.026231894
157	0xbd884f2d	-0.066557266
158	0xbda57c97	-0.08080404
159	0xbd8b11f1	-0.067905314
160	0x3d1426d3	0.03616984
161	0x3da4d261	0.08047939
162	0xbee3d9bd	-0.4450206
163	0x3dc9abee	0.09847246
164	0xbddd8458	-0.10816258
165	0x3d9075b4	0.070537
166	0x3deafcdb	0.114740096
167	0xbdc13455	-0.0943381
168	0xbc9910e4	-0.018684812
169	0xbd403146	-0.04692199
170	0x3d16fc1f	0.036861535
171	0xbbc60175	-0.006042654
172	0xbde5f0ca	-0.112275675
173	0xbd8e3f05	-0.06945614
174	0xbd373cc1	-0.044735674
175	0x3d5ef2c3	0.054430734
176	0xbdbbf7a4	-0.09178093
177	0x3c2f6b63	0.010706755
178	0xbe7efbcd	-0.24900742
179	0xbda4af26	-0.080412194
180	0x3d9917fe	0.07475279
181	0xbc40c752	-0.011766272
182	0x3df5b323	0.11997058
183	0x3e5d749e	0.21626517
184	0xbd230595	-0.039800245
185	0xbdda513e	-0.10660027
186	0x3dcd7445	0.10031942
187	0xbe8c431b	-0.27394947
188	0x3bd42699	0.0064743278
189	0xbd628757	-0.05530485
190	0x3dd11b36	0.10210268
191	0x3db64861	0.08900524
192	0xbcd67dc1	-0.026183011
193	0x3dc35623	0.09537914
194	0x3d866a99	0.06563301
195	0x3d2a36e4	0.041556254
196	0x3df1861a	0.11793156
197	0xbdef917e	-0.11697672
198	0x3b88ecba	0.0041786106
199	0xbe729a3c	-0.23691648
200	0xbda8226d	-0.08209691
201	0xbafb3fed	-0.0019168832
202	0xbd94b996	-0.0726196
203	0xbe52efe7	-0.20599328
204	0xbe01584c	-0.12631339
205	0x3d03383d	0.032036055
206	0x3d78c0b1	0.06073064
207	0xbd17fcc3	-0.037106287
208	0xbe1a993a	-0.15097514
209	0xbdcc8696	-0.09986608
210	0x3d757cd6	0.059933506
211	0xbe02891b	-0.12747614
212	0xbe510bdb	-0.20414679
213	0xbec9b66b	-0.39396986
214	0xbe7c5ad9	-0.2464403
215	0xbda126a0	-0.07868695
216	0x3e09fc3d	0.13475128
217	0xbe044bea	-0.12919584
218	0x3d2cdaff	0.04220104
219	0x3e5d1a3f	0.21592043
220	0xbdad5d62	-0.08465077
221	0xbe049caa	-0.12950388
222	0x3c8dd45d	0.017313177
223	0x3d508b83	0.0509143
224	0x3d989aea	0.074514225
225	0xbcf2f4b7	-0.029657705
226	0x3e1d5240	0.15363407
227	0x3d10ffdf	0.035400268
228	0xbdcb4c48	-0.09926659
229	0x3de39798	0.111128986
230	0xbea185ea	-0.3154748
231	0xbe2460a6	-0.16052493
232	0xbd0df180	-0.03465414
233	0xbdc56aea	-0.09639533
234	0x3e00abc7	0.12565528
235	0xbd9ced36	-0.07662432
236	0xbdcf06bf	-0.101087086
237	0xbedf2a35	-0.4358689
238	0xbe5640ea	-0.209232
239	0x3dd670bc	0.10470721
240	0xbdaacd27	-0.08339911
241	0xbda7bb85	-0.081900634
242	0xbceab175	-0.028649071
243	0xbe24c323	-0.16090064
244	0xbde9196f	-0.11381804
245	0x3cf6df83	0.030135876
246	0x3d85d3ac	0.06534514
247	0xbc08f143	-0.0083583025
248	0xbd6b862b	-0.057501
249	0xbe72b592	-0.23702076
250	0x3d5d4f51	0.05403072
251	0xbd72e628	-0.059301525
252	0x3d932493	0.0718471
253	0xbe59fb8a	-0.21287361
254	0xbd02b889	-0.031914268
255	0xbdd1eebb	-0.10250612

fc2.bias f4 [300]
0	0x3d6f15ae	0.058370285
1	0x3cf96e0b	0.03044798
2	0xbc1bc360	-0.00950703
3	0x3cd06ff9	0.025444018
4	0xbd296e1d	-0.041364778
5	0x3cb882c7	0.022523297
6	0xbdd66147	-0.10467773
7	0x3c96abe4	0.01839251
8	0x3d63a37c	0.055575833
9	0x3d915a34	0.07097283
10	0xbd690192	-0.056886263
11	0x3c1a3fae	0.0094145965
12	0xbd4615b2	-0.048360534
13	0xbd6aefa5	-0.05735745
14	0xbd932e61	-0.071865804
15	0xbdb8b57d	-0.09018991
16	0xbd2c5495	-0.04207285
17	0x3d11224d	0.035433102
18	0x3da72ac9	0.081624575
19	0xbcc3a200	-0.023880959
20	0x3d65403a	0.055969454
21	0x3dfe5de9	0.12420256
22	0xbcf07c97	-0.029356284
23	0x3d89a11a	0.06720181
24	0x3d407d89	0.04699472
25	0xbbecd2e0	-0.0072272867
26	0xbd045c90	-0.032314837
27	0xbcda0155	-0.026611963
28	0x3d64f9bb	0.055902224
29	0x3d29c911	0.041451517
30	0x3d6d9cee	0.058010988
31	0xbd2d5310	-0.042315543
32	0x3d8b5a33	0.068043135
33	0xbcecd529	-0.028910236
34	0xbe290c72	-0.16508654
35	0xbc708bf3	-0.014681804
36	0x3d2b6737	0.04184648
37	0xbd19d3d2	-0.037555523
38	0xbb4828f7	-0.0030541995
39	0x3b2bb142	0.0026198183
40	0x3d949a4b	0.072559915
41	0xbd5b6704	-0.05356504
42	0x3c6aafbf	0.014324128
43	0xbd99b2b0	-0.07504785
44	0x3d76caa0	0.060251832
45	0x3cecff1c	0.02893024
46	0xbb8697b5	-0.0041074404
47	0xbd3cf86e	-0.04613536
48	0xbd01af4b	-0.031661313
49	0xbd541264	-0.05177535
50	0xbadc58f9	-0.0016811184
51	0xbe0a769e	-0.13521811
52	0x3c8aa61a	0.016924907
53	0x3c986a34	0.01860533
54	0xbc2f2dcd	-0.010692072
55	0xbc0e560e	-0.008687509
56	0xbc7ce5b3	-0.015435624
57	0xbd849cd8	-0.06475228
58	0xbcbbddc0	-0.022932887
59	0xbe164187	-0.14673434
60	0x3d908375	0.070563234
61	0x3d39fb80	0.045405865
62	0x3c929404	0.017892845
63	0xbd1e256d	-0.03860991
64	0x3c8ee410	0.017442733
65	0x3d38c378	0.04510829
66	0x3c7747c1	0.015092791
67	0xbbda5ee2	-0.006664143
68	0x3c864e25	0.016394684
69	0xbc5f7e30	-0.013640925
70	0x3d3b7333	0.04576416
71	0xbc0f273d	-0.0087373825
72	0xbc95d0d0	-0.018288046
73	0xbcb9baf2	-0.02267215
74	0x3cfa3191	0.030541213
75	0xbd0421d7	-0.032258835
76	0xbd43d864	-0.047813788
77	0x3d122b74	0.03568597
78	0xbd38d42d	-0.04512422
79	0xbd752060	-0.05984533
80	0xbd2e0dc1	-0.042493585
81	0xbdfeb7d7	-0.124374084
82	0xbd5c0ddf	-0.053724166
83	0xbcd78940	-0.026310563
84	0x3d15446a	0.036442198
85	0xbdc8d935	-0.09807054
86	0xbdd62885	-0.10456947
87	0x3c641b50	0.013922527
88	0xbcb6464f	-0.022250323
89	0xbad2739a	-0.001605618
90	0x3cc285e1	0.023745479
91	0xbc5d96ec	-0.013524752
92	0xbc010315	-0.00787427
93	0x3c99434f	0.018708853
94	0x3d38eb86	0.045146488
95	0xbbe72db9	-0.007055011
96	0xbba6d93a	-0.0050918134
97	0x3c23f504	0.010007147
98	0xbd6b536d	-0.057452608
99	0x3c34f640	0.011045039
100	0x3c999e41	0.01875222
101	0xbc2bc7a4	-0.01048461
102	0x3c156c89	0.009120115
103	0xbd5c8869	-0.05384103
104	0xbb916408	-0.0044369735
105	0x3c36ba74	0.011152852
106	0xbdb43b93	-0.088004254
107	0xbd6451df	-0.05574214
108	0x3cf78db7	0.030218942
109	0x3d99970b	0.07499512
110	0x3d1ce8d9	0.038308
111	0x3d2abd78	0.041684598
112	0x3d38d98f	0.045129355
113	0xbd6e9f38	-0.05825731
114	0xbd766c76	-0.06016203
115	0x3a6a2901	0.00089325017
116	0x3d48cb62	0.049022086
117	0x3d6d5ed7	0.057951774
118	0x3d488d08	0.048962623
119	0x3d6fb96c	0.05852644
120	0xbd5328a4	-0.05155243
121	0xbdd3e3c3	-0.103461765
122	0x3c80e864	0.015735812
123	0xbd1aab01	-0.03776074
124	0xbde0517e	-0.109530434
125	0x37bea040	2.2724387e-05
126	0x3d86e327	0.065862946
127	0x3d4f15a7	0.05055776
128	0x3cf690d9	0.030098366
129	0x3c965f64	0.018356033
130	0x3cdc98e5	0.026928375
131	0xbd271b25	-0.04079737
132	0xbcef300e	-0.029197719
133	0xbda8d43c	-0.082436055
134	0x3d22dc7b	0.039761048
135	0xbdd01fc2	-0.10162307
136	0x3d5a7682	0.053335674
137	0x3d199442	0.037494905
138	0x3d011892	0.031517573
139	0x3cc4e80b	0.024036428
140	0xbd9723bb	-0.07379862
141	0xbd024a24	-0.031808987
142	0xbdc6fc1c	-0.09716055
143	0x3d1144a7	0.035465863
144	0x3ba64477	0.0050740796
145	0x3ba39685	0.0049923086
146	0x3cf7662b	0.030200085
147	0xba5aa381	-0.0008340404
148	0xbcc2b676	-0.023768645
149	0x3d364860	0.044502616
150	0xbcf1d700	-0.029521465
151	0xbd138dc0	-0.036023855
152	0x3d822c01	0.06356049
153	0xbc47b3a0	-0.012188822
154	0xbcc76a38	-0.024342641
155	0x3cdc5d73	0.026900029
156	0xbccfb826	-0.025356364
157	0xbbbccbba	-0.005761591
158	0xbcc5aba3	-0.024129694
159	0x3d4eb17e	0.05046224
160	0xbcec3a62	-0.028836433
161	0x3d65fa54	0.056146935
162	0xbda15e8a	-0.0787936
163	0xbd387179	-0.04503009
164	0x3bf1d4b6	0.0073800934
165	0xbdd25463	-0.10270002
166	0x3ca17d17	0.019712968
167	0x3ca34d23	0.019934243
168	0x3ceb639d	0.028734023
169	0x3cadccd8	0.021215841
170	0x3d21e762	0.039527304
171	0xbd4f32a6	-0.05058541
172	0xbd3059be	-0.043054335
173	0xbc92f092	-0.017936978
174	0x3d4e39d0	0.050348103
175	0xbd391a5c	-0.045191154
176	0x3c1b1a74	0.009466756
177	0xbc3099ad	-0.010778827
178	0xbc8a35ac	-0.016871296
179	0x3cd7e542	0.026354436
180	0x3c29d2fc	0.010365244
181	0xbccdad56	-0.025107067
182	0x3d5c3be1	0.053768042
183	0xbd5404a4	-0.05176224
184	0x3ce27337	0.02764283
185	0xbc519c9e	-0.012793688
186	0x3c518a5a	0.012789333
187	0xbd220c88	-0.039562732
188	0xbc9776c2	-0.018489245
189	0x3c9924ba	0.01869427
190	0x3c9bea82	0.01903272
191	0x3dc44a89	0.09584529
192	0x3c62f957	0.013853393
193	0xbe1d80b3	-0.15381126
194	0xbcf7997f	-0.03022456
195	0x3d7f1a77	0.0622811
196	0xbd9144db	-0.07093211
197	0xbc7494f4	-0.014928091
198	0x3d3bb611	0.04582793
199	0xbc3f962a	-0.011693517
200	0x3c2d8c25	0.010592495
201	0xbd8aa87c	-0.06770417
202	0xbe037925	-0.12839182
203	0xb98c25ea	-0.0002673113
204	0xbd6f0b5c	-0.058360443
205	0x3cb717c0	0.022350192
206	0x3df24f7a	0.11831565
207	0xbcb38588	-0.021914259
208	0xbdb10669	-0.08643801
209	0x3ca609d1	0.020268353
210	0x3b7eb6e7	0.0038866343
211	0x3c329600	0.010900021
212	0xbc326d81	-0.010890366
213	0x3bbb5381	0.0057167416
214	0xbd9d0c78	-0.07668394
215	0x3d9289a7	0.07155161
216	0xbd858f16	-0.06521432
217	0xbe20e77a	-0.15713301
218	0x3d8a1ca6	0.067437455
219	0xbd3f774e	-0.046744637
220	0xbd017f30	-0.031615436
221	0xbd449080	-0.04798937
222	0x3d070a2e	0.032968692
223	0xbcd5b263	-0.026086038
224	0x3d0b4910	0.034005225
225	0xbd00dc78	-0.031460255
226	0xbc89542f	-0.016763775
227	0x3c34d7d8	0.011037789
228	0xbcad5309	-0.021157758
229	0x3c8f9d5d	0.017531091
230	0x3c0e55d2	0.008687453
231	0xbd0776db	-0.033072334
232	0xbc596500	-0.013268709
233	0x3cd98495	0.026552478
234	0xbbbce86f	-0.005765013
235	0xbd030e5e	-0.031996123
236	0xbd850b96	-0.064963505
237	0x3d0f2701	0.034949306
238	0x3cd7d052	0.026344452
239	0x3ce2732f	0.027642814
240	0x3d64cb52	0.055857964
241	0x3dc8d650	0.09806502
242	0x3d9e3d53	0.077265404
243	0xbd1690b1	-0.036759082
244	0x3db53e42	0.08849765
245	0xbd593c86	-0.053036235
246	0x3d482961	0.048867587
247	0x3cc4ce59	0.024024175
248	0xbd05ecf0	-0.032696664
249	0xbdcec1f2	-0.10095586
250	0xbccc4352	-0.024934445
251	0x3c161c84	0.009162072
252	0x3cc56851	0.024097594
253	0x3d19c804	0.037544265
254	0xbdd120af	-0.10211312
255	0xbc449cd3	-0.01200028

fc3.weight f4 [4, 300]
0	0xbea43ff6	-0.32080048
1	0x3e81c1c2	0.25343138
2	0x3e21de71	0.15807511
3	0x3d4c2d52	0.04984791
4	0x3f384e1a	0.71994174
5	0x3d87e88a	0.0663615
6	0x3e1cb094	0.15301734
7	0xbdbb3726	-0.09141378
8	0x3f911dcb	1.1337217
9	0x3f5201a0	0.8203373
10	0xbee08ed4	-0.4385897
11	0xbebb0838	-0.36529708
12	0xbd3fce89	-0.046827827
13	0xbf00c5a3	-0.5030157
14	0x3ebcef61	0.36901382
15	0xbf2bbaac	-0.67081714
16	0xbf70c86f	-0.9405584
17	0x3d94a3bb	0.072577916
18	0x3d423403	0.047412883
19	0x3d416ebd	0.04722475
20	0xbc68401c	-0.014175441
21	0x3f1867a6	0.59533155
22	0xbe09102a	-0.13385072
23	0xbd981b4c	-0.074270815
24	0x3ea60aa6	0.3243
25	0xbcd44d2e	-0.025915708
26	0x3eb5165b	0.35368618
27	0xbe040233	-0.12891464
28	0xbeb21a77	-0.34785816
29	0x3fa17bf7	1.2615956
30	0x3da42ec4	0.08016732
31	0xbdd56719	-0.10420055
32	0x3e8a2184	0.26978695
33	0xbdf16036	-0.11785929
34	0x3f59d5bd	0.85091764
35	0x3d6917f9	0.056907628
36	0x3f0ed6a5	0.5579627
37	0xbbcae8a7	-0.006192285
38	0x3ed6558d	0.41862145
39	0xbdfd02f0	-0.12354076
40	0x3bee1f90	0.007266946
41	0x3cd7d96b	0.02634879
42	0x3eb623df	0.35574242
43	0xbe80c233	-0.25148162
44	0xbeadf00e	-0.3397221
45	0x3ccf2944	0.025288232
46	0x3e45a8a6	0.19302616
47	0xbd06392f	-0.03276938
48	0x3ef40467	0.4765961
49	0x3eed28e2	0.46320254
50	0x3ed2de05	0.41185012
51	0x3e42b043	0.19012551
52	0xbf24bd71	-0.64351565
53	0xbd90bc87	-0.07067209
54	0xbe994a29	-0.29939392
55	0x3faa7605	1.3317267
56	0xbf2d019b	-0.67580575
57	0xbe805018	-0.25061107
58	0x3e1a9973	0.15097599
59	0x3f2a984a	0.66638625
60	0x3d887c32	0.066643134
61	0x3c7141dd	0.014725176
62	0xbc2a7a09	-0.010405072
63	0xbf66509e	-0.8996676
64	0xbe9a8f70	-0.3018756
65	0x3ee7ca6a	0.45271617
66	0x3ebd45f1	0.36967424
67	0x3f1684a4	0.58796144
68	0x3f35baf9	0.7098842
69	0xbf01a349	-0.5063978
70	0xbed8c792	-0.4233976
71	0xbea429ef	-0.32063243
72	0xbf01b031	-0.5065947
73	0x3f5186eb	0.81846493
74	0x3e07c7ff	0.13259886
75	0x3eeb233d	0.45925322
76	0x3f25cf8f	0.64769834
77	0x3d8d6042	0.06903125
78	0x3f339108	0.70143175
79	0x3ebc8de3	0.36827
80	0xbd7cf51f	-0.061757203
81	0x3e007593	0.12544851
82	0xbd88437e	-0.06653498
83	0x3f1fcfe0	0.6242657
84	0xbbed37e3	-0.007239328
85	0xbe477e01	-0.1948166
86	0xbea23916	-0.31684178
87	0xbe0eae6f	-0.13933729
88	0xbe8fc9a2	-0.2808352
89	0xbf6ea0de	-0.93214214
90	0xbdf4fa9a	-0.11961861
91	0x3e45520a	0.19269577
92	0xbf884a8d	-1.0647751
93	0x3e90faf5	0.28316465
94	0x3e6de705	0.23232658
95	0x3ec891cc	0.39173734
96	0x3d00ac6d	0.031414438
97	0xbe7a53f3	-0.24446087
98	0xbe548a98	-0.20755994
99	0xbef2e712	-0.47441918
100	0xbdbf8d86	-0.09353165
101	0x3f68a1a9	0.90871674
102	0xbc8d0be6	-0.017217588
103	0xbeb05dbb	-0.3444651
104	0xbda13c3e	-0.078728184
105	0x3f140931	0.57826525
106	0xbce4394e	-0.027859356
107	0x3e410ff7	0.18853746
108	0x3eaab15e	0.33338445
109	0xbf8814ee	-1.0631387
110	0x3f0f76d1	0.56040674
111	0xbe3488b0	-0.17630267
112	0xbe92b2f6	-0.2865216
113	0x3e36960d	0.17830677
114	0x3dbfb8dc	0.09361431
115	0xbf938530	-1.1525021
116	0x3f6cb004	0.9245608
117	0x3da20f04	0.0791302
118	0x3f103b8d	0.5634087
119	0x3dae04d2	0.08497013
120	0xbed04731	-0.40679315
121	0xbe19799c	-0.14987797
122	0x3ead8d82	0.33897024
123	0x3f87c4d0	1.0606937
124	0xbe6db024	-0.23211724
125	0x3d31ddd6	0.04342445
126	0x3da3128f	0.07962524
127	0x3ef168de	0.4715032
128	0xbe9e093b	-0.30866417
129	0x3e9812d9	0.2970188
130	0xbeb5cf60	-0.35509777
131	0xbe2472f8	-0.16059482
132	0x3fd24ec2	1.6430285
133	0xbf30d5d5	-0.6907628
134	0x3ec487eb	0.38384947
135	0x3f9744ea	1.1817906
136	0x3f3e98dd	0.74452
137	0xbf447e02	-0.7675477
138	0xbeeaa465	-0.45828548
139	0xbf039a95	-0.5140775
140	0xbe6ab46c	-0.22920388
141	0x3d4981ac	0.04919593
142	0xbebcb8f5	-0.3685986
143	0x3da53137	0.080660276
144	0x3f31c747	0.694447
145	0xbf6931a1	-0.9109135
146	0x3e43bfff	0.1911621
147	0xbe8bae7a	-0.27281553
148	0xbe885f59	-0.26635244
149	0xbe9c29d9	-0.30500677
150	0x3e9f436d	0.3110613
151	0x3e6420b9	0.22278108
152	0xbf19a1a5	-0.60012275
153	0xbd11c927	-0.035592224
154	0xbe0adf7d	-0.13561817
155	0x3f06fc3b	0.52728623
156	0xbe2237b1	-0.15841557
157	0xbee01423	-0.43765363
158	0x3d9e86e9	0.07740576
159	0xbef91a60	-0.48652935
160	0xbf0d8942	-0.55287564
161	0x3e36c102	0.17847064
162	0x3f64e4a4	0.8941138
163	0xbdef759d	-0.11692355
164	0x3ea7d521	0.32779792
165	0x3e8cdc28	0.27511716
166	0x3d3beba6	0.04587903
167	0x3db6da3a	0.08928342
168	0xbe29ef4b	-0.1659519
169	0xbb190fa7	-0.0023355277
170	0xbe5b43cc	-0.21412581
171	0x3d0405b4	0.032232
172	0x3f02cc5d	0.51093084
173	0x3eb6e63b	0.35722527
174	0xbedaf937	-0.4276826
175	0xbcf90615	-0.030398408
176	0xbf0c2488	-0.5474324
177	0xbe695dc5	-0.22789676
178	0x3e89cb17	0.26912758
179	0xbf64ad2b	-0.89326733
180	0x3ec2edb6	0.38071984
181	0xbf65bf3b	-0.8974492
182	0xbea6a277	-0.32545826
183	0xbe3e7a85	-0.18601425
184	0x3c420da1	0.01184407
185	0x3e14131c	0.14460415
186	0x3e310fff	0.17291258
187	0xbe92daad	-0.2868246
188	0x3d4869f8	0.048929185
189	0x3e8ed789	0.27898815
190	0x3bff120a	0.007784133
191	0xbee536b7	-0.44768307
192	0x3cd0788c	0.025448106
193	0x3f84a042	1.0361407
194	0xbf250d09	-0.64473015
195	0xbd6c7c02	-0.05773545
196	0xbe4590c6	-0.19293508
197	0xbe996c8b	-0.29965624
198	0xbe672c03	-0.22575383
199	0xbdd2987b	-0.102829896
200	0x3d07d355	0.033160526
201	0x3f3e6977	0.74379677
202	0x3c53ceb9	0.0129277045
203	0x3ec21d63	0.37913045
204	0x3f0e0f1a	0.55491793
205	0xbe9f8dd2	-0.31162888
206	0x3f6d5650	0.9270983
207	0xbecf08e5	-0.40436473
208	0x3bca9f5e	0.006183549
209	0x3ea42793	0.32061443
210	0x3e9ba7e4	0.30401528
211	0x3d737213	0.05943496
212	0x3eae0efc	0.33995807
213	0x3bf9b782	0.007620753
214	0x3e8020b7	0.2502496
215	0xbd208c25	-0.039196152
216	0xbdfb0a6c	-0.12257847
217	0xbf9da5f5	-1.2316271
218	0x3e77319d	0.2414002
219	0xbfb046ba	-1.3771584
220	0xbeabf47d	-0.33584967
221	0xbef5d360	-0.4801283
222	0x3ee9de9a	0.45677644
223	0x3d1bec9e	0.038067453
224	0x3eba09cc	0.363356
225	0xbe7f4d45	-0.2493182
226	0xbf2211b9	-0.6330829
227	0x3dd69a74	0.10478678
228	0xbca34f62	-0.019935314
229	0xbf155605	-0.5833438
230	0xbf45a7eb	-0.7720935
231	0xbed39d24	-0.41330826
232	0x3e4811eb	0.19538085
233	0x3d4d3daa	0.050107636
234	0xbf2054ba	-0.6262928
235	0x3e9b7c0a	0.30368072
236	0xbc093728	-0.008374967
237	0x3d12de51	0.03585655
238	0x3ebc9620	0.36833286
239	0xbc61fcad	-0.013793153
240	0x3c857749	0.016292231
241	0xbd2397df	-0.039939757
242	0xbd34540a	-0.04402546
243	0x3f2a57f0	0.6654043
244	0xbe37e63a	-0.17958918
245	0x3f043bbc	0.5165365
246	0xbe10b863	-0.14132838
247	0xbf1e9c3f	-0.6195716
248	0x3f3846b4	0.71982884
249	0x3f08f14a	0.5349318
250	0xbf558607	-0.83407634
251	0xbe13bb65	-0.14426954
252	0xbf68b62f	-0.9090299
253	0x3e26ef02	0.16302112
254	0x3ecafc66	0.3964569
255	0xbdf924c2	-0.12165214

fc3.bias f4 [4]
0	0xbd214c31	-0.039379302
1	0x3c052fe7	0.008129097
2	0x3d1b65be	0.037938826
3	0x3ce2235d	0.027604753
